results/ppo/FTG 00/FTG 00-6399.onnx (onnx, 74718 bytes, 9 tensors)

action_model._discrete_distribution.branches.0.bias f4 [2]
0	0x00000000	0.0
1	0x00000000	0.0

action_model._discrete_distribution.branches.0.weight f4 [2, 128]
0	0x3cc04036	0.023468118
1	0xbc12c9d7	-0.008959255
2	0x3c3bcc6f	0.011462315
3	0x3b5b9ce3	0.003351026
4	0xbbb6b12b	-0.0055753193
5	0x3c3dccf8	0.011584513
6	0x3bf7b2e7	0.0075591686
7	0x3a1c67e8	0.0005966411
8	0x3b851c4a	0.00406221
9	0x3b895537	0.0041910666
10	0x3c81788a	0.015804548
11	0x3cbedbdd	0.023298198
12	0xbbe1cf02	-0.0068911323
13	0x3c14d5bf	0.009084164
14	0xbc99b6af	-0.018763868
15	0xbc71a200	-0.0147480965
16	0x3b1465c9	0.0022643676
17	0xbc66f0af	-0.014095469
18	0x3c8f5cb8	0.017500266
19	0xbbf3cd12	-0.007440218
20	0xbc30d4bb	-0.010792906
21	0x3bc21f39	0.005924132
22	0xbad22bc5	-0.0016034773
23	0x394f73b0	0.00019784155
24	0xba1f3e24	-0.00060746283
25	0xbb9f849c	-0.004868103
26	0x3c4f8e25	0.012668167
27	0x3abce7cd	0.0014412344
28	0xbb39b5fc	-0.002833723
29	0x3b86a7bc	0.004109351
30	0x3c312c83	0.010813835
31	0xbb574af7	-0.003285108
32	0xbb22e663	-0.002485656
33	0x3bfbc3aa	0.007683237
34	0x3baf5b97	0.0053514945
35	0x3c01d31b	0.007923867
36	0xbc9c0e5b	-0.019049814
37	0xbc521c8b	-0.012824188
38	0xbc1a591b	-0.009420658
39	0xbc033983	-0.008009317
40	0xbb7fd6e7	-0.0039038004
41	0xbb4480cb	-0.0029983993
42	0xbc803b72	-0.015653346
43	0x3b90bb56	0.0044168634
44	0x3c2c9f09	0.010535964
45	0xbb6b6b65	-0.0035922166
46	0x3b9a770f	0.0047139
47	0x3b935f1e	0.004497423
48	0x3c309bc9	0.01077933
49	0x3c4d76ca	0.012540529
50	0xbc545d17	-0.0129616475
51	0xbb2d2a79	-0.002642302
52	0xb9b0b21f	-0.00033702046
53	0xbbd2e330	-0.0064357743
54	0xbbe36095	-0.0069390037
55	0xbc083628	-0.008313693
56	0xbb9e19a3	-0.0048248335
57	0x3c257feb	0.010101299
58	0xbb9e5934	-0.004832411
59	0xbc52df55	-0.012870629
60	0xbca4ee81	-0.020133259
61	0xbc427778	-0.011869304
62	0x3b377597	0.0027993673
63	0xbbb5b80d	-0.005545622
64	0xbb9759c9	-0.0046188575
65	0xbc2b315b	-0.010448779
66	0xbc45ed4b	-0.012080501
67	0x3bd04707	0.0063561234
68	0xbb9f50bc	-0.004861919
69	0x3b9df98d	0.0048210085
70	0xbc359b69	-0.011084416
71	0xbb3485a7	-0.0027545483
72	0x3a4bb10f	0.0007770219
73	0x3bf1a577	0.0073744613
74	0xba76f632	-0.0009420841
75	0x3c3e6d48	0.011622734
76	0x3aceb232	0.0015769659
77	0x3a619ba7	0.0008606263
78	0xbbdec832	-0.0067987675
79	0xb9bfb409	-0.00036564496
80	0x3ae5c5e5	0.0017530291
81	0x3b9393fc	0.004503725
82	0xba72cf1d	-0.00092624297
83	0xbc237937	-0.00997763
84	0x3bb54133	0.005531454
85	0x3ba9c713	0.005181202
86	0x3c120af1	0.008913741
87	0x3be8cfaf	0.007104836
88	0x3bf8722d	0.00758197
89	0xbaa31ede	-0.0012445112
90	0xbb991450	-0.004671611
91	0x3b15a62b	0.002283464
92	0xba7e7165	-0.0009706228
93	0x3bd2a8c0	0.006428808
94	0xbae776a8	-0.0017659264
95	0x3a9cfcc3	0.0011977184
96	0x3c98a783	0.018634563
97	0x3c843a9e	0.016141232
98	0xbca1dba0	-0.019758046
99	0x3c71dd07	0.01476217
100	0xbc7fcb6f	-0.015612467
101	0xbbfe7e4d	-0.007766521
102	0x3bf31607	0.0074183973
103	0x3c1f3823	0.009717974
104	0xb9406071	-0.00018346474
105	0x3c994eab	0.01871427
106	0x3b0e3237	0.002169741
107	0x3be893ed	0.0070977123
108	0xbb5dd5cd	-0.003384936
109	0x3c63e1e7	0.01390884
110	0x3c214907	0.009844071
111	0xbca3e6d5	-0.02000753
112	0xbbf170a3	-0.0073681637
113	0xbc1504a8	-0.009095348
114	0x3bb8c548	0.005638752
115	0x3c381892	0.011236327
116	0x3b89f4fa	0.0042101117
117	0xbb460d73	-0.0030220419
118	0x3c8566dd	0.0162844
119	0xbbc6c0ab	-0.0060654483
120	0x3bfabcf7	0.007651921
121	0xbc209857	-0.009801946
122	0xbb4e1e72	-0.0031451252
123	0x3a76fa0a	0.0009421414
124	0x3c622ca2	0.013804587
125	0xbc98214f	-0.01857057
126	0xbc26bbea	-0.010176638
127	0xbc215139	-0.009846025
128	0x3ba46a1f	0.0050175334
129	0xbb33b23b	-0.0027419466
130	0x3c828e74	0.015937068
131	0x3cc1501a	0.023597766
132	0xbb540d3d	-0.0032356523
133	0x3b131b4d	0.0022446692
134	0x3af4c16f	0.001867337
135	0xbbe41b1b	-0.006961239
136	0xbbe7bb32	-0.007071876
137	0xbc1349e6	-0.008989787
138	0x3b8f89e3	0.004380451
139	0x3b94dbba	0.004542795
140	0xbc4d102f	-0.0125160655
141	0x3b0af00d	0.002120021
142	0x3c184c25	0.009295498
143	0xbb4e3abb	-0.0031468112
144	0xbbfc2b80	-0.0076956153
145	0xbc0bc0d8	-0.008529864
146	0xb943af21	-0.0001866189
147	0xbb95d66f	-0.0045726816
148	0xbab7bd21	-0.0014018157
149	0xba832fcf	-0.0010008755
150	0xbaf08abf	-0.0018351896
151	0x3a9be3fa	0.0011893504
152	0xbc03a15c	-0.008034077
153	0x3c945201	0.018105509
154	0x3bfdac03	0.0077414527
155	0xbc3422a5	-0.010994588
156	0x3bd24587	0.0064169797
157	0xbab82593	-0.0014049284
158	0x3b94a627	0.0045364085
159	0xbab7202c	-0.001397138
160	0x3ae920b3	0.0017786234
161	0xbb9c90d6	-0.004778008
162	0x3c2ce31b	0.010552193
163	0x3beb0e9b	0.007173372
164	0xbc18173a	-0.009282881
165	0x3bd67447	0.006544623
166	0xbc545332	-0.012959288
167	0xbb63d83f	-0.0034766344
168	0xba3a573a	-0.00071083347
169	0xbc49d5ad	-0.012319011
170	0xbbdf6ca7	-0.0068183723
171	0x3b0c9d31	0.0021455998
172	0x3ab9cefc	0.0014176066
173	0xbc495bd7	-0.012289963
174	0x3b3bf023	0.0028677068
175	0xbc77f96f	-0.015135153
176	0xbba3c2a7	-0.0049975696
177	0xbb93aad9	-0.0045064506
178	0x3cc4f1db	0.024041107
179	0x3b1d4f09	0.0024003407
180	0xbc753893	-0.014967102
181	0x3b536ff3	0.0032262772
182	0x3c5c2853	0.013437348
183	0x3bc8c0e3	0.0061265095
184	0xbafcefd0	-0.0019297544
185	0x3bc26764	0.0059327353
186	0xb997e284	-0.00028969732
187	0xbc000912	-0.0078146625
188	0xbbdd46c3	-0.00675282
189	0xbc0e6334	-0.008690644
190	0xbb6e9bd2	-0.0036408794
191	0xbc0679db	-0.008207764
192	0xbb07999c	-0.0020690924
193	0xbc2e2288	-0.01062835
194	0x3caf844f	0.021425394
195	0xb8134c9f	-3.511889e-05
196	0x3befa563	0.007313417
197	0x3bddb5e8	0.0067660697
198	0xba40efe4	-0.0007359965
199	0xbba40b2a	-0.0050062137
200	0x3b4b3169	0.0031004793
201	0x3b537b10	0.0032269396
202	0xbbd3fa52	-0.0064690495
203	0xbc103c43	-0.00880343
204	0x3bd47b62	0.006484435
205	0x3af933e3	0.0019012656
206	0x3c21272a	0.009835998
207	0xbc0124cf	-0.007882311
208	0x3c1d5fb6	0.009605339
209	0xbc9bd50c	-0.019022487
210	0xbb1fd03f	-0.00243856
211	0x3af236a8	0.0018479424
212	0xbc135935	-0.008993437
213	0x3a479ba7	0.00076144416
214	0xbbec2a30	-0.0072071776
215	0xbc31a8e4	-0.010843489
216	0xbc01db03	-0.007925752
217	0x3b4e2f48	0.0031461287
218	0x3bb28d37	0.005448963
219	0xbb2d8889	-0.0026479086
220	0xbc1231bd	-0.008922991
221	0x3a9f3e7b	0.0012149358
222	0xbc0d696a	-0.00863109
223	0x3b831e0f	0.004001386
224	0xbc1e2e35	-0.009654571
225	0x3cc82082	0.024429563
226	0xbbd6fdd8	-0.0065610223
227	0xbb63a5b0	-0.0034736209
228	0x3c70b647	0.014691896
229	0x391304cf	0.00014020804
230	0xbc0b956e	-0.0085195135
231	0x3b41c804	0.0029568681
232	0xb8a4bdca	-7.85548e-05
233	0x3c8feb3b	0.017568221
234	0xbbe8f7b3	-0.007109606
235	0x3ae6ca60	0.001760792
236	0x3c2c4ee4	0.010516856
237	0x3afb8c1a	0.0019191534
238	0x3aba6137	0.0014219646
239	0x3a0b85a5	0.0005322344
240	0xbc235a0f	-0.009970202
241	0xbabd87a5	-0.0014459981
242	0x3c383b44	0.011244599
243	0x3b508288	0.0031816084
244	0x3be7954f	0.0070673595
245	0x3ac2c5f0	0.0014860015
246	0xbcc66d76	-0.024222117
247	0x3bb4729f	0.005506828
248	0x3c5e0d7a	0.013553018
249	0xb97ce600	-0.00024118274
250	0xbc4e4f77	-0.012592188
251	0x3bc9f557	0.00616328
252	0x3ba4f3ce	0.0050339466
253	0x3aa04371	0.001222713
254	0xbb064f40	-0.0020494014
255	0xbb9fdfb4	-0.0048789624

action_model._discrete_distribution.branches.1.bias f4 [3]
0	0x00000000	0.0
1	0x00000000	0.0
2	0x00000000	0.0

action_model._discrete_distribution.branches.1.weight f4 [3, 128]
0	0xbaa43445	-0.0012527785
1	0x3b917ac9	0.004439686
2	0x3c44840e	0.011994375
3	0xbbd7873a	-0.0065773996
4	0xba3450e5	-0.00068785093
5	0xbc57dd4a	-0.013175318
6	0xba911685	-0.0011069333
7	0xbc1c9f93	-0.00955953
8	0xbc38033b	-0.011231239
9	0x3b365948	0.0027824212
10	0x3c26c74f	0.010179355
11	0xbb8d92c7	-0.0043204757
12	0xbc92a167	-0.017899228
13	0x3bd1fe6b	0.006408503
14	0xbc189cc3	-0.009314719
15	0xba0c9870	-0.0005363291
16	0xbb03a61f	-0.002008803
17	0x3c0813d0	0.008305505
18	0xbc54416b	-0.01295505
19	0x3b3d28ea	0.0028863498
20	0xbc4adef3	-0.012382257
21	0xbb1a6f04	-0.0023564706
22	0x3bc448c2	0.0059901187
23	0x3c0c747e	0.008572696
24	0x3c4b8e2d	0.012424034
25	0x3bdaac68	0.0066733845
26	0x3bbd6703	0.005780102
27	0xbc5f63fd	-0.013634679
28	0xbc94cf52	-0.018165264
29	0x3aae5a41	0.0013302044
30	0xbc1d8aaa	-0.00961558
31	0xb9aa04d9	-0.00032428539
32	0x3c0d7ff3	0.0086364625
33	0xbb5148b0	-0.0031934194
34	0x3b9791d6	0.0046255393
35	0xbc6fc130	-0.014633462
36	0xb9d66a18	-0.00040896307
37	0x3bf0e36b	0.007351329
38	0x3c96317e	0.018334147
39	0x3bc65c8f	0.0060535143
40	0xbaf7387f	-0.0018861442
41	0x3add0888	0.0016863504
42	0xbb5a161f	-0.0033277345
43	0xba053912	-0.00050820515
44	0x3c9bfab0	0.019040436
45	0x3c0c76fd	0.008573291
46	0x3bb5ac37	0.0055442112
47	0x3c6f99e7	0.0146240955
48	0xbb33782b	-0.0027384858
49	0x3b2d2205	0.0026417982
50	0xba5a8f10	-0.0008337358
51	0x3ac594d1	0.0015074258
52	0x3b9d7b27	0.0048059407
53	0x3b519195	0.0031977643
54	0xbcb1b064	-0.021690555
55	0xbca82792	-0.020526681
56	0x3acd0637	0.0015642111
57	0x3a95a1ad	0.0011415981
58	0x3b548a58	0.0032431092
59	0x3c6f0670	0.014588937
60	0x3b7785ca	0.0037768953
61	0xbc2192f7	-0.009861699
62	0xbb179845	-0.0023131531
63	0x3a718840	0.0009213723
64	0xbc642a8b	-0.013926159
65	0x3b73b20f	0.0037184989
66	0xbc0c61dc	-0.008568253
67	0xba7e7715	-0.00097070757
68	0xbc09cd97	-0.008410833
69	0xbac74a57	-0.001520465
70	0xbc534753	-0.012895423
71	0x3c0b8d30	0.008517548
72	0x3c0b772b	0.008512299
73	0x3c123a90	0.008925095
74	0xbac7b55a	-0.0015236542
75	0xbc0ecd12	-0.008715885
76	0x3ae91568	0.0017782869
77	0x3c1afde3	0.009459945
78	0xbb8c8c41	-0.0042891805
79	0xbab1f206	-0.0013576157
80	0xbb352ce3	-0.0027645163
81	0x3bbac2f7	0.005699511
82	0xbbbf41ca	-0.0058367
83	0x3a83de20	0.0010060705
84	0xbbe705d3	-0.007050255
85	0x3b4c24a8	0.0031149779
86	0x3bb7acba	0.0056053074
87	0xbbea4585	-0.0071494007
88	0x3b9f226f	0.0048563997
89	0xbc5a3b8d	-0.013319862
90	0x382df3b4	4.147338e-05
91	0xbbcac7ff	-0.006188392
92	0x3b9ba372	0.004749709
93	0xbb456efa	-0.0030125962
94	0xbbb5d8db	-0.005549533
95	0xbb70d728	-0.0036749337
96	0xbb8a2930	-0.0042163357
97	0xbc49b476	-0.012311092
98	0x39b66a19	0.00034792794
99	0xbbd2d442	-0.0064339945
100	0x3ba2e7a1	0.00497146
101	0xbc22b4b3	-0.009930777
102	0x3b86a983	0.004109563
103	0xbaaad2ae	-0.0013032758
104	0xbb963b8b	-0.004584735
105	0x3b88f05f	0.004179045
106	0x3be71a77	0.0070527154
107	0x38d1465a	9.9790006e-05
108	0xbc25adca	-0.010112235
109	0x3cb2b5ac	0.021815144
110	0x3c5afaf7	0.013365499
111	0x3b26d1f3	0.002545473
112	0x3b9784d2	0.0046239877
113	0xb8664e6d	-5.4909313e-05
114	0xbc05c19a	-0.008163834
115	0x3be0046a	0.0068364637
116	0x3c8f9ce9	0.017530875
117	0xbc7fe9fd	-0.015619752
118	0x3c8aae7e	0.016928907
119	0xbac49f69	-0.0015001121
120	0x3b3f65a0	0.002920486
121	0x3c19a0e0	0.0093767345
122	0x3afeffc5	0.0019454887
123	0x3bf81d00	0.0075718164
124	0xbb9e2ace	-0.00482688
125	0x3bf09268	0.0073416717
126	0xbc29b5e7	-0.01035831
127	0xbc4191b7	-0.011814526
128	0x3c65c6dd	0.0140244635
129	0xbb5a94c8	-0.003335284
130	0x3b24385b	0.0025058005
131	0x3c5f74cb	0.013638685
132	0x3b953d47	0.004554424
133	0xbafff745	-0.0019528648
134	0x3a65925a	0.0008757465
135	0xbb84ea19	-0.004056227
136	0xbbffd70d	-0.0078076185
137	0xbb2374bf	-0.0024941412
138	0xbc3029df	-0.01075217
139	0x3bc58587	0.0060278806
140	0xbc92e14d	-0.017929697
141	0x3a030898	0.0004998534
142	0xbba1fde3	-0.0049435957
143	0x3c5f9055	0.013645251
144	0x3bbc32d1	0.0057433625
145	0x3c56f7db	0.013120617
146	0xbb5d8773	-0.0033802658
147	0x3c0fa61a	0.008767629
148	0xbc5386a7	-0.012910522
149	0xbb1c607f	-0.0023861227
150	0xbb85113d	-0.004060893
151	0xbbbfc61f	-0.0058524753
152	0xbbbcdcf3	-0.005763644
153	0x3b14b076	0.0022688187
154	0xbc4eba68	-0.012617685
155	0x3c320f77	0.010867945
156	0xbc16388b	-0.009168754
157	0xbc9ab6f7	-0.018886073
158	0x3c0c10cf	0.008548929
159	0x3bd0f605	0.006376984
160	0x3c148b99	0.009066486
161	0x3b9980a6	0.0046845255
162	0xbc9c39b4	-0.019070484
163	0x3c38201f	0.011238127
164	0x38c6beff	9.4769515e-05
165	0xbc93a840	-0.018024564
166	0x3c8bb7bc	0.017055385
167	0xbba3248b	-0.0049787215
168	0xbc05c77d	-0.0081652375
169	0xbbb04b44	-0.005380066
170	0x3ac7e743	0.0015251416
171	0x3bfe70d5	0.0077649155
172	0xb82739f9	-3.9869894e-05
173	0xbaaf7232	-0.0013385473
174	0xbca74277	-0.020417435
175	0x3a2ed2bb	0.00066689745
176	0x3c2a72f5	0.010403384
177	0x3b3e36ac	0.0029024286
178	0x3ba5d023	0.005060212
179	0x3c8fc150	0.017548233
180	0xbc48e923	-0.012262615
181	0x3b274cfb	0.0025528062
182	0x3c665a48	0.014059611
183	0x3c5991da	0.013279403
184	0xbc853e0f	-0.016264943
185	0x3960d085	0.00021439984
186	0xbb70be20	-0.0036734417
187	0x3aa26d94	0.0012392276
188	0x3c1af897	0.0094586825
189	0x3ca92701	0.020648481
190	0x3b4250d7	0.0029650235
191	0xbc514f10	-0.012775198
192	0x3ab21b6f	0.0013588498
193	0x3a048c56	0.0005056312
194	0x3a407ae4	0.0007342531
195	0x3ad3e3f3	0.0016165957
196	0xb96bdae3	-0.00022492888
197	0x3c37b6b9	0.011212998
198	0xbc31b6cb	-0.010846804
199	0x3ae6e9ed	0.0017617323
200	0x3c328ee1	0.010898323
201	0xbc181657	-0.00928267
202	0x3c2256e1	0.009908409
203	0x3bf942aa	0.007606824
204	0x3b07e5b6	0.0020736284
205	0x3b0b248b	0.0021231498
206	0x3cc80663	0.024417108
207	0x3c5c3ca0	0.0134421885
208	0xbc04b0de	-0.008098809
209	0xbc441f53	-0.011970359
210	0x3b89fc64	0.0042109955
211	0x39f0390a	0.00045818865
212	0xbb65675a	-0.003500423
213	0x3ad6c1e8	0.0016384693
214	0xbc76ae7b	-0.015056248
215	0x3bf4dd42	0.007472665
216	0x3ac301e3	0.0014877882
217	0xbc56738d	-0.013089073
218	0x3b23c883	0.002499134
219	0xbb70b318	-0.0036727842
220	0x3aaad9d7	0.0013034892
221	0x3c961daf	0.018324701
222	0xbbcc6d1c	-0.006238593
223	0xba4daaed	-0.00078455993
224	0xbad5c735	-0.0016309979
225	0x3b34a369	0.002756322
226	0xb9cb76d1	-0.00038807702
227	0x3ae0934f	0.0017133745
228	0x3c75af42	0.014995398
229	0xbc3653f3	-0.0111284135
230	0xbc7b4cda	-0.015338147
231	0xbc17dffc	-0.009269711
232	0x3b96097f	0.0045787687
233	0xbc11ba13	-0.008894461
234	0x3c61a72b	0.013772766
235	0x3c913ac3	0.017728215
236	0x3c0882b7	0.008331946
237	0xbba84d15	-0.005136142
238	0x3c273b9f	0.010207086
239	0xbc24496e	-0.010027273
240	0xbbd63813	-0.0065374463
241	0xbaa38df2	-0.0012478216
242	0xbc64d48d	-0.013966692
243	0xbc17aa0f	-0.009256854
244	0xb9ca2295	-0.00038554208
245	0xbba55480	-0.0050454736
246	0x3b54ed72	0.0032490161
247	0x3c62fc73	0.013854134
248	0xbbbb8503	-0.0057226433
249	0xbbfa5c2a	-0.0076403813
250	0x3cbf7fa7	0.023376299
251	0x3bc1ec7b	0.0059180832
252	0x3c891288	0.01673247
253	0x39930961	0.00028045013
254	0xbb82ebce	-0.0039953953
255	0x39a4cb43	0.0003143196

discrete_action_output_shape f4 [1, 2]
0	0x40000000	2.0
1	0x40400000	3.0

network_body._body_endoder.seq_layers.0.bias f4 [128]
0	0x00000000	0.0
1	0x00000000	0.0
2	0x00000000	0.0
3	0x00000000	0.0
4	0x00000000	0.0
5	0x00000000	0.0
6	0x00000000	0.0
7	0x00000000	0.0
8	0x00000000	0.0
9	0x00000000	0.0
10	0x00000000	0.0
11	0x00000000	0.0
12	0x00000000	0.0
13	0x00000000	0.0
14	0x00000000	0.0
15	0x00000000	0.0
16	0x00000000	0.0
17	0x00000000	0.0
18	0x00000000	0.0
19	0x00000000	0.0
20	0x00000000	0.0
21	0x00000000	0.0
22	0x00000000	0.0
23	0x00000000	0.0
24	0x00000000	0.0
25	0x00000000	0.0
26	0x00000000	0.0
27	0x00000000	0.0
28	0x00000000	0.0
29	0x00000000	0.0
30	0x00000000	0.0
31	0x00000000	0.0
32	0x00000000	0.0
33	0x00000000	0.0
34	0x00000000	0.0
35	0x00000000	0.0
36	0x00000000	0.0
37	0x00000000	0.0
38	0x00000000	0.0
39	0x00000000	0.0
40	0x00000000	0.0
41	0x00000000	0.0
42	0x00000000	0.0
43	0x00000000	0.0
44	0x00000000	0.0
45	0x00000000	0.0
46	0x00000000	0.0
47	0x00000000	0.0
48	0x00000000	0.0
49	0x00000000	0.0
50	0x00000000	0.0
51	0x00000000	0.0
52	0x00000000	0.0
53	0x00000000	0.0
54	0x00000000	0.0
55	0x00000000	0.0
56	0x00000000	0.0
57	0x00000000	0.0
58	0x00000000	0.0
59	0x00000000	0.0
60	0x00000000	0.0
61	0x00000000	0.0
62	0x00000000	0.0
63	0x00000000	0.0
64	0x00000000	0.0
65	0x00000000	0.0
66	0x00000000	0.0
67	0x00000000	0.0
68	0x00000000	0.0
69	0x00000000	0.0
70	0x00000000	0.0
71	0x00000000	0.0
72	0x00000000	0.0
73	0x00000000	0.0
74	0x00000000	0.0
75	0x00000000	0.0
76	0x00000000	0.0
77	0x00000000	0.0
78	0x00000000	0.0
79	0x00000000	0.0
80	0x00000000	0.0
81	0x00000000	0.0
82	0x00000000	0.0
83	0x00000000	0.0
84	0x00000000	0.0
85	0x00000000	0.0
86	0x00000000	0.0
87	0x00000000	0.0
88	0x00000000	0.0
89	0x00000000	0.0
90	0x00000000	0.0
91	0x00000000	0.0
92	0x00000000	0.0
93	0x00000000	0.0
94	0x00000000	0.0
95	0x00000000	0.0
96	0x00000000	0.0
97	0x00000000	0.0
98	0x00000000	0.0
99	0x00000000	0.0
100	0x00000000	0.0
101	0x00000000	0.0
102	0x00000000	0.0
103	0x00000000	0.0
104	0x00000000	0.0
105	0x00000000	0.0
106	0x00000000	0.0
107	0x00000000	0.0
108	0x00000000	0.0
109	0x00000000	0.0
110	0x00000000	0.0
111	0x00000000	0.0
112	0x00000000	0.0
113	0x00000000	0.0
114	0x00000000	0.0
115	0x00000000	0.0
116	0x00000000	0.0
117	0x00000000	0.0
118	0x00000000	0.0
119	0x00000000	0.0
120	0x00000000	0.0
121	0x00000000	0.0
122	0x00000000	0.0
123	0x00000000	0.0
124	0x00000000	0.0
125	0x00000000	0.0
126	0x00000000	0.0
127	0x00000000	0.0

network_body._body_endoder.seq_layers.0.weight f4 [128, 5]
0	0x3d88725d	0.06662438
1	0x3edc5e79	0.43040827
2	0xbe32276d	-0.17397852
3	0x3eb7aa9e	0.35872358
4	0xbe06e9f7	-0.13175188
5	0xbf142ba6	-0.578791
6	0x3e0b9695	0.13631661
7	0x3f7db98a	0.99111235
8	0x3f188d3b	0.595905
9	0xbef79308	-0.48354363
10	0x3f09ffb4	0.53905797
11	0xbe55df83	-0.20886044
12	0xbe8fd690	-0.28093386
13	0xbe60c6d8	-0.21950853
14	0xbec1c3a4	-0.37844574
15	0xbebac54f	-0.3647866
16	0xbdf4629c	-0.11932871
17	0x3e6d562a	0.231774
18	0xbed1f8f7	-0.41010258
19	0xbe43199b	-0.19052736
20	0x3ecd1044	0.40051472
21	0xbeb57f17	-0.35448524
22	0xbf09d8c0	-0.5384636
23	0xbed4863b	-0.4150866
24	0x3c105d04	0.008811239
25	0x3e406aa3	0.18790679
26	0x3f37363f	0.7156715
27	0xbe51c516	-0.20485339
28	0x3f1f0c32	0.62127984
29	0xbddaa685	-0.10676292
30	0x3d81ef81	0.0634451
31	0xbe4b5d3e	-0.19859788
32	0x3f04065a	0.5157219
33	0x3ea88132	0.32911068
34	0xbe0cf591	-0.13765551
35	0x3cef4400	0.02920723
36	0xbe312349	-0.17298616
37	0x3e8f7449	0.28018406
38	0x3f8e5c16	1.1121852
39	0xbe5d34a9	-0.2160212
40	0xbe3898ba	-0.1802701
41	0xbddb8624	-0.10718945
42	0xbe99fb80	-0.30074692
43	0x3d61d946	0.05513885
44	0x3ec6ee73	0.38853797
45	0x3f08061a	0.5313431
46	0x3cd222ef	0.025651423
47	0xbf0bc9b8	-0.54604673
48	0xbdf77b5e	-0.12084077
49	0xbe28c8e8	-0.1648289
50	0xbebcbfb3	-0.36865005
51	0x3b569eec	0.0032748533
52	0xbb0aea8b	-0.0021196927
53	0x3edfd260	0.4371519
54	0x3e6ae048	0.22937119
55	0xbed9ce73	-0.4254032
56	0x3ea98532	0.33109432
57	0xbe449c93	-0.19200353
58	0x3c5d96fe	0.013524769
59	0xbf0231c8	-0.5085721
60	0x3e9e5c35	0.30929723
61	0x3d56e4ff	0.05246448
62	0xbf26cfee	-0.65161026
63	0x3e3b7f67	0.18310319
64	0x3d37176a	0.044700064
65	0x3e8bfcd8	0.27341342
66	0x3f0ab8a2	0.5418798
67	0x3f37a609	0.71737725
68	0xbecff520	-0.40616703
69	0xbd942aec	-0.07234749
70	0xbf124992	-0.5714351
71	0x3bd54785	0.00650877
72	0xbf5422b3	-0.82865447
73	0x3e8b7c3c	0.2724322
74	0x3e67f03c	0.22650236
75	0x3da712f9	0.081579156
76	0xbe173a91	-0.14768435
77	0xbfb5797e	-1.4177701
78	0x3f26ef76	0.6520914
79	0x3db1e246	0.08685736
80	0x3f0c2182	0.5473863
81	0xbd3bf26f	-0.0458855
82	0xbe82b77b	-0.2553061
83	0x3f62d09a	0.8859955
84	0xbf0df4d8	-0.55451727
85	0x3e8b1023	0.2716075
86	0x3e30f360	0.1728034
87	0x3f389760	0.7210598
88	0xbf77fc3d	-0.9686926
89	0x3ea0c5af	0.3140082
90	0x3f6c71b0	0.92360973
91	0x3e0e95e2	0.13924363
92	0xbc528e46	-0.012851303
93	0xbdf0f720	-0.11765885
94	0xbdfe5ef7	-0.12420457
95	0xbe6f71be	-0.23383233
96	0xbf2aac2b	-0.6666896
97	0x3d507a5a	0.050897934
98	0x3e1f3ea7	0.15551244
99	0xbeb2f56c	-0.34952867
100	0x3f2f62b1	0.68509966
101	0xbf6bf2a3	-0.9216711
102	0xbeb99c52	-0.36252075
103	0xbdafe8ab	-0.085893
104	0x3e5bbd5d	0.21458955
105	0x3ee20e6b	0.44151625
106	0xbf67d32a	-0.90556586
107	0xbd80a6fd	-0.062818505
108	0xbed8398e	-0.4223141
109	0x3eeb96ff	0.46013638
110	0xbd1e5356	-0.038653694
111	0x3e421029	0.18951477
112	0x3f1191bd	0.56863004
113	0x3eae5cf8	0.34055305
114	0x3eed04f4	0.4629284
115	0x3f0b03ed	0.54302865
116	0x3f093406	0.53595006
117	0xbe710db2	-0.2354038
118	0x3e6f59f3	0.23374157
119	0x3ef4f939	0.47846392
120	0x3f4f60d4	0.81007123
121	0x3f146228	0.57962275
122	0xbd8ae290	-0.067814946
123	0x3e8500fe	0.2597732
124	0x3e47d169	0.19513477
125	0xbe763699	-0.24044265
126	0x3f2244d9	0.63386303
127	0xbf1b2c29	-0.6061426
128	0x3f1f3865	0.62195426
129	0xbea24402	-0.3169251
130	0xbea33944	-0.31879628
131	0x3ea40bd7	0.32040283
132	0x3bdc5ffc	0.0067253094
133	0x3dd26255	0.102726616
134	0x3e95e99e	0.29279798
135	0x3edc8c06	0.4307558
136	0xbe99a79c	-0.30010688
137	0x3c06a475	0.008217921
138	0x3d4cbabe	0.04998278
139	0x3eda772e	0.42669052
140	0x3c8d61de	0.01725858
141	0xbe5c9321	-0.215405
142	0x3e462252	0.1934903
143	0xbde2f891	-0.110825665
144	0xbf0e56a7	-0.5560097
145	0x3e2229c9	0.15836252
146	0x3f5e7c37	0.86908287
147	0xbe30ec0a	-0.17277542
148	0x3c9e8182	0.019348864
149	0x3d0e9b68	0.034816176
150	0xbf126cbf	-0.57197183
151	0xbe8acda2	-0.2711001
152	0xbe36a6f5	-0.17837127
153	0x3e739fe7	0.23791467
154	0xbf023604	-0.5086367
155	0xbe3719a9	-0.17880882
156	0x3e782138	0.24231422
157	0xbe9bc567	-0.30424044
158	0x3d6e4df0	0.058179796
159	0x3f90c1a7	1.1309098
160	0x3f231277	0.6370005
161	0xbe19d2bd	-0.15021797
162	0x3ec50d33	0.38486633
163	0xbe9959a4	-0.29951203
164	0xbea002d6	-0.31252164
165	0x3fa2b99b	1.2712892
166	0x3d60c8c1	0.054878954
167	0xbf25f9ed	-0.6483448
168	0xbf43425c	-0.7627313
169	0x3e166345	0.14686306
170	0x3ca13c4a	0.019682068
171	0x3e1a4ea5	0.15069063
172	0xbec901f2	-0.39259297
173	0xbf0e3330	-0.55546856
174	0x3f0ca4d1	0.5493899
175	0x3e866a77	0.262531
176	0xbf1bbd2c	-0.6083553
177	0xbf01153d	-0.5042303
178	0xbf72c95c	-0.948385
179	0x3f7c53b6	0.9856523
180	0xbb997578	-0.004683193
181	0x3f2c841e	0.67389095
182	0xbe459751	-0.19296004
183	0x3e12666d	0.14296885
184	0x3db16fce	0.08663903
185	0xbeaf4705	-0.3423387
186	0xbda2c4b0	-0.079476714
187	0x3ccce391	0.025010856
188	0xbe1ccb48	-0.1531192
189	0xbdf8a01a	-0.12139912
190	0xbd54e65a	-0.051977493
191	0x3e93dd8b	0.2887996
192	0xbe9194b4	-0.28433764
193	0x3e76968a	0.24080864
194	0xbd262639	-0.040563796
195	0x3f0f4fbf	0.5598106
196	0xbee5fd40	-0.44919777
197	0xbcef2988	-0.029194608
198	0x3f3e041b	0.74225014
199	0x3f56f6e7	0.83970493
200	0xbecb8d4d	-0.3975624
201	0x3f13e71d	0.57774526
202	0xbe8ce14f	-0.27515647
203	0xbe2147ad	-0.15749998
204	0xbcae96d5	-0.021312157
205	0x3dafd954	0.08586374
206	0x3f18db27	0.597094
207	0xbe5e1d47	-0.21690856
208	0xbe7e3ad3	-0.24827127
209	0xbf2f0343	-0.6836435
210	0x3d3f022b	0.046632927
211	0x3e56e394	0.20985252
212	0xbf08a092	-0.5337001
213	0x3df7c1bb	0.12097498
214	0x3ebb26de	0.3655309
215	0x3f0a6898	0.5406585
216	0x3e017835	0.12643512
217	0x3e83b6c4	0.25725377
218	0xbf6abddd	-0.9169596
219	0xbecac05b	-0.3959988
220	0x3f207aa8	0.6268716
221	0x3e818f34	0.25304568
222	0xbf140b86	-0.57830083
223	0xbe388a8b	-0.180216
224	0x3eefe5c1	0.46854976
225	0x3e6feabc	0.23429388
226	0x3ebf9091	0.37414983
227	0xbddd2e0a	-0.10799797
228	0x3eaaf8a3	0.3339282
229	0x3e44507d	0.19171329
230	0x3eaebb4f	0.3412728
231	0xbf512972	-0.81703866
232	0xbee3f954	-0.4452616
233	0xbe0f63a3	-0.14002852
234	0x3e7402c6	0.23829183
235	0x3e5b8236	0.2143639
236	0x3e9b27a7	0.3030369
237	0xbf0f9ef6	-0.5610193
238	0x3f8b289e	1.087177
239	0xbde93c7b	-0.11388489
240	0x3e10b7d7	0.1413263
241	0xbf179a1b	-0.5921952
242	0xbe18fcbb	-0.14940159
243	0xbe4c9b3e	-0.19981095
244	0xbf62cca1	-0.8859349
245	0x3ed520ab	0.41626486
246	0xbf1a8149	-0.60353523
247	0x3ebf6ae3	0.37386236
248	0xbe9b1e32	-0.30296475
249	0x3eb7e0fa	0.3591383
250	0xbe9a3f18	-0.30126262
251	0x3f600c61	0.8751889
252	0xbe96f389	-0.29482678
253	0xbdb50ad6	-0.088399574
254	0x3e3d2803	0.18472295
255	0x3ee762cf	0.45192572

network_body._body_endoder.seq_layers.2.bias f4 [128]
0	0x00000000	0.0
1	0x00000000	0.0
2	0x00000000	0.0
3	0x00000000	0.0
4	0x00000000	0.0
5	0x00000000	0.0
6	0x00000000	0.0
7	0x00000000	0.0
8	0x00000000	0.0
9	0x00000000	0.0
10	0x00000000	0.0
11	0x00000000	0.0
12	0x00000000	0.0
13	0x00000000	0.0
14	0x00000000	0.0
15	0x00000000	0.0
16	0x00000000	0.0
17	0x00000000	0.0
18	0x00000000	0.0
19	0x00000000	0.0
20	0x00000000	0.0
21	0x00000000	0.0
22	0x00000000	0.0
23	0x00000000	0.0
24	0x00000000	0.0
25	0x00000000	0.0
26	0x00000000	0.0
27	0x00000000	0.0
28	0x00000000	0.0
29	0x00000000	0.0
30	0x00000000	0.0
31	0x00000000	0.0
32	0x00000000	0.0
33	0x00000000	0.0
34	0x00000000	0.0
35	0x00000000	0.0
36	0x00000000	0.0
37	0x00000000	0.0
38	0x00000000	0.0
39	0x00000000	0.0
40	0x00000000	0.0
41	0x00000000	0.0
42	0x00000000	0.0
43	0x00000000	0.0
44	0x00000000	0.0
45	0x00000000	0.0
46	0x00000000	0.0
47	0x00000000	0.0
48	0x00000000	0.0
49	0x00000000	0.0
50	0x00000000	0.0
51	0x00000000	0.0
52	0x00000000	0.0
53	0x00000000	0.0
54	0x00000000	0.0
55	0x00000000	0.0
56	0x00000000	0.0
57	0x00000000	0.0
58	0x00000000	0.0
59	0x00000000	0.0
60	0x00000000	0.0
61	0x00000000	0.0
62	0x00000000	0.0
63	0x00000000	0.0
64	0x00000000	0.0
65	0x00000000	0.0
66	0x00000000	0.0
67	0x00000000	0.0
68	0x00000000	0.0
69	0x00000000	0.0
70	0x00000000	0.0
71	0x00000000	0.0
72	0x00000000	0.0
73	0x00000000	0.0
74	0x00000000	0.0
75	0x00000000	0.0
76	0x00000000	0.0
77	0x00000000	0.0
78	0x00000000	0.0
79	0x00000000	0.0
80	0x00000000	0.0
81	0x00000000	0.0
82	0x00000000	0.0
83	0x00000000	0.0
84	0x00000000	0.0
85	0x00000000	0.0
86	0x00000000	0.0
87	0x00000000	0.0
88	0x00000000	0.0
89	0x00000000	0.0
90	0x00000000	0.0
91	0x00000000	0.0
92	0x00000000	0.0
93	0x00000000	0.0
94	0x00000000	0.0
95	0x00000000	0.0
96	0x00000000	0.0
97	0x00000000	0.0
98	0x00000000	0.0
99	0x00000000	0.0
100	0x00000000	0.0
101	0x00000000	0.0
102	0x00000000	0.0
103	0x00000000	0.0
104	0x00000000	0.0
105	0x00000000	0.0
106	0x00000000	0.0
107	0x00000000	0.0
108	0x00000000	0.0
109	0x00000000	0.0
110	0x00000000	0.0
111	0x00000000	0.0
112	0x00000000	0.0
113	0x00000000	0.0
114	0x00000000	0.0
115	0x00000000	0.0
116	0x00000000	0.0
117	0x00000000	0.0
118	0x00000000	0.0
119	0x00000000	0.0
120	0x00000000	0.0
121	0x00000000	0.0
122	0x00000000	0.0
123	0x00000000	0.0
124	0x00000000	0.0
125	0x00000000	0.0
126	0x00000000	0.0
127	0x00000000	0.0

network_body._body_endoder.seq_layers.2.weight f4 [128, 128]
0	0x3d93bf99	0.07214279
1	0xbcd97cc4	-0.02654875
2	0x3d61e58e	0.05515056
3	0x3e35f4e3	0.17769198
4	0xbb7f6e86	-0.003897579
5	0x3deca0ba	0.11554094
6	0x3cdaaaac	0.02669271
7	0xbe245096	-0.16046366
8	0x3dcb2354	0.09918848
9	0xbc100eb9	-0.008792573
10	0xbe36c0f9	-0.1784705
11	0x3c0827f1	0.008310304
12	0x3e422d57	0.18962608
13	0x3d8f75c4	0.07004884
14	0x3c90f64a	0.017695565
15	0x3bc74c9c	0.0060821306
16	0x3e0e9339	0.13923348
17	0xbe19d52f	-0.1502273
18	0x3e23c46c	0.15992898
19	0x3d56d8a0	0.052452683
20	0xbd668ecc	-0.056288525
21	0x3bfe6543	0.007763536
22	0x3d12ff39	0.03588793
23	0xbc9f6a01	-0.019459726
24	0x3d5a9bde	0.053371303
25	0x3b25ec10	0.0025317706
26	0x3c9e7536	0.019343
27	0xbd620d08	-0.05518821
28	0x3c9b7e30	0.01898107
29	0xbcb6cda3	-0.022314852
30	0x3c66c576	0.014085164
31	0x3da96374	0.08270922
32	0xbe1349c8	-0.14383614
33	0x3d289960	0.041161895
34	0x3dcf106d	0.10110555
35	0xbe082215	-0.13294251
36	0xbd2e6f9d	-0.04258691
37	0x3d8bb79d	0.06822131
38	0xbe179387	-0.14802371
39	0x3e4de182	0.20105556
40	0xbbac70f9	-0.005262491
41	0x3b9dbb49	0.004813586
42	0xbdc9a4d7	-0.09845894
43	0x3ac0af8c	0.0014700755
44	0xbdf05aaf	-0.117360465
45	0xbe0d94fd	-0.13826366
46	0x3dae867c	0.085217446
47	0x3d73271a	0.059363462
48	0xbd5225f4	-0.051305726
49	0x3b8ccc62	0.0042968253
50	0xbc7d00ba	-0.015442068
51	0x3def0068	0.11669999
52	0x3df46a06	0.11934285
53	0x3d711b5b	0.05886398
54	0xba9df7e6	-0.0012052029
55	0xbc289be7	-0.010291076
56	0xbd774e80	-0.060377598
57	0xbd4f830b	-0.05066208
58	0xbc0a1ef2	-0.0084302295
59	0xbe36bf3f	-0.17846392
60	0x3dc14aa7	0.09438067
61	0x3d77baad	0.060480762
62	0x3dbf3375	0.093359865
63	0xbe25c40c	-0.16188067
64	0x3d4e7b02	0.05041028
65	0x3d40adfd	0.04704093
66	0xbd03e3cc	-0.032199666
67	0xbd34d061	-0.044144038
68	0x3cc0d93a	0.023541082
69	0x3d944cbc	0.072411984
70	0x3d8f2e5f	0.069912665
71	0x3c952836	0.01820765
72	0x3d0f7048	0.03501919
73	0x3d9dc047	0.077026896
74	0xbe1ca29a	-0.15296403
75	0xbe7ca0a2	-0.24670652
76	0xbd8cf512	-0.06882681
77	0xbe07f5fa	-0.13277426
78	0xbd50a973	-0.05094285
79	0x3d88a580	0.066721916
80	0x3d33fa65	0.043939967
81	0xbe2b9e5a	-0.16759625
82	0x3b8980de	0.0041962704
83	0xbd294b72	-0.041331716
84	0xbe0994c5	-0.13435657
85	0x3d57106a	0.052505888
86	0x3d96ccb6	0.07363264
87	0x3cf2d487	0.029642357
88	0xbd57eece	-0.052717976
89	0x3e016155	0.12634785
90	0x3e4be686	0.19912156
91	0x3d61dc49	0.05514172
92	0xbdcb31a7	-0.0992158
93	0x3d454722	0.04816354
94	0x3d2c5a3d	0.042078245
95	0xbe1971d8	-0.14984834
96	0x3b24ac01	0.0025126936
97	0x3b822807	0.003972057
98	0xbcf8a926	-0.030354094
99	0xbdb4ce11	-0.088283665
100	0xbcaf9800	-0.021434784
101	0x3dbc9e05	0.09209827
102	0x3df172f1	0.117895015
103	0xbd63e971	-0.05564255
104	0xbc815c10	-0.01579097
105	0xbe0f76c3	-0.14010148
106	0xbdf4d581	-0.11954785
107	0x3b9da230	0.004810594
108	0xbb9eee7e	-0.004850208
109	0x3da60027	0.08105498
110	0xbd0f0fde	-0.03492724
111	0x3e37cfd8	0.1795038
112	0xbbc15b83	-0.0059008016
113	0xbd891833	-0.06694069
114	0x3cb0a3db	0.021562507
115	0xbe34d053	-0.17657594
116	0x3d41766d	0.04723208
117	0x3c318ed8	0.010837279
118	0x3d785fd6	0.06063827
119	0x3d46fbd1	0.048579995
120	0xbdc0c138	-0.094118536
121	0xbe1f96f6	-0.15584931
122	0xbd9b1f9e	-0.0757439
123	0x3c114bcf	0.008868172
124	0xbdbdb2ca	-0.09262617
125	0xbcdcdc01	-0.026960375
126	0x3c172cff	0.0092270365
127	0x3d08952b	0.033345383
128	0xbdad469f	-0.084607355
129	0x3cde28e5	0.02711911
130	0xbdfb7a18	-0.12279147
131	0x3d45b33c	0.048266634
132	0xbb1575a8	-0.0022805724
133	0x3ca2caee	0.019872155
134	0x3d3d1131	0.046158973
135	0xbc16423c	-0.009171065
136	0x3e516f25	0.20452555
137	0xbd8fb9d0	-0.07017863
138	0x3d3ffde2	0.04687298
139	0x3d3afc54	0.045650795
140	0xbd033512	-0.032033034
141	0x3db80ee5	0.08987216
142	0x3dd9d679	0.106366105
143	0x3b4c5d37	0.003118349
144	0xbd2327a4	-0.039832726
145	0xbdc6f6d1	-0.09715045
146	0xbcfb8fd8	-0.030708238
147	0x3de2bc27	0.110710435
148	0xbd46eda6	-0.048566483
149	0xbd2ba724	-0.041907445
150	0x3cade821	0.021228852
151	0x3cc0b123	0.023521965
152	0x3de15204	0.11001971
153	0x3daeedf8	0.08541483
154	0xbd4e4726	-0.05036082
155	0xbd265c79	-0.040615533
156	0x3e244e5d	0.16045518
157	0xbd6b17fd	-0.057395924
158	0xbdabf787	-0.083968215
159	0xbd5021f4	-0.05081363
160	0x3e07a328	0.13245833
161	0xbd3db66a	-0.04631654
162	0x3cd4fcb3	0.025999403
163	0x3d96e508	0.07367903
164	0xbd8b66dc	-0.06806728
165	0x3bc3933e	0.0059684804
166	0xbdc9d3ec	-0.09854874
167	0xbd884815	-0.066543736
168	0xbc6abcaa	-0.014327208
169	0x3d3226b2	0.043493934
170	0x3d86f8b5	0.06590406
171	0x3cab1ad7	0.020886822
172	0xbd655eb1	-0.055998508
173	0x3d10c240	0.0353415
174	0xbde6a804	-0.11262515
175	0x3cc7a7fb	0.024372092
176	0xbc893969	-0.016751008
177	0xbe342c58	-0.17595041
178	0xbe86dfbf	-0.2634258
179	0xbba19462	-0.0049310187
180	0xbe068def	-0.13140081
181	0xbd67b94f	-0.05657321
182	0xbda6c431	-0.08142889
183	0xbcac14f1	-0.02100608
184	0x3d036024	0.03207411
185	0x3de43bff	0.11144256
186	0x3dcc775a	0.09983702
187	0x3c99b1f2	0.018761609
188	0xbe234f0e	-0.15948126
189	0xbe047f39	-0.12939157
190	0xbd7ab061	-0.061203364
191	0x3dabbf91	0.08386148
192	0x3e0e0fd4	0.13873225
193	0x3e0f052e	0.1396682
194	0x3d235fd2	0.039886303
195	0x3d85a45c	0.0652549
196	0xbcc2fcce	-0.023802187
197	0x3d1b8011	0.03796393
198	0xbd8c24aa	-0.068429306
199	0xbd6f0f6c	-0.058364317
200	0x3dd02761	0.10163761
201	0xbc1e07cb	-0.009645413
202	0x3d9ada31	0.07561148
203	0x3e3b1b50	0.18272138
204	0x3e394582	0.18092921
205	0xbd390c3f	-0.045177694
206	0x3df6280f	0.12019359
207	0xbd5f87be	-0.054572813
208	0x3ce2eead	0.0277017
209	0x3d733349	0.05937508
210	0xbbb26a95	-0.0054448345
211	0x3c08c5a6	0.008347904
212	0xbcec67f0	-0.028858155
213	0x3c2f136e	0.010685785
214	0xbcd1c3c5	-0.025606045
215	0xbd2fd57a	-0.042928196
216	0x3d6e6616	0.058202825
217	0xbdc6553a	-0.096842244
218	0xbe5dacb4	-0.21647912
219	0xbcb742b2	-0.02237067
220	0xbc9e7703	-0.019343859
221	0x3c4234ff	0.011853456
222	0x3e35837c	0.17725939
223	0x3c5fcd75	0.013659825
224	0xbe47618c	-0.19470805
225	0xbd09bdb1	-0.03362817
226	0xbdc79848	-0.09745842
227	0xbcacd040	-0.021095395
228	0x3d71ae25	0.059003968
229	0x3db3fb1e	0.08788131
230	0xbd306c4f	-0.04307204
231	0xbd4556c3	-0.048178446
232	0x3d8445c3	0.064586185
233	0xb99277dc	-0.00027936592
234	0x3db09928	0.08622962
235	0xbc80b6c1	-0.015712144
236	0xbcb67479	-0.022272335
237	0x3e000833	0.12503128
238	0xbdd0bb2b	-0.101919495
239	0x3d9e5607	0.07731252
240	0x3e210e38	0.1572808
241	0x3d86a549	0.065744944
242	0xbdcbe969	-0.09956629
243	0xbd916436	-0.07099192
244	0x3e32826a	0.17432562
245	0xbce04ba9	-0.027379828
246	0x3db30c65	0.087425984
247	0x3d2d7da6	0.042356156
248	0xbdd95cbc	-0.10613391
249	0x3cb9e5de	0.022692617
250	0x3cb62068	0.02223225
251	0x3d83f42e	0.06443058
252	0x3e0b0f23	0.13579993
253	0x3df89114	0.121370465
254	0x3d82cc25	0.06386594
255	0xbd0a2118	-0.033722967
