results/ppo/FTG 00/FTG 00-2567.onnx (onnx, 74718 bytes, 9 tensors)

action_model._discrete_distribution.branches.0.bias f4 [2]
0	0x00000000	0.0
1	0x00000000	0.0

action_model._discrete_distribution.branches.0.weight f4 [2, 128]
0	0x3b82ff38	0.0039977096
1	0x3bbd7d44	0.005782755
2	0x3c8b4b11	0.017003568
3	0x3c3f7f88	0.011688121
4	0xbc56659f	-0.013085752
5	0x393833e5	0.0001756694
6	0x3b945094	0.004526207
7	0xbb005753	-0.00195833
8	0x3b1fd364	0.0024387473
9	0x3acd6aaa	0.0015672047
10	0xbc10f6b3	-0.00884788
11	0xbc32f77e	-0.010923265
12	0x3b6ea812	0.0036416096
13	0x3c00272f	0.007821842
14	0x3b684a85	0.0035444808
15	0xbc31a3ab	-0.010842244
16	0xbca18412	-0.019716296
17	0xb944965e	-0.00018748033
18	0x3b872413	0.0041241734
19	0x3c9eb47e	0.019373175
20	0xbc3265e0	-0.010888547
21	0x3c5b5ea5	0.013389264
22	0x3bac7b83	0.005263747
23	0x3c0ed97f	0.008718847
24	0xbc93ac33	-0.018026447
25	0xbb845877	-0.004038866
26	0xbc3f7227	-0.011684931
27	0x3a24b647	0.0006283265
28	0xbc14addc	-0.009074654
29	0x3bba97ff	0.005694389
30	0xbc2d69bf	-0.010584294
31	0xbc15cabb	-0.009142573
32	0x3c1f072c	0.0097063
33	0x3b91de56	0.0044515533
34	0xbc156e89	-0.009120592
35	0x3bb8c7c9	0.0056390506
36	0xbc9677e3	-0.018367713
37	0x3be5fd83	0.0070187463
38	0x3bd1b603	0.0063998713
39	0x3c051e48	0.008124895
40	0xbc23486e	-0.009965999
41	0x3af79ffd	0.0018892285
42	0xba65acb7	-0.0008761393
43	0xbbfdfa07	-0.007750753
44	0x3bdbf9ef	0.006713144
45	0x3b207f76	0.0024490035
46	0xbc638067	-0.013885594
47	0x3c76e3c7	0.015068955
48	0x3c92c705	0.017917166
49	0xbc1d7dbc	-0.009612497
50	0xbb889324	-0.004167931
51	0xbc350952	-0.011049585
52	0x3b58b732	0.0033068177
53	0x3bbe88a4	0.0058146287
54	0xbb45090c	-0.0030065207
55	0x3aad8023	0.001323704
56	0xbc050c9c	-0.008120682
57	0x3bc3234e	0.0059551364
58	0x3bdd2c27	0.006749648
59	0xbc8a1aa3	-0.016858405
60	0xbc8b9f51	-0.017043741
61	0xbb34c45f	-0.0027582867
62	0xbc3c7e49	-0.011504718
63	0x3b6a842b	0.0035784345
64	0x3b514b27	0.0031935663
65	0xbcaf06c9	-0.02136554
66	0x3be5ea57	0.007016461
67	0x3c2ddcab	0.010611693
68	0xbbe531b7	-0.006994452
69	0x3bbd09a9	0.005768974
70	0x3c0a4553	0.00843938
71	0xbc03d84b	-0.008047174
72	0x3a419441	0.0007384457
73	0xbb88938e	-0.0041679805
74	0x3c06303d	0.008190212
75	0xbbc5a0a7	-0.006031114
76	0x3bc0ac7d	0.005879937
77	0xbafb04fb	-0.0019151265
78	0x3c6fc858	0.014635168
79	0x3b823e2b	0.003974696
80	0xbb3167ec	-0.002707
81	0xbc26ea59	-0.010187709
82	0x3c2026b0	0.009774849
83	0x3a7128c3	0.00091994944
84	0x3be8bb0a	0.007102375
85	0xbcc7a9f8	-0.02437304
86	0x3a06fe63	0.0005149601
87	0xbb4269fc	-0.0029665222
88	0x3bba876d	0.0056924135
89	0x3c75b528	0.014996804
90	0xbc326b66	-0.010889864
91	0x3c5b1c7b	0.0133734895
92	0x3b99e6ab	0.004696687
93	0xbc7c5ff0	-0.015403733
94	0x3c2c63be	0.010521827
95	0x3c093ea3	0.00837675
96	0xbc1328ea	-0.008981923
97	0x3bb5eaf7	0.0055516916
98	0x3a811af1	0.0009849948
99	0x3b0e426f	0.0021707078
100	0xbc2a3d67	-0.010390616
101	0x3c02d2bc	0.007984813
102	0xbba84215	-0.0051348307
103	0xbc26f803	-0.010190967
104	0x3b59198a	0.0033126795
105	0xbc127f00	-0.008941412
106	0x39e7d6b8	0.0004421973
107	0xbb896c63	-0.004193829
108	0xbb87e7fb	-0.0041475273
109	0x3bfb63af	0.0076717953
110	0xbb89fa1b	-0.004210723
111	0xbbc62b1f	-0.006047621
112	0x3c1548a7	0.00911156
113	0xbcbd8c6b	-0.023138246
114	0x3aed612b	0.0018110623
115	0xbc287a3f	-0.010283052
116	0xbbdb1be0	-0.0066866726
117	0x3c5c8938	0.01346045
118	0x3b455447	0.0030110048
119	0x3b70a3d2	0.0036718738
120	0xbbeaf5b2	-0.0071704024
121	0xbb8ca7ba	-0.0042924555
122	0x3a014071	0.0004930562
123	0xbc2d839b	-0.010590459
124	0x3abdf9f1	0.0014494044
125	0x3c0da605	0.008645539
126	0x3b41311e	0.002947874
127	0x3aad9ecc	0.0013246178
128	0xbb9993db	-0.004686815
129	0xbc8b3237	-0.016991718
130	0x3a92fc54	0.0011214116
131	0xbb8a19bd	-0.004214494
132	0xbc5f4540	-0.01362735
133	0x3b9c50f1	0.004770391
134	0x3b0dc6c1	0.002163336
135	0x3c738448	0.014863081
136	0xba4c9ee2	-0.0007805658
137	0xbb6e1903	-0.0036330826
138	0x3be1d085	0.0068913125
139	0xbba84a77	-0.00513583
140	0x3b09ce8b	0.002102765
141	0xbc065e80	-0.0082012415
142	0x3b98b3ec	0.0046601202
143	0xbabfaad7	-0.0014623058
144	0x3c23b431	0.009991691
145	0x3c5ff632	0.013669537
146	0xbb5e7f8f	-0.0033950543
147	0x3bbc4d1d	0.0057464973
148	0xbb8b2873	-0.0042467653
149	0x3b8877a0	0.004164651
150	0xbc3529c5	-0.011057322
151	0xbc8c5cad	-0.017134035
152	0xbc090dec	-0.008365136
153	0xbc09d2bf	-0.008412062
154	0xbb82c717	-0.0039910185
155	0x39f8d403	0.00047460207
156	0xbc873fdf	-0.016509948
157	0x3a5bfa23	0.000839146
158	0xbc0e131f	-0.008671551
159	0x3b5acba2	0.0033385535
160	0x3c2ace3b	0.010425146
161	0xbc1e2e27	-0.009654558
162	0xbb57b6fb	-0.0032915461
163	0xbbe14a45	-0.0068753087
164	0xba656477	-0.0008750627
165	0xbb4038db	-0.0029330764
166	0x3ca30307	0.019898904
167	0x3b0ab403	0.0021164424
168	0x3a7a1fa8	0.00095414603
169	0xbc85a2e4	-0.016313024
170	0x3bde1005	0.006776812
171	0xbc8991fe	-0.016793247
172	0x3c0c7d05	0.008574729
173	0x3a8073c6	0.0009800128
174	0x3ba8685d	0.005139394
175	0x3c516ee5	0.012782787
176	0xbc3efbf6	-0.011656752
177	0xbc39afc5	-0.011333411
178	0xbbbdd3f5	-0.0057930895
179	0x3b662898	0.003511941
180	0xbb32621d	-0.0027219125
181	0x3b43254f	0.0029776876
182	0xbc10f823	-0.008848223
183	0x3bf15c5b	0.007365746
184	0x3b0731b1	0.0020628984
185	0x3a44f66b	0.0007513526
186	0x3c825940	0.015911698
187	0xbc537388	-0.012905963
188	0x3cca9033	0.024726963
189	0x3c41647e	0.011803744
190	0xba513f42	-0.00079821434
191	0xbc93cea2	-0.018042866
192	0xbacf2b08	-0.0015805671
193	0x3c32019b	0.010864641
194	0xbb934a6b	-0.0044949553
195	0xbc7bb1c0	-0.015362203
196	0xb9e5d74a	-0.00043838687
197	0xbb88d72f	-0.0041760425
198	0xbbeef79f	-0.0072927023
199	0x3ba32d69	0.0049797785
200	0x3b8bf0d7	0.0042706537
201	0x3b0abaee	0.0021168548
202	0x3a173c4a	0.00057691766
203	0x3c2365fd	0.009973046
204	0x3a7ce6f3	0.0009647451
205	0x3bd5a198	0.0065195076
206	0x3c96ff19	0.018432187
207	0xbc08864d	-0.008332801
208	0xbb1b015f	-0.002365194
209	0x3bb6bc43	0.0055766418
210	0x3c091375	0.008366455
211	0xbb4d664d	-0.0031341494
212	0x3b991b53	0.0046724468
213	0xbc13f91b	-0.009031559
214	0x3ad00bb8	0.0015872633
215	0xbc1a904e	-0.009433819
216	0x3bca6f7a	0.00617784
217	0xbb359a5c	-0.0027710414
218	0xbbbfb585	-0.0058504962
219	0x3bed7ddb	0.007247669
220	0x3c4115e3	0.011785003
221	0xbb595925	-0.0033164707
222	0x3c7afbaa	0.01531879
223	0x3c3ca699	0.011514329
224	0xbc5dff17	-0.013549588
225	0xbc5383a5	-0.0129098045
226	0xbbd844bd	-0.006599991
227	0x3b022956	0.0019861064
228	0xbabecda4	-0.0014557135
229	0x3b92b5e0	0.0044772476
230	0xbc2ae9cd	-0.010431719
231	0x3c406583	0.011742952
232	0xbc1313ef	-0.0089769205
233	0x3bd044fa	0.006355879
234	0xbc909812	-0.017650638
235	0xbcb92327	-0.02259977
236	0xbb837e0f	-0.00401283
237	0xbb56a072	-0.0032749441
238	0x3c592553	0.013253528
239	0x3c8055d2	0.015665922
240	0xbb3e5c18	-0.0029046591
241	0x3c23c249	0.009995052
242	0x3be80923	0.0070811673
243	0xbc8d3eb5	-0.017241815
244	0xbac60083	-0.0015106354
245	0x3a89bed7	0.0010509145
246	0xbc1cb6bb	-0.009565051
247	0x3ac3bddc	0.0014933902
248	0xbbb65d59	-0.005565327
249	0x3c03db30	0.008047864
250	0xbaf0b342	-0.001836397
251	0xbbe5875a	-0.0070046606
252	0xbc363a99	-0.011122369
253	0xbc8566f3	-0.016284442
254	0xbbdefa47	-0.0068047377
255	0xbcdc39db	-0.026883056

action_model._discrete_distribution.branches.1.bias f4 [3]
0	0x00000000	0.0
1	0x00000000	0.0
2	0x00000000	0.0

action_model._discrete_distribution.branches.1.weight f4 [3, 128]
0	0xbc4e21ad	-0.012581271
1	0xbbd76b73	-0.0065740882
2	0xbc01ee0b	-0.007930289
3	0xbbba6ee4	-0.0056894887
4	0xbc15cbf9	-0.009142869
5	0x3c36b153	0.011150676
6	0x3bd1b9da	0.006400329
7	0xbc101f3b	-0.008796508
8	0xbb29fb59	-0.0025937168
9	0xbc8f88bf	-0.01752126
10	0xbad5f40a	-0.001632334
11	0x39feebb3	0.00048622265
12	0xbbeb2cba	-0.0071769627
13	0xbb6ca810	-0.0036110915
14	0xba0b6f73	-0.00053190364
15	0x3c0877bd	0.008329329
16	0x3aef5b23	0.0018261414
17	0x3a90a89b	0.0011036576
18	0x3bf4309b	0.0074520833
19	0xbb324057	-0.0027198994
20	0x3c2d9ccb	0.010596464
21	0x3bc73851	0.0060797115
22	0xbbfed33a	-0.007776645
23	0x3bdc5100	0.006723523
24	0x3c1f13f1	0.009709344
25	0x3ad9f5ea	0.0016629074
26	0xbb1733a0	-0.0023071542
27	0xbb4c7bad	-0.0031201646
28	0xbc3a271b	-0.0113618625
29	0x3b22f197	0.0024863237
30	0x3c40e248	0.0117727
31	0xbc2c71a3	-0.01052514
32	0x3c2d5fff	0.010581969
33	0x3b56c3b8	0.0032770466
34	0x3a81a6b1	0.0009891597
35	0xbb3cb181	-0.0028792324
36	0x3c0f1030	0.008731887
37	0xbc227ce9	-0.009917476
38	0x3b9d3330	0.004797362
39	0x3c50b970	0.012739524
40	0xb9d8b212	-0.00041331403
41	0x3bb37804	0.0054769535
42	0x3c81b957	0.015835447
43	0xbb96032a	-0.004578014
44	0x3c1e9bf9	0.0096807415
45	0xbb32e3e6	-0.0027296483
46	0x3c36e77b	0.011163588
47	0x3c168365	0.0091866
48	0xbbd49055	-0.0064869323
49	0x3adfa297	0.0017062005
50	0xbc0f4b9a	-0.008746052
51	0x3c97e6cc	0.01854267
52	0x3b7b3765	0.0038332578
53	0xbb87bb34	-0.0041421894
54	0x3c68711a	0.014187122
55	0xbbb00d57	-0.005372684
56	0xbbe33cea	-0.0069347518
57	0x3b1ea764	0.002420866
58	0xbb8702e6	-0.0041202186
59	0x3be3fbbf	0.0069575007
60	0x3bb4655f	0.0055052484
61	0xbc407767	-0.011747218
62	0xbc24f297	-0.010067604
63	0xbb5c3a95	-0.0033604254
64	0x3be28628	0.0069129653
65	0x3b4c942c	0.0031216247
66	0xbb9a10e4	-0.0047017206
67	0xbc26d8c4	-0.010183517
68	0xbb94cf02	-0.004541279
69	0x3af33b58	0.0018557115
70	0xbbd69d9f	-0.0065495516
71	0xbb0b073b	-0.0021214026
72	0xbc5ffcd8	-0.0136711225
73	0xbc98587f	-0.018596886
74	0xbbbfa030	-0.0058479533
75	0x3bcb97bc	0.0062131565
76	0xbbf7b04d	-0.0075588585
77	0xbc1499f1	-0.009069906
78	0xbbfa2a78	-0.007634457
79	0x3be68f0d	0.007036096
80	0xbbd3f5e5	-0.006468522
81	0xbc034b2b	-0.008013527
82	0x3ae3d4a5	0.0017382099
83	0x3c013bb5	0.00788777
84	0xbbe4b805	-0.0069799447
85	0xbbd4ac0d	-0.0064902366
86	0x3abe8488	0.0014535347
87	0x3c7913b3	0.015202451
88	0x3b1a7307	0.0023567097
89	0x3b685f78	0.0035457294
90	0xbb997451	-0.0046830554
91	0x3ad10d6f	0.0015949438
92	0x3b2159c2	0.002462015
93	0x3a5b1d5f	0.00083585636
94	0x3c76a275	0.015053381
95	0x3c2a6227	0.010399378
96	0xbc54c14b	-0.012985538
97	0xbbc5dfa2	-0.006038622
98	0xba94db2c	-0.0011356822
99	0x3b5cace3	0.0033672384
100	0xbc067d48	-0.00820858
101	0xbb1a5bab	-0.0023553174
102	0xbaf90adf	-0.0019000432
103	0xbb36edcb	-0.0027912732
104	0xbc2c3c72	-0.010512458
105	0xbb5cb377	-0.0033676305
106	0x3b9b63ae	0.0047421074
107	0x3b95d541	0.004572541
108	0x3c808165	0.0156867
109	0xbbc4d651	-0.006006994
110	0x3c0d06d8	0.008607589
111	0x3a9ac27e	0.0011807231
112	0x3b1bd85b	0.002378008
113	0x3b8e0473	0.0043340265
114	0xbc176993	-0.009241479
115	0x3abf13d3	0.0014578052
116	0x3a907406	0.0011020906
117	0x3b380823	0.0028081022
118	0x3c25e645	0.010125701
119	0x3c10f894	0.008848328
120	0x3c0993c2	0.008397045
121	0xba949227	-0.0011335061
122	0xbc15631c	-0.009117868
123	0xbb877f21	-0.004135028
124	0x3b561a75	0.0032669578
125	0x3c333866	0.010938739
126	0xba8778af	-0.0010335649
127	0x3ae9e353	0.0017844237
128	0x3bbaac99	0.005696845
129	0x3c722425	0.014779125
130	0x3bcab55c	0.0061861705
131	0xbb86d242	-0.00411442
132	0x3bb82185	0.00561923
133	0x3b862994	0.004094312
134	0xbbe1da5b	-0.006892485
135	0xbad1c7d7	-0.0016004991
136	0xbcd580b7	-0.026062353
137	0xb95317db	-0.00020131415
138	0xbc515277	-0.012776009
139	0xbad68b3b	-0.0016368398
140	0x3c4818a6	0.012212908
141	0xbbe25060	-0.006906554
142	0xbc17be43	-0.0092616705
143	0xbc550758	-0.013002239
144	0xbbd17200	-0.0063917637
145	0xbc2fe7aa	-0.010736385
146	0x3c4d7a2b	0.012541334
147	0x3ad47cc5	0.0016211501
148	0x3c27a5b1	0.010232375
149	0xbc59249d	-0.013253358
150	0xbaa203c6	-0.0012360744
151	0x3bb436e6	0.0054997085
152	0xba2f6730	-0.00066910964
153	0xbca79c1d	-0.020460183
154	0x3a6aa0f5	0.0008950376
155	0x3c5e4e65	0.013568495
156	0xbc0ef891	-0.008726255
157	0xbbad3141	-0.0052854125
158	0x3a1ae68e	0.0005908989
159	0xbbbaf0af	-0.0057049613
160	0xbb8c59b7	-0.004283156
161	0x3c652a0b	0.013987075
162	0xbc19dbfb	-0.009390826
163	0xbbbcc7ab	-0.005761107
164	0x3a8463fc	0.0010100598
165	0x3bdb669d	0.006695582
166	0xba087469	-0.0005205335
167	0xbbbe6bb5	-0.0058111795
168	0xbc3a2c03	-0.011363032
169	0xbbef932a	-0.0073112445
170	0xbc1ab380	-0.00944221
171	0x3c4b73bf	0.012417733
172	0xbc0fc70b	-0.008775483
173	0x3b15777c	0.0022806814
174	0x3caad5ff	0.020853994
175	0xbb94062b	-0.004517337
176	0xbc0d5aa0	-0.008627564
177	0x3b979d41	0.0046269004
178	0x3c234241	0.009964527
179	0x3ac0731f	0.0014682746
180	0x3b095e0f	0.0020960604
181	0xba1c4ea3	-0.00059626455
182	0xba27ea25	-0.00064054347
183	0xbb7a8558	-0.0038226452
184	0x3c7c1c23	0.015387568
185	0x3ba5069e	0.005036189
186	0xbc40a2c7	-0.011757559
187	0xbbdb1068	-0.0066853054
188	0xbab911c9	-0.001411968
189	0x3c1ea07a	0.009681815
190	0xbbf2cab0	-0.007409416
191	0xbbf2528d	-0.0073950947
192	0x3aeeacd8	0.001820947
193	0x3c99ab8b	0.018758556
194	0xbc9bd363	-0.019021695
195	0xbb820da5	-0.0039689117
196	0xbc0478f4	-0.008085478
197	0xbb8d80c3	-0.004318328
198	0xbc229f71	-0.009925709
199	0x3b00915c	0.001961789
200	0x3b8406eb	0.004029145
201	0xbbc0d6bb	-0.005884973
202	0xbba20fd4	-0.0049457345
203	0xbca43fbe	-0.020049926
204	0x3b83490e	0.0040065115
205	0xbaba9b4c	-0.0014236956
206	0x3b3526e2	0.0027641584
207	0x3b2f0108	0.0026703496
208	0xbbe41782	-0.00696081
209	0x3b9d3a30	0.0047981963
210	0xbc255e88	-0.010093339
211	0xbb3c0d31	-0.0028694386
212	0xbb424897	-0.0029645318
213	0xbb921de9	-0.004459132
214	0x3c3d39a8	0.011549391
215	0xbaacc66b	-0.0013181692
216	0x3b47a5ea	0.0030463883
217	0xb623c5f9	-2.4404128e-06
218	0x3ad47faa	0.0016212363
219	0xbaa247b7	-0.0012380992
220	0x3b370d41	0.0027931484
221	0xbbb93271	-0.005651765
222	0x3be8d822	0.007105843
223	0x39ae259f	0.00033215896
224	0x3bc80dc0	0.0061051548
225	0x3bdd6d7b	0.006757436
226	0xbbfeb142	-0.0077725956
227	0x3c260d83	0.010135057
228	0xbb989927	-0.004656929
229	0x3c0caf4b	0.008586715
230	0x3c155080	0.009113431
231	0xbc8905c3	-0.01672638
232	0xbb7c5183	-0.0038500733
233	0xbb81a75b	-0.003956718
234	0xbbbe3643	-0.0058048083
235	0x3bab303a	0.005224255
236	0xbc0376ab	-0.008023898
237	0x3b53e1ff	0.003233075
238	0xbbc03319	-0.0058654663
239	0x3c0946c3	0.008378687
240	0xbc16f13b	-0.009212787
241	0xbba9c6af	-0.0051811556
242	0xbbcbafbb	-0.006216017
243	0x3bb3f1a7	0.0054914537
244	0x3bcdbc08	0.0062785186
245	0x3c8bd099	0.01706724
246	0x3b41c332	0.0029565808
247	0x3c5b9b3a	0.013403708
248	0x3be048f3	0.0068446337
249	0xbcacedc1	-0.021109464
250	0xbc46bf57	-0.01213058
251	0x3b9ba193	0.0047494858
252	0x3c14b503	0.00907636
253	0x3a9e2f82	0.0012068602
254	0x3c2ed576	0.01067101
255	0x3aacae69	0.0013174537

discrete_action_output_shape f4 [1, 2]
0	0x40000000	2.0
1	0x40400000	3.0

network_body._body_endoder.seq_layers.0.bias f4 [128]
0	0x00000000	0.0
1	0x00000000	0.0
2	0x00000000	0.0
3	0x00000000	0.0
4	0x00000000	0.0
5	0x00000000	0.0
6	0x00000000	0.0
7	0x00000000	0.0
8	0x00000000	0.0
9	0x00000000	0.0
10	0x00000000	0.0
11	0x00000000	0.0
12	0x00000000	0.0
13	0x00000000	0.0
14	0x00000000	0.0
15	0x00000000	0.0
16	0x00000000	0.0
17	0x00000000	0.0
18	0x00000000	0.0
19	0x00000000	0.0
20	0x00000000	0.0
21	0x00000000	0.0
22	0x00000000	0.0
23	0x00000000	0.0
24	0x00000000	0.0
25	0x00000000	0.0
26	0x00000000	0.0
27	0x00000000	0.0
28	0x00000000	0.0
29	0x00000000	0.0
30	0x00000000	0.0
31	0x00000000	0.0
32	0x00000000	0.0
33	0x00000000	0.0
34	0x00000000	0.0
35	0x00000000	0.0
36	0x00000000	0.0
37	0x00000000	0.0
38	0x00000000	0.0
39	0x00000000	0.0
40	0x00000000	0.0
41	0x00000000	0.0
42	0x00000000	0.0
43	0x00000000	0.0
44	0x00000000	0.0
45	0x00000000	0.0
46	0x00000000	0.0
47	0x00000000	0.0
48	0x00000000	0.0
49	0x00000000	0.0
50	0x00000000	0.0
51	0x00000000	0.0
52	0x00000000	0.0
53	0x00000000	0.0
54	0x00000000	0.0
55	0x00000000	0.0
56	0x00000000	0.0
57	0x00000000	0.0
58	0x00000000	0.0
59	0x00000000	0.0
60	0x00000000	0.0
61	0x00000000	0.0
62	0x00000000	0.0
63	0x00000000	0.0
64	0x00000000	0.0
65	0x00000000	0.0
66	0x00000000	0.0
67	0x00000000	0.0
68	0x00000000	0.0
69	0x00000000	0.0
70	0x00000000	0.0
71	0x00000000	0.0
72	0x00000000	0.0
73	0x00000000	0.0
74	0x00000000	0.0
75	0x00000000	0.0
76	0x00000000	0.0
77	0x00000000	0.0
78	0x00000000	0.0
79	0x00000000	0.0
80	0x00000000	0.0
81	0x00000000	0.0
82	0x00000000	0.0
83	0x00000000	0.0
84	0x00000000	0.0
85	0x00000000	0.0
86	0x00000000	0.0
87	0x00000000	0.0
88	0x00000000	0.0
89	0x00000000	0.0
90	0x00000000	0.0
91	0x00000000	0.0
92	0x00000000	0.0
93	0x00000000	0.0
94	0x00000000	0.0
95	0x00000000	0.0
96	0x00000000	0.0
97	0x00000000	0.0
98	0x00000000	0.0
99	0x00000000	0.0
100	0x00000000	0.0
101	0x00000000	0.0
102	0x00000000	0.0
103	0x00000000	0.0
104	0x00000000	0.0
105	0x00000000	0.0
106	0x00000000	0.0
107	0x00000000	0.0
108	0x00000000	0.0
109	0x00000000	0.0
110	0x00000000	0.0
111	0x00000000	0.0
112	0x00000000	0.0
113	0x00000000	0.0
114	0x00000000	0.0
115	0x00000000	0.0
116	0x00000000	0.0
117	0x00000000	0.0
118	0x00000000	0.0
119	0x00000000	0.0
120	0x00000000	0.0
121	0x00000000	0.0
122	0x00000000	0.0
123	0x00000000	0.0
124	0x00000000	0.0
125	0x00000000	0.0
126	0x00000000	0.0
127	0x00000000	0.0

network_body._body_endoder.seq_layers.0.weight f4 [128, 5]
0	0x3edd78cd	0.43256226
1	0xbef79c6b	-0.48361525
2	0x3e524f94	0.20538169
3	0xbecaefcc	-0.39636075
4	0x3e746d2d	0.23869772
5	0x3e07bee1	0.13256408
6	0x3d367e94	0.044554308
7	0xbe1baaef	-0.15201925
8	0xbea6f27a	-0.3260687
9	0x3f721a11	0.94571024
10	0xbec18942	-0.37800032
11	0xbd5f6fb9	-0.054549906
12	0x3f20c92c	0.62806964
13	0xbe068060	-0.13134909
14	0xbebbbf0f	-0.36669204
15	0xbece223b	-0.4026049
16	0x3d7147a7	0.058906224
17	0x3e88050e	0.26566356
18	0x3f02bf82	0.5107347
19	0xbd96129d	-0.07327769
20	0xbefb445c	-0.49075592
21	0x3efa9518	0.48941875
22	0xbeaba4d2	-0.33524185
23	0xbe0f9b31	-0.14024045
24	0xbec950ab	-0.39319357
25	0xbe17af3f	-0.14812945
26	0xbebeff93	-0.37304363
27	0x3f7945b8	0.9737201
28	0x3e61873b	0.22024243
29	0x3e03e047	0.12878524
30	0x3eb99575	0.3624684
31	0xbee4dfbf	-0.44701955
32	0xbe3ae7f5	-0.18252547
33	0xbd5fccca	-0.05463866
34	0xbdcfb962	-0.10142781
35	0x3eeba0eb	0.46021208
36	0xbeaf196c	-0.34199083
37	0x3f0a0e59	0.5392814
38	0xbfa1b851	-1.2634374
39	0xbe5f72a6	-0.21821079
40	0x3e42b691	0.19014956
41	0xbf9b683a	-1.2141182
42	0xbe81cc8b	-0.25351366
43	0x3f774308	0.96586657
44	0xbf37902f	-0.7170438
45	0x3efb7aa4	0.49117005
46	0x3d58c700	0.052924156
47	0x3e075886	0.13217363
48	0x3cb10969	0.021610932
49	0x3ee9ae75	0.45640913
50	0x3e811869	0.25213936
51	0xbf0a7882	-0.5409013
52	0xbe72317c	-0.2365169
53	0xbeb01d2e	-0.34397262
54	0x3eb4aca6	0.3528797
55	0xbe6b3981	-0.22971155
56	0xbe95dd70	-0.29270506
57	0x3effb568	0.4994309
58	0xbf5af575	-0.8553079
59	0x3d46ba4d	0.048517514
60	0xbf2000bc	-0.6250112
61	0x3e742707	0.23843013
62	0xbcfac321	-0.030610623
63	0x3ee99295	0.45619646
64	0xbef44d73	-0.4771534
65	0x3e4f7aea	0.20261732
66	0xbee26ba4	-0.44222748
67	0x3d214ed8	0.039381832
68	0x3eb37248	0.35048127
69	0xbf2da4a9	-0.67829376
70	0x3f6689cd	0.9005402
71	0xbcb384a1	-0.021913828
72	0xbce83157	-0.02834384
73	0xbc9e21e5	-0.019303272
74	0x3fa5cce0	1.2953148
75	0xbbd9a7e2	-0.0066423276
76	0xbf326d15	-0.69697696
77	0x3eca1d80	0.39475632
78	0xbeafe5b8	-0.3435495
79	0x3d0adab4	0.033899978
80	0xbeda64ab	-0.4265493
81	0x3eceb19f	0.4036989
82	0x3d9f33e3	0.077735685
83	0xbdce467e	-0.10072039
84	0x3ea70379	0.32619837
85	0x3f0b7d2c	0.5448787
86	0x3e7125de	0.23549601
87	0xbd57a556	-0.05264791
88	0xbe9513eb	-0.2911676
89	0x3e63da01	0.2225113
90	0x3ef5f379	0.48037317
91	0x3e08c485	0.13356216
92	0xbe13d68e	-0.14437315
93	0xbf1e1a9e	-0.61759365
94	0x3e98ffa7	0.29882547
95	0x3f17bfde	0.5927714
96	0xbd37064a	-0.044683732
97	0xbe161500	-0.14656448
98	0x3f007026	0.50171125
99	0x3f008662	0.5020505
100	0x3eb161d0	0.34644938
101	0x3dca0afa	0.09865375
102	0x3dc694ad	0.096963264
103	0x3e541c4b	0.20713918
104	0x3efef2c2	0.49794585
105	0xbc9ad2bd	-0.018899316
106	0x3eaca728	0.3372128
107	0x3f043eab	0.51658124
108	0xbb1a440d	-0.0023539097
109	0xbdc67158	-0.09689587
110	0x3ddb2e12	0.107021466
111	0xbef3e3ae	-0.47634643
112	0xbf1ac1dd	-0.6045206
113	0x3d4a4bd0	0.049388707
114	0x3f0f5e7f	0.56003565
115	0x3d830e35	0.06399194
116	0x3e9bd505	0.30435959
117	0x3edec983	0.43513116
118	0xbe335017	-0.1751102
119	0xbc70fb23	-0.014708313
120	0xbd687f3d	-0.05676197
121	0x3eeb6357	0.45974228
122	0xbda197ae	-0.07890259
123	0x3db34adb	0.08754512
124	0xbe7305d7	-0.23732696
125	0x3f400d80	0.750206
126	0x3f5d65e3	0.8648359
127	0xbec01433	-0.3751541
128	0x3ed97cc3	0.42477998
129	0x3f125b58	0.5717063
130	0x3eb1f5d5	0.34757867
131	0x3e396d6d	0.18108149
132	0xbebd02bf	-0.36916158
133	0x3f5bf51e	0.85920894
134	0xbea5a68f	-0.32353637
135	0xbeb98c87	-0.36240026
136	0xbf898464	-1.0743527
137	0xbe9cd88e	-0.30633968
138	0xbf053752	-0.5203754
139	0xbf000adc	-0.5001657
140	0xbe7bf9e1	-0.2460704
141	0xbeb413e3	-0.35171422
142	0x3d7f7461	0.062366847
143	0xbe325b15	-0.17417558
144	0xbe1e5f12	-0.15465954
145	0x3eb4503a	0.35217458
146	0x3e97c357	0.2964122
147	0x3e82b9ea	0.25532466
148	0x3f06befe	0.5263518
149	0xbefa78fb	-0.48920426
150	0xbf1d8b68	-0.6154084
151	0x3f171443	0.5901529
152	0xbcf2e983	-0.029652363
153	0x3e5f8f6b	0.21832053
154	0xbe65a54f	-0.22426341
155	0x3e94994b	0.29023203
156	0xbe50a23a	-0.20374385
157	0xbe72c880	-0.23709297
158	0x3f198c91	0.5998011
159	0x3cdb4876	0.02676795
160	0xbf1f96a7	-0.6233925
161	0xbfcd24b7	-1.602683
162	0x3f0c2466	0.5474304
163	0xbf7695c7	-0.9632229
164	0xbf153e97	-0.5829863
165	0x3f03a8e5	0.5142959
166	0x3e92eadd	0.2869481
167	0xbdfd31b8	-0.12362999
168	0x3f191e56	0.59811914
169	0x3eec1bbc	0.4611491
170	0x3f1eb0d0	0.61988544
171	0xbed27a09	-0.4110873
172	0x3ea5c6ff	0.32378384
173	0xbe8f32e4	-0.27968514
174	0x3e1615b5	0.14656718
175	0xbee03161	-0.43787673
176	0x3e626628	0.22109282
177	0xbf1d8d0b	-0.6154334
178	0xbee3296a	-0.44367534
179	0xbeb9da70	-0.36299467
180	0x3f15e556	0.58553064
181	0xbdba082e	-0.090835914
182	0x3f2acd7d	0.667198
183	0x3e8043fd	0.2505187
184	0x3dc701a3	0.09717109
185	0x3e770c4e	0.24125788
186	0x3d9a7b3e	0.07543038
187	0xbf14dd0f	-0.5814981
188	0xbf3a2270	-0.727088
189	0xbed30000	-0.41210938
190	0x3d411a63	0.047144305
191	0x3f534416	0.82525766
192	0xbfaafae8	-1.335782
193	0x3eb58948	0.354563
194	0xbe5bfa58	-0.21482217
195	0xbe2fc16c	-0.17163628
196	0x3eaf8777	0.3428304
197	0x3f6aefbe	0.9177207
198	0xbdd8e3d3	-0.10590329
199	0x3f80ea20	1.0071449
200	0xbf1039f2	-0.5633842
201	0xbd6b95a0	-0.05751574
202	0xbf416ee1	-0.7555981
203	0xbe13238f	-0.14369033
204	0xbf0d4bf1	-0.55194
205	0xbf0e0a78	-0.55484724
206	0xbd85c6f4	-0.06532088
207	0x3f1930f6	0.59840333
208	0xbf1a1d24	-0.60200715
209	0xbea9d779	-0.33172205
210	0x3e0a45d5	0.13503201
211	0x3e2a9642	0.16658881
212	0xbdba17c4	-0.09086564
213	0xbf4a4aa9	-0.7902017
214	0x3eea4bf4	0.45761073
215	0xbe5a9099	-0.21344222
216	0x3eb2102b	0.3477796
217	0x3ee698a6	0.45038337
218	0xbf160f15	-0.58616763
219	0x3e78b66c	0.24288338
220	0x3e116e05	0.14202125
221	0xbe31e977	-0.17374216
222	0xbf75c187	-0.95998424
223	0xbe84579b	-0.25848088
224	0xbe5b5d2e	-0.21422264
225	0xbe9e4055	-0.30908456
226	0xbf58a839	-0.8463169
227	0xbe03c9b8	-0.12869918
228	0xbe153784	-0.14571959
229	0x3f1be93f	0.6090278
230	0xbef24600	-0.4731903
231	0x3eabb344	0.33535206
232	0xbdb44606	-0.088024184
233	0x3e9199ed	0.2843775
234	0xbcbcdd80	-0.023054838
235	0x3e8ccf17	0.27501747
236	0x3e4c6be2	0.19963029
237	0x3ef29702	0.47380835
238	0x3e05adaf	0.13054536
239	0xbf0817b2	-0.53161156
240	0xbe8101df	-0.2519674
241	0xbeb9827a	-0.36232358
242	0xbed9fa32	-0.42573696
243	0x3ed91486	0.4239847
244	0xbf63f5a8	-0.89046717
245	0x3ecab978	0.39594626
246	0xbdce61ce	-0.100772485
247	0x3f5569b2	0.83364403
248	0xbf35c00e	-0.7099618
249	0xbe1d0372	-0.15333346
250	0xbeca7be2	-0.3954764
251	0xbebd4d20	-0.36972904
252	0x3dcee543	0.10102322
253	0xbe14be38	-0.14525688
254	0xbe88def1	-0.2673259
255	0xbda08667	-0.07838135

network_body._body_endoder.seq_layers.2.bias f4 [128]
0	0x00000000	0.0
1	0x00000000	0.0
2	0x00000000	0.0
3	0x00000000	0.0
4	0x00000000	0.0
5	0x00000000	0.0
6	0x00000000	0.0
7	0x00000000	0.0
8	0x00000000	0.0
9	0x00000000	0.0
10	0x00000000	0.0
11	0x00000000	0.0
12	0x00000000	0.0
13	0x00000000	0.0
14	0x00000000	0.0
15	0x00000000	0.0
16	0x00000000	0.0
17	0x00000000	0.0
18	0x00000000	0.0
19	0x00000000	0.0
20	0x00000000	0.0
21	0x00000000	0.0
22	0x00000000	0.0
23	0x00000000	0.0
24	0x00000000	0.0
25	0x00000000	0.0
26	0x00000000	0.0
27	0x00000000	0.0
28	0x00000000	0.0
29	0x00000000	0.0
30	0x00000000	0.0
31	0x00000000	0.0
32	0x00000000	0.0
33	0x00000000	0.0
34	0x00000000	0.0
35	0x00000000	0.0
36	0x00000000	0.0
37	0x00000000	0.0
38	0x00000000	0.0
39	0x00000000	0.0
40	0x00000000	0.0
41	0x00000000	0.0
42	0x00000000	0.0
43	0x00000000	0.0
44	0x00000000	0.0
45	0x00000000	0.0
46	0x00000000	0.0
47	0x00000000	0.0
48	0x00000000	0.0
49	0x00000000	0.0
50	0x00000000	0.0
51	0x00000000	0.0
52	0x00000000	0.0
53	0x00000000	0.0
54	0x00000000	0.0
55	0x00000000	0.0
56	0x00000000	0.0
57	0x00000000	0.0
58	0x00000000	0.0
59	0x00000000	0.0
60	0x00000000	0.0
61	0x00000000	0.0
62	0x00000000	0.0
63	0x00000000	0.0
64	0x00000000	0.0
65	0x00000000	0.0
66	0x00000000	0.0
67	0x00000000	0.0
68	0x00000000	0.0
69	0x00000000	0.0
70	0x00000000	0.0
71	0x00000000	0.0
72	0x00000000	0.0
73	0x00000000	0.0
74	0x00000000	0.0
75	0x00000000	0.0
76	0x00000000	0.0
77	0x00000000	0.0
78	0x00000000	0.0
79	0x00000000	0.0
80	0x00000000	0.0
81	0x00000000	0.0
82	0x00000000	0.0
83	0x00000000	0.0
84	0x00000000	0.0
85	0x00000000	0.0
86	0x00000000	0.0
87	0x00000000	0.0
88	0x00000000	0.0
89	0x00000000	0.0
90	0x00000000	0.0
91	0x00000000	0.0
92	0x00000000	0.0
93	0x00000000	0.0
94	0x00000000	0.0
95	0x00000000	0.0
96	0x00000000	0.0
97	0x00000000	0.0
98	0x00000000	0.0
99	0x00000000	0.0
100	0x00000000	0.0
101	0x00000000	0.0
102	0x00000000	0.0
103	0x00000000	0.0
104	0x00000000	0.0
105	0x00000000	0.0
106	0x00000000	0.0
107	0x00000000	0.0
108	0x00000000	0.0
109	0x00000000	0.0
110	0x00000000	0.0
111	0x00000000	0.0
112	0x00000000	0.0
113	0x00000000	0.0
114	0x00000000	0.0
115	0x00000000	0.0
116	0x00000000	0.0
117	0x00000000	0.0
118	0x00000000	0.0
119	0x00000000	0.0
120	0x00000000	0.0
121	0x00000000	0.0
122	0x00000000	0.0
123	0x00000000	0.0
124	0x00000000	0.0
125	0x00000000	0.0
126	0x00000000	0.0
127	0x00000000	0.0

network_body._body_endoder.seq_layers.2.weight f4 [128, 128]
0	0x3b841e26	0.0040319143
1	0x3e08e589	0.1336881
2	0x3d124583	0.035710823
3	0x3d13ba58	0.036066383
4	0xbb8cdc97	-0.0042987573
5	0xbb8df508	-0.0043321885
6	0x3dc88d65	0.09792594
7	0x3e57f2b1	0.21088673
8	0x3dc13101	0.09433175
9	0x3dc85293	0.09781375
10	0xbdd57f81	-0.1042471
11	0xbe13a74e	-0.1441929
12	0x3d845a11	0.06462491
13	0x3998f0e9	0.0002917119
14	0x3de5f702	0.112287536
15	0xbdf1d282	-0.11807729
16	0xbd176344	-0.0369599
17	0xbba418c5	-0.0050078356
18	0x3d87e8fd	0.06636236
19	0xbddcee54	-0.10787645
20	0x3d674466	0.056461714
21	0xbd2e261c	-0.042516813
22	0x3d65176d	0.055930544
23	0x3cc778dd	0.024349624
24	0x3cb3b03f	0.021934627
25	0x3e322bdd	0.17399545
26	0xbc04dd15	-0.008109351
27	0x3d78fc29	0.060787354
28	0x3cd3fe35	0.025878051
29	0x3e7b4ff2	0.24542215
30	0x3ca97f80	0.02069068
31	0x3dc315f6	0.09525673
32	0x3c336835	0.010950138
33	0x3dafd806	0.08586125
34	0x3d43f8e5	0.047844786
35	0x3d958c15	0.07302109
36	0xbd461972	-0.04836411
37	0xbe10ead3	-0.14152078
38	0x3d0f49db	0.034982543
39	0x3d0b064a	0.033941545
40	0xbc97d0bf	-0.018532155
41	0x3e430fe8	0.19049037
42	0x3c2a2793	0.010385412
43	0xbd1946ba	-0.037420966
44	0x3d0a370e	0.03374391
45	0x3e3f9224	0.18708092
46	0x3d26c4df	0.040715095
47	0xbe1b1cbe	-0.15147683
48	0xbcf1e60c	-0.02952864
49	0x3bf84670	0.007576756
50	0xbd777ea5	-0.060423512
51	0xbc996c2d	-0.01872834
52	0x3d4d8ba2	0.050181992
53	0x3b34046c	0.0027468456
54	0xbd53cb5f	-0.05170762
55	0xbc94c1ec	-0.018158875
56	0xbd1003ce	-0.03515988
57	0xbd9a553d	-0.07535789
58	0xbddc584f	-0.10759031
59	0x3e8031fc	0.25038135
60	0xbd740225	-0.059572358
61	0xbc6205ca	-0.0137953255
62	0xbd937696	-0.07200353
63	0xbdc6d4e2	-0.09708573
64	0xbc5c4e8e	-0.013446463
65	0x3cb6b48b	0.022302886
66	0xbe11d903	-0.1424294
67	0x3d5cc3a1	0.053897504
68	0x3e05473f	0.1301546
69	0xbc9b68fb	-0.018970957
70	0xbe130e99	-0.14361037
71	0xbd0ba795	-0.034095366
72	0x3e8416c1	0.2579861
73	0xbe03b0bb	-0.12860386
74	0xbdacdc3d	-0.084404446
75	0xbd2dca2f	-0.042429145
76	0x3e11c126	0.14233837
77	0x3cb0c9bf	0.021580575
78	0xbc19c1ac	-0.009384554
79	0x3d799665	0.060934443
80	0xbe0cd372	-0.13752535
81	0x3e3d9ac8	0.18516076
82	0xbcb82c0d	-0.022481943
83	0xbdab3b4c	-0.08360919
84	0xbd292f66	-0.04130497
85	0xbd471792	-0.048606463
86	0xbc9e6109	-0.01933338
87	0xbc265087	-0.010151035
88	0x3ca01ec5	0.019545922
89	0x3dfb0cf9	0.12258334
90	0x3c7dc931	0.015489862
91	0xbd6e17bc	-0.058128104
92	0xbe07c33e	-0.13258073
93	0xbd58ba40	-0.052911997
94	0xbbef9937	-0.007311966
95	0xbdbe1683	-0.092816375
96	0xbc332ce1	-0.010935993
97	0xbce92dc1	-0.0284642
98	0xbdcffa92	-0.10155214
99	0xbd81562e	-0.063152656
100	0x3d9ebc7d	0.07750795
101	0x3e0f7602	0.1400986
102	0x3c879453	0.016550219
103	0xbc909e99	-0.01765375
104	0xbdc42104	-0.0957661
105	0xbdfd1628	-0.123577416
106	0xbdbe46e1	-0.09290863
107	0x3d86f343	0.06589367
108	0xbdf39230	-0.118931174
109	0x3e006f41	0.1254244
110	0xbd9919c9	-0.07475621
111	0x3d9b7f6e	0.07592665
112	0x3d6adc3a	0.05733893
113	0x3e019c29	0.12657227
114	0x3cee1b6f	0.029065816
115	0x3d0f628f	0.035006102
116	0x3d1ae912	0.03781993
117	0xbc8edd29	-0.017439442
118	0x3dcf16d1	0.10111774
119	0xbd219491	-0.039448325
120	0x3e06b1db	0.13153784
121	0x3e085fcb	0.13317792
122	0xbb67809b	-0.0035324458
123	0x3ba30803	0.0049753203
124	0xbde2fde4	-0.11083582
125	0xbc1758f4	-0.009237517
126	0xbcadb24f	-0.021203188
127	0x3d1a8551	0.037724797
128	0x3d89176e	0.06693922
129	0xbd6f59c0	-0.0584352
130	0x3cdaab83	0.026693111
131	0x3caddbf2	0.021223042
132	0x3daca44e	0.08429776
133	0xbdb8df0e	-0.09026919
134	0xbe2db7bc	-0.1696462
135	0x3d54de69	0.05196992
136	0x3ddbf189	0.107394286
137	0x3cb8caef	0.022557704
138	0x3e0a0ad1	0.13480689
139	0xbdc89a31	-0.09795035
140	0x3c1d4da7	0.009601033
141	0xbd07ee72	-0.033186384
142	0x3db9f19c	0.090792865
143	0xbd883cc8	-0.06652218
144	0x3a7a7381	0.00095539546
145	0xbd48e264	-0.049044028
146	0x3d150f81	0.03639174
147	0xbcae1e27	-0.021254612
148	0x3d3794f2	0.04481978
149	0xbe08cb4c	-0.13358802
150	0xbd5719b9	-0.052514765
151	0x3c921710	0.017833263
152	0x3dd1888d	0.10231123
153	0xbdc263bc	-0.09491679
154	0x3d7cba14	0.061700895
155	0xbd13c264	-0.036074057
156	0x3d7ebfa1	0.06219447
157	0xbe4740c5	-0.19458301
158	0xbd356ad3	-0.04429133
159	0x3e1c56c0	0.15267467
160	0x3b8def9a	0.0043315412
161	0x3ba78441	0.0051122014
162	0xbdd23109	-0.10263259
163	0x3dbf3e11	0.0933801
164	0x3a303475	0.0006721684
165	0xbe042e39	-0.12908258
166	0xbe59c5e8	-0.21266901
167	0xbd5da65d	-0.054113735
168	0xbced50cf	-0.028969197
169	0x3cf7e1c4	0.03025902
170	0x3d3e32c7	0.046435144
171	0xbdd091fe	-0.10184096
172	0x3d937b31	0.07201231
173	0xbb89c6f3	-0.004204625
174	0x3e221e12	0.15831783
175	0xbc96d2fd	-0.018411154
176	0xbd018e96	-0.03163012
177	0xbe56d88b	-0.20981042
178	0x3e0d789c	0.1381554
179	0xbe010f42	-0.12603477
180	0xbd70d8f4	-0.058800653
181	0xbd6df8ae	-0.058098488
182	0xbd0935ee	-0.033498697
183	0xbc15c437	-0.00914102
184	0xbdd7c004	-0.10534671
185	0xbe28ca88	-0.1648351
186	0xbd7c2400	-0.06155777
187	0x3d025e28	0.031828076
188	0x3d2b7acb	0.04186515
189	0xbdafd0d6	-0.08584754
190	0x3dfac391	0.122443326
191	0x3d58cd73	0.052930307
192	0xbceff323	-0.029290741
193	0x3da15bef	0.07878863
194	0xbcf371b3	-0.029717302
195	0x3df027af	0.11726319
196	0xbcbfb508	-0.023401752
197	0xbe5cd5e5	-0.2156597
198	0xbce86985	-0.028370628
199	0x3e15ed99	0.14641418
200	0x3e2ff41d	0.17182966
201	0xbbe82b2b	-0.007085224
202	0xbe0acf5a	-0.13555661
203	0xbbb6f815	-0.005583773
204	0x3e20b6ff	0.15694807
205	0xbdc2f4e9	-0.09519369
206	0x3c092a1a	0.008371854
207	0xbe12c5fb	-0.14333336
208	0x3c78c277	0.015183083
209	0xbe158c7e	-0.14604375
210	0x3e4d48a2	0.20047238
211	0x3d870d0f	0.065942876
212	0xbd6335ea	-0.05547134
213	0x3e40943e	0.1880655
214	0x3d9f4281	0.077763565
215	0xbd737d4d	-0.059445668
216	0xbce1fa33	-0.027585125
217	0x3d1667f7	0.036720242
218	0xbd45dfcf	-0.048309144
219	0xbbde475e	-0.00678341
220	0x3c4fcc3d	0.012682972
221	0x3dcf5a64	0.101246625
222	0x3d2eb33f	0.04265141
223	0xbc419906	-0.011816269
224	0x3c0c94d1	0.0085804025
225	0xbd2ee06b	-0.04269449
226	0x3dd848d0	0.10560763
227	0x3b07716f	0.0020666977
228	0xbd89c616	-0.06727235
229	0x3c82510a	0.015907783
230	0x3bfc6974	0.0077030007
231	0xbdb7a8ce	-0.08967744
232	0xbd223fa7	-0.039611485
233	0x3cd61d7e	0.02613711
234	0xbd9bcd55	-0.07607523
235	0xbc0c6342	-0.008568587
236	0xbd811086	-0.0630198
237	0x3ca41ba6	0.020032715
238	0xbdbd15da	-0.092326835
239	0xb8d169d0	-9.985606e-05
240	0x3dc03e1b	0.09386846
241	0x3d506be3	0.05088414
242	0x3d84feed	0.06493936
243	0x3cc78e09	0.02435972
244	0x3d7956cb	0.060873788
245	0x3d991549	0.07474763
246	0x3e0134da	0.12617818
247	0xbe25aad3	-0.16178446
248	0x3d5245de	0.05133616
249	0xbd67f0df	-0.056626197
250	0xbd6a89e1	-0.057260398
251	0xbcd1703d	-0.025566215
252	0xbe0559fb	-0.13022606
253	0x3d22fcec	0.039791986
254	0x3d98fa03	0.07469561
255	0xbe215f90	-0.1575911
