results/ppo/FTG 00/FTG 00-500024.pt (torch, 441207 bytes, 40 tensors)

discrete_act_size_vector f4 [1, 2]
000000 00 00 00 40 00 00 40 40
       2.0 3.0

network_body._body_endoder.seq_layers.0.weight f4 [128, 5]
000000 eb d6 cb bd c5 35 34 3d cd 0b 1f 3e 6c 9f e8 bd
       -0.09953102 0.04399659 0.15531845 -0.11358532
000010 f6 7d a0 3e ab a1 59 3f 64 93 39 bf 71 82 2a 3f
       0.313461 0.8501231 -0.72490525 0.6660529
000020 8f 69 06 bf bc b6 f5 be 28 a4 98 be 74 4d 32 bc
       -0.5250482 -0.47990978 -0.2981274 -0.010882724
000030 0b d6 0c 3e e7 f4 36 bf b2 a0 72 3d 9a 31 87 3e
       0.13753526 -0.7146744 0.059235282 0.2640503
000040 b3 52 29 bc 88 89 b6 be b1 66 b9 3e 92 82 5f bd
       -0.010334658 -0.35651803 0.3621116 -0.05456788
000050 5c bc d9 be 20 be cc be 88 df e5 be b7 f1 15 3e
       -0.4252652 -0.39988804 -0.44897103 0.14642988
000060 5f 5d b0 bd c1 b9 d0 bd 55 6b 1c 3e b6 78 7f 3f
       -0.08611559 -0.1019168 0.15275319 0.99793565
000070 d3 e0 16 be 00 71 30 bf bb 9e 9f 3e 02 ff 51 3c
       -0.14734201 -0.68922424 0.3117579 0.012817146
000080 8a 50 31 3f df 49 c7 be 2d cd 76 be 7d 31 a0 be
       0.6926352 -0.38923547 -0.24101706 -0.31287757
000090 4a 2d 89 3e d0 33 40 3c a6 a5 27 be 88 7c 01 bf
       0.26792365 0.011731103 -0.16371784 -0.50580645
0000a0 4f a6 fd be 45 f7 94 3e 51 a8 a8 3d 16 87 47 3d
       -0.49540946 0.29094902 0.08235229 0.048712812
0000b0 29 e7 7b bf e6 ff 0e 3c 6b c8 3b bf e7 7a af 3c
       -0.983996 0.008728003 -0.7335269 0.02142091
0000c0 bd 53 4e 3f 85 ad 51 bf 35 64 09 bf 56 ca 05 3f
       0.80596524 -0.81905395 -0.5366853 0.52261865
0000d0 e7 52 08 3f 99 74 01 bf c1 53 a6 3e 3c 69 09 3f
       0.532515 -0.5056854 0.32485774 0.536762
0000e0 3d 0b 80 be 6b 72 a8 3d c3 fa 9b 3e 23 da 14 3f
       -0.25008574 0.082249485 0.30464754 0.5814535
0000f0 53 9f 31 bf 39 62 84 3e b4 55 48 be 61 e3 39 bd
       -0.69383734 0.25856188 -0.19563943 -0.04538286
000100 f9 d3 2f 3f 11 f7 fe bd 92 61 46 3e ba 95 88 3e
       0.6868282 -0.12449468 0.19373158 0.26676732
000110 90 be 03 bf 11 10 0b 3e 01 19 57 be f2 28 5a be
       -0.5146265 0.13580348 -0.21005632 -0.21304682
000120 45 a7 5e 3e a5 8c 1f 3f 64 d7 12 bf f9 24 7a be
       0.21743496 0.6232398 -0.5735991 -0.24428166
000130 3b 50 38 3e 51 51 30 bd 0b ca 8f be 86 4d 15 3e
       0.17999355 -0.0430463 -0.28083834 0.14580354
000140 aa 63 82 3f 6c 07 42 3f 07 47 0c 3f 16 d6 db 3e
       1.0186665 0.75792575 0.5479588 0.42936772
000150 7b bf 1c bf ed 57 d9 bc 48 ad 10 3d d5 7c ca 3e
       -0.61229676 -0.026531184 0.035321504 0.39548364
000160 80 0c 9c be 8d 6a e4 3e 5d d6 12 bf 7b 02 ca 3e
       -0.30478287 0.44612542 -0.5735834 0.39455017
000170 c5 b7 69 bd 42 8f f5 be f9 3b 4d bf c2 a2 00 bf
       -0.057060022 -0.4796086 -0.80169636 -0.5024835
000180 a9 e5 0a bf 02 a6 3a be 5a eb 82 3e 91 41 09 3e
       -0.54256684 -0.1822739 0.25570184 0.13403918
000190 33 9f 22 3f 35 cb e2 be be 73 19 bf b9 41 f6 bd
       0.6352417 -0.4429566 -0.59942234 -0.12024254
0001a0 32 6b 40 3e 3a 41 52 3f c1 5e 27 bf ef 2f bf be
       0.18790892 0.8213078 -0.6537896 -0.37341258
0001b0 31 3f 42 be aa 27 15 bf 26 7c 00 bc a7 c2 1b bf
       -0.18969418 -0.5826365 -0.007842099 -0.6084389
0001c0 e4 a0 dc be 90 b8 8e 3e 08 79 ef 3d 8c ea 0c 3f
       -0.430915 0.27875185 0.11693007 0.5504539
0001d0 a5 94 80 be 03 aa 05 3d a7 f7 fa 3d ef 23 67 be
       -0.25113407 0.03263284 0.12254267 -0.22572301
0001e0 6a 00 8a 3e c3 45 24 bf 75 3c a5 be 09 08 1a bf
       0.2695344 -0.6416895 -0.32272688 -0.6016851
0001f0 b0 67 67 bd 30 b0 5f be 3c 8f 06 3e a0 36 a5 be
       -0.05649537 -0.21844554 0.13140577 -0.32268238
000200 9e 7a c1 be af ec 38 bf bb 80 c4 3e 23 8c c9 3e
       -0.37788862 -0.7223615 0.38379464 0.39364728
000210 a9 69 c2 be 62 11 95 be 5a e8 49 3f 68 6f 27 bd
       -0.37971237 -0.29114825 0.78870165 -0.04087773
000220 5e 77 f9 3a b9 1c 14 3f 6c d8 ac bd ef 1e 49 bf
       0.0019032767 0.5785633 -0.08439717 -0.78562826
000230 1a fd 00 bf 2c 71 df be fe 1c 8b bc ba 48 9c 3f
       -0.503862 -0.4364103 -0.016981598 1.2209694
000240 37 bb 17 3e 24 f5 f9 be 06 a5 32 3f bf 94 05 3f
       0.1481751 -0.4881984 0.69783056 0.52180094
000250 c1 e2 89 3c 9d 1a 82 be 98 b5 95 be 3f ef 0e 3e
       0.016831758 -0.2541093 -0.29240108 0.13958453
000260 f1 39 e7 3e 56 1b 12 3e ce f0 35 3f db 89 7f 3e
       0.45161393 0.1426824 0.71070564 0.24954931
000270 38 08 79 bf c2 4e 52 be 47 1f 79 3e 75 30 57 bf
       -0.97278166 -0.20537856 0.24328338 -0.84058315
000280 7f 2d 98 3e 8e 3f 82 bd ac df 2f 3e 1d 67 eb 3e
       0.2972221 -0.06359778 0.17175168 0.45977107
000290 09 85 18 3d c1 12 09 3f a3 9a 8b be 20 fc 1e 3f
       0.037236247 0.5354424 -0.27266416 0.6210346
0002a0 b6 a8 72 bf 82 3e d0 3c 61 24 78 3e 20 2e 2d bf
       -0.9478868 0.025420431 0.24232627 -0.67648506
0002b0 90 8f 91 be 6e ed 3c be 26 55 9d 3d 1a a6 92 be
       -0.28429842 -0.18449947 0.076822564 -0.2864235
0002c0 90 3d 4f 3f 69 73 78 3f 29 75 bf be 10 f4 cc bc
       0.8095331 0.970511 -0.37394074 -0.025018722
0002d0 00 fa b8 be 27 a8 91 bd ca b5 f7 3e 3d ae 8d be
       -0.36128235 -0.07112151 0.48380882 -0.27671996
0002e0 88 2d 35 3e 89 45 51 3e 46 8a de 3e 62 8a 6c bf
       0.1769315 0.20436682 0.4346487 -0.92398655
0002f0 43 37 81 be b1 73 33 bf a6 1c ab be 27 e8 5e 3f
       -0.25237474 -0.70098406 -0.33420295 0.87072986
000300 d9 ab b1 bc f5 da 8a bf 2d a1 18 bd 89 5a 37 3e
       -0.021688389 -1.084807 -0.037263084 0.1790563
000310 59 95 23 3e 50 0e 40 3f 37 c2 28 bf 7b bc 18 3d
       0.1597494 0.7502184 -0.6592135 0.037289124
000320 6b bd 10 bf 05 c1 0a 3f 68 45 06 bf 5d d0 88 3e
       -0.5653903 0.54200774 -0.52449656 0.2672147
000330 d5 c0 4d 3d 09 28 81 3e c4 f3 85 3e f7 df 6a bf
       0.050232727 0.25225857 0.2616254 -0.91747993
000340 00 be 5d 3e 72 c2 9d 3e 77 d0 0a 3e 9a e7 f0 3d
       0.2165451 0.30812413 0.13556086 0.117629245
000350 4c 72 42 be c6 26 76 be 35 0a 9d 3e 8f a5 0b 3e
       -0.18988913 -0.24038228 0.3067185 0.13637374
000360 5a 41 65 bf 1c e9 dc 3d 7a c2 f2 be e2 c2 df 3d
       -0.89552844 0.107866496 -0.47414 0.10925843
000370 bd 29 e6 3e 23 df d7 be ed b7 ab be 38 d3 df be
       0.4495372 -0.42162427 -0.33538762 -0.43715835
000380 55 12 2c bd 63 73 33 be e5 6f bf bc 14 e5 27 3f
       -0.04200967 -0.17524485 -0.023368785 0.6558392
000390 8a 6d 2d bf 58 e2 1c bd ca 18 f2 be 71 39 e0 be
       -0.6774527 -0.038301796 -0.47284538 -0.43793824
0003a0 ed d3 69 3e 50 ae 8e 3e 6c 26 f5 3e 63 cf 05 3f
       0.2283475 0.27867365 0.47880876 0.5226957
0003b0 30 03 88 3b 79 18 e2 be ed fc fa 3d e1 e5 cf be
       0.0041507706 -0.44159296 0.12255273 -0.4060507
0003c0 31 21 ac 3d c1 84 9d 3e 54 9f 84 3e 69 45 06 3f
       0.08404768 0.30765346 0.25902808 0.5244966
0003d0 71 7b cb 3d 7d cb 4a 3e ab ec 17 bf e5 ca 09 bd
       0.09935654 0.19804187 -0.593455 -0.03364076
0003e0 c1 45 1d 3f 14 84 d9 be 3e 7c f8 bc c0 19 83 bd
       0.6143456 -0.4248358 -0.03033268 -0.06401396
0003f0 de de ce be 7e 8b d1 be 11 90 10 bf 03 ae 48 3e
       -0.4040441 -0.40926737 -0.5646983 0.1959763

network_body._body_endoder.seq_layers.0.bias f4 [128]
000000 90 d9 9e 3b f8 0e 8f ba 72 47 ce 3c 1a 2d 5d bb
       0.004847713 -0.0010914495 0.025180552 -0.0033748806
000010 47 a8 cd 3c ef 41 aa 3c ca 5d 0e bc d2 ef b8 3b
       0.025104655 0.020783393 -0.008689353 0.005643823
000020 09 5b 94 bb 11 ba 82 bc 8c b5 62 bc ad e8 90 39
       -0.004527454 -0.015957864 -0.013837229 0.00027639177
000030 55 0f 49 bc 07 7a 1d 3b 10 8d 3c 3c 62 bb af bc
       -0.012271722 0.0024029033 0.011508241 -0.021451656
000040 92 a9 ed 3b cd 51 0c 3c 1b dd d0 bb 0d 4b 88 3c
       0.0072528804 0.008564425 -0.006374014 0.01663735
000050 27 1b 55 ba 5e 10 64 bc a7 be 8f bc ae 77 8b bb
       -0.0008129351 -0.013919918 -0.017546965 -0.0042562103
000060 a4 78 2d 3b d0 db 39 3d 4e af b7 3a bf 05 96 3c
       0.0026469612 0.045375645 0.0014014037 0.018313287
000070 5e e8 26 3b 54 ec 2b 3b fd 17 a5 3b b0 cc e1 bb
       0.0025468091 0.0026233392 0.00503826 -0.0068908557
000080 08 7a 15 bc 3d ca 95 b8 1d 62 fd 3b a0 4b 49 bc
       -0.009123333 -7.1425435e-05 0.0077326433 -0.012286097
000090 e8 16 4e bb 56 a3 0b 3d 25 c3 f0 3b 97 58 9f 3c
       -0.0031446759 0.034091316 0.007347482 0.019451423
0000a0 c7 9e 53 bc cf c7 6c 3c 87 d7 75 3c 70 43 25 bb
       -0.012916273 0.014451935 0.015004999 -0.0025217198
0000b0 89 05 59 bc ca c2 1f 3d 33 47 c7 3b 45 52 62 bb
       -0.013245949 0.039004125 0.0060814857 -0.00345339
0000c0 f5 dc f7 b8 e7 1d f9 ba 72 1e 1f 3d c7 cc d1 bb
       -0.00011819034 -0.0019006104 0.038847394 -0.006402585
0000d0 f3 f0 b1 3c 1b 70 17 3c c5 9c ec bb 37 08 95 bb
       0.021721339 0.009243037 -0.007220837 -0.0045480984
0000e0 56 57 64 3c 4c fe 8a 3c 36 4b ee 3a aa 8a 37 bc
       0.013936838 0.016966961 0.0018180374 -0.011202494
0000f0 1d 4f 89 3a b4 80 08 3b 29 1c 93 bc 4e 39 40 bb
       0.0010475848 0.0020828666 -0.017957764 -0.0029331031
000100 54 54 80 ba f2 a3 f4 3b da fb ef 3a a8 ae b2 bb
       -0.0009790757 0.007465833 0.001830931 -0.0054529496
000110 dc 26 c0 3b 45 a3 d0 bc ef ca 01 3a 0d 72 da 3b
       0.0058640074 -0.025468478 0.0004951199 0.006666428
000120 67 df 2f bb 1e 2e c6 bc e4 3c 23 3c 18 e9 59 3c
       -0.002683604 -0.024191912 0.009963248 0.013300203
000130 64 b6 44 39 2e 75 78 bb f0 37 57 3b 3e fd c3 3b
       0.00018759962 -0.0037911641 0.0032839738 0.0059811166
000140 e1 95 3f 3a 0b 9c 3f 3c 77 cb 2f bc f0 c7 04 bc
       0.00073084055 0.011694918 -0.010729662 -0.008104309
000150 cd 17 ee bc 2d 3d 6c 3c a6 60 2a 3c b5 8c 91 bb
       -0.029064083 0.014418882 0.010399019 -0.0044418224
000160 29 23 03 3c c8 b0 1a 3c 0d a3 98 3c be ee 17 3d
       0.008003988 0.009441562 0.018632436 0.037092917
000170 4a ba 6f bb de 7e c1 3c 58 2b 25 3c 91 77 56 3d
       -0.0036579543 0.023620065 0.010081135 0.05236012
000180 3e 2a f9 bb 65 30 17 bc 99 90 39 3c 79 d7 14 bc
       -0.0076039126 -0.009227847 0.011325979 -0.009084576
000190 e0 75 fb 3b 3d 3b 97 ba dc f5 62 bc c9 f9 23 3c
       0.007673964 -0.001153804 -0.013852563 0.010008284
0001a0 5e b2 b0 bc b0 cc a9 bc 36 24 bd 3b 46 6f 95 3c
       -0.021569427 -0.020727485 0.005772139 0.018241536
0001b0 0e b1 38 3c 28 68 26 3c a9 24 98 3c 83 6e 7d bb
       0.011272682 0.010156669 0.018572168 -0.0038670606
0001c0 12 ed 34 bc 0b a1 ae 3b 34 53 68 3c 3b b0 45 bc
       -0.01104285 0.0053292564 0.014179993 -0.012065942
0001d0 f8 7a 2a 3c 7f 87 1b bc 43 aa a3 bb 9c 53 20 3d
       0.010405295 -0.009492754 -0.004994662 0.039142236
0001e0 6b 69 17 bc 02 6f 86 3c 63 dd 63 3c 33 bf 8f bc
       -0.009241442 0.016410355 0.013907763 -0.017547226
0001f0 54 eb 20 bc 95 c6 47 3b 6f 3a ea bb 42 51 6c 3c
       -0.009821732 0.0030483354 -0.007148079 0.01442367

network_body._body_endoder.seq_layers.2.weight f4 [128, 128]
000000 b7 69 56 3d 47 71 20 3e 68 b6 55 3b 97 fc 39 bc
       0.05234691 0.15668212 0.0032609943 -0.011351726
000010 40 1e 0c be ed 4a 7a bc f8 5d 29 bc 92 11 8a bd
       -0.13683414 -0.015276653 -0.010337345 -0.067416325
000020 0f 7f b3 bd 29 c0 3f 3d 66 32 16 3d 1a 01 a5 bd
       -0.08764469 0.046814118 0.036669157 -0.08056851
000030 a1 fb c6 bc 0f eb 30 bd 33 53 c7 3d b2 9b a9 3c
       -0.024289908 -0.04319292 0.09732666 0.020704124
000040 49 70 bb 3d 36 de 28 be 22 a0 11 bc dc 0f 9e bd
       0.09152276 -0.16491017 -0.008888276 -0.07717869
000050 0e da 6c 3d 8f 0d 93 bb 87 c7 97 bd d2 01 0b 3e
       0.05782514 -0.0044877003 -0.07411104 0.13574913
000060 5f e9 fd 3c f5 46 c2 3d ab 4d 34 3c dd 12 c3 bd
       0.03099507 0.0948619 0.011004846 -0.09525082
000070 1d b7 0c 3e 81 10 2c bd 40 3d c9 3c 16 32 c2 bd
       0.13741727 -0.042007927 0.02456534 -0.094822094
000080 af 2f 1a 3e e9 e8 3b bd e1 06 d1 3d 25 09 ba 3c
       0.15057252 -0.045876417 0.1020639 0.022709439
000090 2c 5c 75 3d ad 2a b6 3d 5d a3 f5 3b 62 e6 89 bd
       0.059902355 0.088948585 0.007496281 -0.06733395
0000a0 06 17 0c 3d cf 8d 53 3e 69 03 23 bd 64 14 c4 3b
       0.034201644 0.20659564 -0.039798174 0.005983876
0000b0 1f 43 e4 bd 14 d0 2d 3d 90 5b e0 3d d2 56 a6 bd
       -0.11145615 0.042434767 0.10954964 -0.081220284
0000c0 38 37 9b 3d d7 1c 7d 3d c4 81 7d bc bb f9 a7 3d
       0.075788915 0.061795082 -0.015472833 0.08201929
0000d0 aa c1 f6 bd a3 fd 55 3d 86 29 81 3c 10 48 bc 3d
       -0.12048657 0.05224384 0.01576687 0.09193432
0000e0 0b 81 6e 3d 16 f0 01 3e 80 ab 4e be 55 93 c7 bb
       0.058228534 0.12689242 -0.2018261 -0.0060905614
0000f0 d6 1c df bd 20 6a 1e 3e 53 04 47 be 22 36 78 bd
       -0.10894172 0.15470171 -0.19435243 -0.0605985
000100 ba b9 3a bc 6e 7d b5 3d 65 e2 f0 3d dc a9 6b 3d
       -0.01139682 0.088618144 0.11761931 0.057535037
000110 d0 de 04 bb 32 1e c3 bd c8 d7 06 be 5f d4 2d 3d
       -0.0020274408 -0.09527244 -0.13168252 0.04243886
000120 a7 b7 a0 bc 4c 38 ae bd 7b e8 46 3c a3 05 bd 3c
       -0.019618822 -0.085068315 0.012140389 0.023073977
000130 3c bb 28 bb ae 74 06 3d 72 0f a1 3d 17 fe dc bb
       -0.0025746366 0.03282612 0.07864274 -0.006744157
000140 ff 9e 86 3d 4e f6 61 bc 5c 47 13 3d 98 66 07 3e
       0.06573295 -0.013791634 0.035956725 0.1322273
000150 88 1a eb 3d 7f 1b 81 bd a9 c8 5f 3b ab f7 21 3e
       0.1147967 -0.063040726 0.0034146702 0.15817134
000160 f0 6a 39 3d 49 65 81 3d d4 97 10 bd 7d a6 d0 3d
       0.045268 0.06318147 -0.035301045 0.10188005
000170 82 d4 a5 bc 0f 22 9f 3a 2b 5e 10 bb ad e0 41 bd
       -0.020242933 0.0012140888 -0.0022028785 -0.04733341
000180 37 f2 01 be eb ee 81 3d d7 5f 65 3d 6c a5 d0 3c
       -0.12690054 0.06344398 0.055999603 0.025469504
000190 30 26 01 3e 9e 2f d3 3d fd 63 e4 3d 5f 13 3b bb
       0.12612224 0.10311817 0.11151884 -0.0028545482
0001a0 9e 8d 17 bd 64 54 12 3d 36 34 22 3e 13 ce 4a bd
       -0.03700029 0.035725012 0.1584023 -0.049512934
0001b0 e3 35 94 3c d2 88 18 3d 30 c0 2a 3c 3f 91 bf bc
       0.018092101 0.037239857 0.010421798 -0.023384688
0001c0 4b 30 60 bd 9b 86 ed bb 49 7d 47 bd 44 2d 6c bd
       -0.054733556 -0.0072487122 -0.048703466 -0.057660356
0001d0 64 43 09 3e 18 8f e9 3d 05 5c ba bd e4 10 99 bd
       0.13404614 0.11404246 -0.090995826 -0.07473925
0001e0 86 3f c0 3d b2 84 ee 3d e0 21 96 bd 4a f8 df 3c
       0.09387116 0.11646403 -0.0733068 0.027340073
0001f0 ce 85 07 bd 7c 67 bf 3d 8d 56 14 3e ca 2f 27 3d
       -0.03308659 0.0934591 0.14486142 0.04081706
000200 9e 87 7d bc 4e 1a 28 be 4a 6f a7 3c fb d2 53 3d
       -0.015474228 -0.16416284 0.020438809 0.05171488
000210 a5 0c 18 bd 72 1e cc 3d 7f 96 96 bc f3 d5 33 bc
       -0.037121434 0.099667445 -0.018382309 -0.010976302
000220 93 f4 a8 bd 25 b7 36 3e 4e 71 1a 3d 47 ba 8f 3d
       -0.08249774 0.17843302 0.037705712 0.070179515
000230 3e fd ef 3c 14 78 61 3d a5 3d 8d 3b 62 7f 94 bd
       0.02929556 0.055046156 0.004310327 -0.07250859
000240 6e e3 de bd e2 06 9e 3d a7 8d 22 be 74 59 c3 3d
       -0.108832225 0.077161565 -0.15874349 0.09538546
000250 57 1a eb 3c cb bf 53 3d b7 5f 89 bc 90 d2 fd 3c
       0.028699083 0.05169658 -0.016769273 0.030984193
000260 ed f6 d7 bd f6 45 dd 3c 02 b6 9f 3d ab db aa bc
       -0.10545144 0.027010899 0.07798387 -0.020856699
000270 0b ce 0e 3e cd 0e 88 bd 2f a1 f5 3d 77 e4 de 3c
       0.13945787 -0.06643448 0.11993634 0.02720855
000280 c2 a7 cf 3c fc 97 31 bc 5a 81 0b 3d 7a a7 9f bd
       0.025348548 -0.010839459 0.034058906 -0.077956155
000290 ce 85 c9 bc 27 01 3a be 20 7a 3e bd ee eb 7c bd
       -0.024599936 -0.18164502 -0.046503186 -0.061748438
0002a0 d4 9d 6b 3c c2 89 11 be ad 9d 88 bc 87 f8 8d bd
       0.014380891 -0.14212707 -0.016676748 -0.069321685
0002b0 c6 72 f4 bd e3 c0 aa 3d 58 5a b2 3b e4 96 ec bd
       -0.11935954 0.083375715 0.0054428987 -0.115522176
0002c0 d9 22 8d bd 82 c3 52 be 4f 1e c4 3d 73 3b a1 3d
       -0.06891412 -0.20582393 0.095760934 0.07872667
0002d0 00 e7 fa bb ae 44 47 bc ec 60 b1 bd 88 3a 39 bd
       -0.007656932 -0.012162371 -0.086610645 -0.045221835
0002e0 8a c2 b7 bd 89 14 43 be 9c e6 5b bb 18 96 48 bd
       -0.08972652 -0.19050802 -0.0033554202 -0.048971266
0002f0 d3 ad e4 3d c0 17 08 be c8 b4 a9 3d e4 4b 77 bc
       0.11165967 -0.1329031 0.082864344 -0.015093777
000300 b3 f0 6e bd 59 01 a6 bd 7a 71 c8 bd b9 e5 ac 3d
       -0.058335017 -0.08105726 -0.09787269 0.084422536
000310 f5 1e 0b be 99 dd 55 3d ba a9 9a 3c 85 60 b4 bd
       -0.13586028 0.052213285 0.01887976 -0.08807472
000320 b9 8a c3 bd 26 06 91 bd 98 92 6f be 77 6d bc bc
       -0.095479436 -0.07081251 -0.23395765 -0.023001416
000330 05 46 c1 3d 7c c7 f1 bc bb 21 0f bb 39 c6 a7 3d
       0.09437183 -0.029514067 -0.0021840173 0.08192105
000340 ae c9 ee 3d 4c 69 07 3e 25 4a 87 3e 99 ce c0 bc
       0.11659561 0.13223761 0.26423755 -0.023536013
000350 b3 cf 28 be 5f 12 35 3e af d8 b4 3d 68 bf f9 3d
       -0.16485481 0.1768279 0.088303916 0.12194711
000360 cf b9 fd 3c f4 4f 83 3c bf 4e fe 3c 2c c9 10 be
       0.03097239 0.016029336 0.031043408 -0.14139241
000370 53 c0 09 3d 62 70 cc 3c 8d 3e 92 3d dd 35 14 bc
       0.03363068 0.024955932 0.07140837 -0.009046045
000380 0b 30 3e be 49 78 5c 3e 8d 49 6e 3c ba d8 1f bc
       -0.18573014 0.2153026 0.014543903 -0.0097562615
000390 f4 53 55 be 59 cc 2c 3d d3 34 9b bd f0 8b b2 3b
       -0.20832807 0.04218707 -0.07578435 0.0054488108
0003a0 93 19 14 3c 7f 37 1b 3e 43 16 86 bc 4b 33 dd 3d
       0.0090393005 0.15157889 -0.016368037 0.10800799
0003b0 76 36 37 3d 02 ee 13 bc 47 eb 1a be d2 d9 0e 3d
       0.044729672 -0.009028913 -0.15128814 0.0348757
0003c0 30 81 e8 bc 97 23 3e 3d fa 1f a3 3d 1d 63 1f bd
       -0.028381914 0.04642066 0.079650834 -0.03891288
0003d0 76 08 58 3d 0e 21 cb bc e3 74 af bd 5c b6 a3 bd
       0.052742444 -0.024796035 -0.08567216 -0.07993767
0003e0 a6 0e 34 bc 79 d4 56 bd ea 2e 2c bd 55 b8 2f be
       -0.010989821 -0.052448723 -0.04203693 -0.17160161
0003f0 0a 93 4c bd 4a b6 87 3c 7c 1e 5a bc 54 22 df bd
       -0.049944915 0.016566414 -0.013312932 -0.108952194

network_body._body_endoder.seq_layers.2.bias f4 [128]
000000 cc e1 39 3b 4d 56 8d 3c d1 99 80 bb 58 0b 20 bc
       0.0028363345 0.017253065 -0.0039245863 -0.00976833
000010 96 06 ad 3a 9d 14 db ba ee f8 53 bb 7d 2c 7f bc
       0.0013200815 -0.0016714517 -0.0032344419 -0.015574572
000020 7a 83 d2 3c 75 e9 e5 bb 58 0a 8f 3c 6a 42 a0 3b
       0.025697459 -0.0070163556 0.017460987 0.0048907297
000030 5f cf 96 bc 15 21 0b bc 73 f3 2b ba f8 41 1a bc
       -0.01840943 -0.008491774 -0.0006559409 -0.009415142
000040 ca 26 89 3c e7 fa a7 bb da e6 d4 bc e3 72 41 3c
       0.016742129 -0.0051263454 -0.025988985 0.011807176
000050 d7 bc 76 3c 2b 84 32 3b 1c f3 07 bc f3 17 5e 3c
       0.015059671 0.0027239423 -0.008297708 0.013555515
000060 10 1f 94 3c e2 5d ad 3b 1a 62 28 bc e8 fa 03 bc
       0.018081218 0.0052907327 -0.0102772955 -0.008055426
000070 4c b6 66 bb e9 d3 54 38 8e b2 2f 3b e8 a1 54 b9
       -0.0035203872 5.0742095e-05 0.0026809308 -0.0002027821
000080 98 c9 18 3c d2 a6 01 3c e4 1b 6b 3c e7 6c 45 bb
       0.009325407 0.007913308 0.014349911 -0.0030124725
000090 3d b7 8d ba 05 1b f8 3a a3 63 92 3b 62 b1 aa ba
       -0.0010812056 0.0018928951 0.004467444 -0.0013022835
0000a0 ae 79 5c bc e9 a0 1a 3c 5f fa 04 bb 05 15 79 bb
       -0.013456745 0.009437778 -0.0020290834 -0.0038006913
0000b0 6c 1a 18 3c ca 84 9d bb 42 12 77 b9 2a c2 5a bb
       0.009283643 -0.0048070895 -0.00023562557 -0.003337989
0000c0 47 8f 07 bb 34 3f 7a 3c 28 24 5c 3b ab e7 89 bc
       -0.0020684765 0.015273858 0.0033590887 -0.0168341
0000d0 37 b2 15 3d 37 6a bd bb 67 f5 25 3c 17 78 47 3b
       0.036546912 -0.005780484 0.010129309 0.003043657
0000e0 a5 5b 44 bc 0f f3 e3 3c 4e fd 41 3c 07 c0 10 3c
       -0.01198474 0.02782586 0.011840178 0.008834845
0000f0 fc 98 87 3c fa ef a0 3c d7 2c a0 3b 24 94 2a bc
       0.01655244 0.01964568 0.004888158 -0.010411296
000100 a0 f8 32 bb a6 92 01 3b 0c a5 81 bc cd b7 8a bc
       -0.0027308837 0.0019771247 -0.01582577 -0.016933346
000110 27 65 31 ba 2d 34 cf bb 32 b5 ba 3c d9 9d 4d 3a
       -0.0006767087 -0.0063233585 0.022791479 0.00078436505
000120 1d ab 86 3b dc dd 45 3c 29 94 5d bc df 10 96 3c
       0.0041097538 0.012076821 -0.013524094 0.018318592
000130 0f ba ed 3b c6 0c 48 3c 68 02 49 bc bb fd 24 bc
       0.007254846 0.012210077 -0.01226864 -0.01007026
000140 eb a7 82 bb 42 eb a0 39 de e7 13 bb 15 6b a4 b9
       -0.0039873025 0.0003069286 -0.0022568624 -0.000313603
000150 e2 5e bb 3c 74 a6 95 3b ea 7f 4a 3c 5a ca 39 3c
       0.022872392 0.004566962 0.012359599 0.011339748
000160 d8 b7 3e 3c 2a eb 45 ba 8c 01 87 3c 1e b9 9c 3b
       0.011640511 -0.0007549996 0.01648023 0.00478281
000170 4f bf 24 3b 55 7d 2f 3c dd 4c 63 bc ed 5a 8b bc
       0.0025138443 0.010711034 -0.013873306 -0.01701113
000180 a3 64 7e 3c ac e3 b2 bb ce 13 c6 bb 0c 4e 18 3b
       0.015526923 -0.0054592695 -0.0060448414 0.002323988
000190 e7 e9 c2 3a 3b ec 3b bc 12 15 3f bc 3b 8e 60 b9
       0.0014870734 -0.011469896 -0.011662738 -0.0002141529
0001a0 e0 33 02 3b c7 83 e9 3a 87 ae 44 bb f9 2a 61 bc
       0.0019867346 0.0017815762 -0.0030011253 -0.013743156
0001b0 bf 98 10 bc eb 82 0c bc 8d 02 dc bb d4 11 a1 bc
       -0.00882548 -0.008576135 -0.0067141713 -0.019661821
0001c0 37 e8 b2 3c ef f2 5f 3b f7 bb a1 bb 54 b4 08 bc
       0.021839244 0.00341719 -0.0049357372 -0.008343775
0001d0 c9 89 29 3c 26 39 4b bb cb a7 f1 3a 15 82 a9 3c
       0.010347792 -0.0031009405 0.0018436847 0.02069191
0001e0 bb 6c c3 39 02 31 32 bc 61 3c 7e 3a ac 60 b7 3c
       0.0003727431 -0.010875942 0.0009698328 0.022384964
0001f0 7d 90 94 ba 31 c0 36 bb e1 f6 69 3c 26 c7 42 3b
       -0.0011334565 -0.002788555 0.014280052 0.0029720752

action_model._discrete_distribution.branches.0.weight f4 [2, 128]
000000 d9 cb 4f 3c d8 12 04 bd 64 e1 7b 3c 20 a4 c8 3b
       0.012682878 -0.032244533 0.0153735615 0.006123081
000010 fe 24 68 3b 57 5b d0 3c 20 7a b8 3c a0 df 6d 3c
       0.003542244 0.02543418 0.022519171 0.014518648
000020 54 c3 08 bd 4f 84 84 3c 57 5b 41 bb d3 ad 4e 3c
       -0.033389404 0.01617637 -0.0029503906 0.012614685
000030 4c 75 55 3c c1 27 d6 3b 79 da e5 3c eb fb e7 3b
       0.013028454 0.0065355008 0.028058277 0.0070795915
000040 cf 68 ec bc 5d 67 c7 3b a3 f3 a3 3b a1 ea 13 3c
       -0.02885857 0.00608532 0.005003409 0.009028108
000050 0c 03 09 bd bc bf a2 bc 19 47 1a 3c b1 22 73 3c
       -0.03345017 -0.019866817 0.009416365 0.014839814
000060 21 ba 01 bd 3a 29 d7 3c b4 f0 62 38 8c 3c af 3c
       -0.031671647 0.026264776 5.410677e-05 0.021391176
000070 7d 8a 30 3c 5f cc 34 3c 93 e4 2a 3c c4 85 8d 3c
       0.010775206 0.011035054 0.010430473 0.017275698
000080 16 72 16 bc 05 5d 30 bc 72 72 38 bc 0c 29 21 3b
       -0.009182474 -0.010764365 -0.011257755 0.0024591116
000090 28 65 e4 3c ff 3e 86 3b 23 27 c3 bc b6 1a 26 bb
       0.027880266 0.004096865 -0.023822373 -0.002534551
0000a0 89 58 67 3c 26 d3 bc 3c 2d 14 82 ba 76 b3 8f 3c
       0.0141202295 0.023049902 -0.0009924226 0.017541628
0000b0 9c 0b 8b bc fc a7 b9 3c 92 2a 84 3b ea fb 1b bc
       -0.01697331 0.022663109 0.004033395 -0.00952051
0000c0 22 7d 5c 3a a7 73 92 3b e7 4f f5 3a c9 52 39 3c
       0.000841098 0.0044693532 0.0018715829 0.011311241
0000d0 a7 bb ba bc ca f4 95 3c b1 07 52 3c 83 fd 1d ba
       -0.022794558 0.018305201 0.012819217 -0.0006026851
0000e0 95 7f c1 3a 66 84 04 bd cc e5 92 bc 58 95 65 3c
       0.0014762754 -0.032352827 -0.017931841 0.014012657
0000f0 21 f1 42 3c 3a f8 36 bc f4 e5 e4 bb 09 e4 18 3c
       0.01189831 -0.01116758 -0.0069854204 0.009331712
000100 30 12 ad 3c 7f 70 19 3c cc a7 02 3c 1c f0 97 3b
       0.021126837 0.0093652 0.007974576 0.0046367776
000110 84 07 1f 3c 75 42 df 3c 20 b3 c6 bc ff e5 70 3c
       0.009706382 0.027253369 -0.024255335 0.014703273
000120 55 90 ec bc e0 e6 35 3b 48 db 06 bc ac 41 19 bd
       -0.028877417 0.002775602 -0.008230992 -0.037416145
000130 d1 ae 97 bb 7b 91 5d bc 47 04 0f 3c ef df 03 3d
       -0.004628994 -0.013523455 0.008729047 0.03219598
000140 a4 3e e7 3c 07 8e c8 3c 10 6f e2 3c 98 7e 13 bb
       0.028228112 0.024481786 0.02764085 -0.0022505876
000150 9d 39 20 bd 3a e8 e8 3b 44 c8 10 bb cc 21 52 3b
       -0.039117444 0.0071077617 -0.0022092024 0.0032063602
000160 18 15 ad bc cd 9b 04 3d 49 54 a2 bc 96 d2 66 3c
       -0.021128222 0.032375146 -0.01981558 0.014088294
000170 9d b0 39 3c d9 67 d0 ba 11 b5 00 3c 50 d9 88 3c
       0.011333612 -0.001590009 0.00785567 0.016705185
000180 8b aa 0b bd aa 31 32 3c cb 8c 1c 3c 2f 7a 5f 3c
       -0.03409819 0.010876099 0.009555052 0.013639971
000190 be e0 9a bb 54 00 f6 3c b1 c5 ae 3c c3 a7 ac 3c
       -0.0047264984 0.030029453 0.021334501 0.021076089
0001a0 7f 2d 69 3c 2f 62 33 3c cf 51 37 bc 56 10 38 bc
       0.0142320385 0.010948702 -0.011188938 -0.011234364
0001b0 bb 26 8f 39 0e 3e 79 3c 43 58 a1 3c 72 1e 14 3c
       0.00027303942 0.015212549 0.019695407 0.009040462
0001c0 5e 10 4f bc 33 40 92 3c fe b3 ea 3c 45 ad 8e 3c
       -0.01263818 0.017852878 0.02865028 0.017416606
0001d0 34 c0 30 3c 2f 34 eb 3c a5 a5 64 bc 39 3b 87 bc
       0.010788012 0.028711407 -0.013955508 -0.016507732
0001e0 b5 ad bc 3c eb 11 fc 3c d9 e2 a5 3c 02 77 d3 bc
       0.023032049 0.030770263 0.020249771 -0.025813583
0001f0 a9 ca da 38 62 c3 8b 3c 82 a5 6d bc 1d 87 00 3d
       0.000104327984 0.01706094 -0.014504792 0.031378854
000200 8b c2 97 bc a7 2b 2c 3d 62 5e 86 bc 85 56 06 3c
       -0.018525383 0.042033818 -0.016402427 0.008199339
000210 57 b5 dc bb ad e4 16 bd 56 8c 44 bc 4e f2 60 3b
       -0.0067354846 -0.036839176 -0.011996349 0.0034324112
000220 e6 06 c0 3c 2c b1 8c bc 7c 01 86 3c f0 bf 4c bc
       0.02344079 -0.017174326 0.01635813 -0.012496933
000230 7e c2 61 3b 4b b5 ab bb 55 42 08 bd 1c 91 01 3c
       0.0034448202 -0.0052401177 -0.033266384 0.007908132
000240 6c 3e c0 3c 37 53 f8 bb 82 3c 38 bc ca 37 e6 bb
       0.023467265 -0.0075782794 -0.011244895 -0.0070256935
000250 dd b3 41 3c 1f 2a 53 bb 2b aa a6 bb 59 a9 d3 bc
       0.011822668 -0.003222115 -0.0050862036 -0.025837587
000260 61 11 10 3d c5 2f f4 bc 17 6e c1 3b 6e 06 d7 bb
       0.035172824 -0.029807935 0.0059030163 -0.006562046
000270 3a e5 cd bb c5 1f 71 bc 55 2e a4 ba c1 ba 24 3b
       -0.0062834295 -0.014717047 -0.0012526015 0.0025135728
000280 c7 3c 8c 3a 59 d0 a1 3b 4c ac 21 3b 7c 7c 81 3b
       0.0010699265 0.004938167 0.0024669347 0.0039516073
000290 4b 35 e2 bc 7e 68 cc bc 7d a2 c2 3a 3e b8 ba 3b
       -0.027613303 -0.02495217 0.0014849451 0.005698233
0002a0 93 bc ab 3b 4f 68 ac bc 58 07 31 3c 51 08 ad bc
       0.0052409857 -0.021045832 0.010804974 -0.02112213
0002b0 6c 5f bd 3c 75 e7 23 bc 60 6a 8e bc bb f0 9a bb
       0.02311679 -0.010003914 -0.017384708 -0.0047284043
0002c0 01 99 45 3c 81 bd a6 bb cc c5 81 ba b3 7d c3 bc
       0.012060405 -0.0050885086 -0.0009900867 -0.023863649
0002d0 05 3c 51 3c ed 71 06 bd 2a f6 14 39 95 94 37 bc
       0.012770657 -0.03282349 0.00014206083 -0.011204858
0002e0 3d fa fd 3a 76 30 33 3d 17 aa 5e 3c 9e 5d 39 bc
       0.0019376945 0.043747388 0.013590357 -0.011313824
0002f0 a8 00 c1 39 30 f9 f0 bb 38 e8 c7 3b 59 fb 55 3c
       0.00036812318 -0.007353924 0.0061006807 0.013060414
000300 71 2d c2 bc 96 0d b7 bc 72 57 02 bb aa 50 93 bc
       -0.023703309 -0.022345345 -0.0019888547 -0.0179828
000310 62 b8 e3 bb fc aa 87 bc e8 5b 26 3d c6 4a 98 bc
       -0.0069494704 -0.016561024 0.040614992 -0.018590342
000320 36 97 88 3c 2b 17 c8 bc 73 fb 39 bc dc 13 fc 3c
       0.016673665 -0.02442511 -0.011351454 0.030771188
000330 3b a0 82 bc 26 cc 30 3c 51 73 e5 bb ce 5f 9c 3b
       -0.015945544 0.01079086 -0.007002272 0.004772163
000340 27 ad e9 bc ee a1 43 bc 8c 39 64 bc 29 00 9b 3c
       -0.028524948 -0.0119404625 -0.013929736 0.018920975
000350 82 19 28 3d 98 90 c4 bc 42 74 d4 bc 46 91 b1 3b
       0.04103995 -0.023994729 -0.025934342 0.0054189293
000360 64 99 f0 3c b6 de e0 bc bb 66 0b 3d ef 98 30 3c
       0.029370017 -0.027449947 0.03403352 0.01077865
000370 9c 59 c4 bb 30 c7 eb 3b 7e 11 87 bc ed 69 21 bb
       -0.0059921276 0.007195376 -0.016487833 -0.0024629787
000380 ab c0 87 3c da 9e c7 bc 3e 25 d0 bc f2 6c 3f bc
       0.016571363 -0.024367739 -0.025408383 -0.011683689
000390 3c 04 db bc e6 61 c2 3b 6d 3b cf bc 7e 1d 0f bd
       -0.026735418 0.0059320806 -0.025296891 -0.034940235
0003a0 45 5e 0c bc 35 03 87 bc 66 be bb bc 33 b2 96 bc
       -0.0085673975 -0.016481021 -0.022917937 -0.018395519
0003b0 00 5f 99 bb 14 7e 1a bc 77 c4 29 bc ef 5e 34 3a
       -0.0046805143 -0.009429473 -0.010361782 0.0006880601
0003c0 bb f9 d0 3c f2 54 6b bc 15 99 0d bd e1 b0 b3 b9
       0.025509706 -0.014363514 -0.03456982 -0.00034273326
0003d0 da de 66 bc f0 1c 16 bc 5f 76 c7 ba 5d fc b4 3c
       -0.014091218 -0.009162173 -0.0015217772 0.022092992
0003e0 9e a1 36 3b d6 1e cc bb c0 dc f4 bc 16 04 0b 3d
       0.0027867327 -0.006229262 -0.029890418 0.033939444
0003f0 87 f4 24 3c 39 93 67 bc 2c 50 9d 3a 56 15 de bc
       0.0100680655 -0.014134222 0.0012002042 -0.027109783

action_model._discrete_distribution.branches.0.bias f4 [2]
000000 1f f3 ab bb 31 f3 ab 3b
       -0.005247488 0.0052474965

action_model._discrete_distribution.branches.1.weight f4 [3, 128]
000000 24 a1 b3 bb 31 c3 7d 3c 95 ad c9 ba 90 0d c7 3c
       -0.005481856 0.015488432 -0.0015386814 0.02429846
000010 74 63 80 3c 64 a4 96 3b 51 da c4 3a 9e 5e 38 bb
       0.015672423 0.0045972336 0.0015018677 -0.0028132568
000020 12 92 7c 3b d9 92 04 3c 69 e4 55 bc aa 7c 64 bb
       0.0038539213 0.008091652 -0.0130549455 -0.0034864345
000030 99 29 97 bc fd 7f 75 3c 83 b5 07 bb b2 66 dd bb
       -0.018452452 0.014984128 -0.0020707555 -0.006756627
000040 0d ec 3e 3c 56 ed 73 bb bf 95 29 ba 1f 5e bb bb
       0.011652959 -0.003722032 -0.0006469152 -0.005718007
000050 2a b2 e6 bb 0f 03 4b 3a b0 fc 55 bb ef 0c e6 bb
       -0.007040282 0.0007744291 -0.0032651834 -0.007020585
000060 96 2e 19 3c a9 a5 84 bc 45 52 6f 3c 35 f9 94 3c
       0.009349486 -0.016192274 0.014607017 0.018185237
000070 70 aa 16 3a e9 7f 60 bc c7 ba e4 ba 1d 1b 4d bc
       0.0005747443 -0.013702371 -0.0017450684 -0.012518671
000080 10 20 2a 3c b2 01 2e bc e3 74 90 3c c7 a0 74 bb
       0.010383621 -0.010620521 0.01763386 -0.0037327276
000090 bb 0c 89 3b fd 8d a8 3b 10 29 5f 3c e4 a0 c2 3b
       0.004182426 0.0051438794 0.01362063 0.00593959
0000a0 8f 85 0d bc ab fd a6 bb 8b 96 0b 3c 5e 22 70 3b
       -0.0086378 -0.0050961575 0.008519779 0.0036641578
0000b0 fd 0d a0 3c 42 4b 5a bc 31 28 ad bb a5 e9 af bb
       0.01953792 -0.013323607 -0.005284332 -0.005368429
0000c0 5f 37 9e 3a 1c 0c 50 3c 93 d9 83 bc f7 94 94 3b
       0.0012070945 0.0126982 -0.016094958 0.0045343596
0000d0 0b 8a 5c 3a 9f b9 00 bc c4 a2 52 3c 94 a1 ae bc
       0.0008412904 -0.0078567555 0.012856189 -0.02131728
0000e0 13 9c f1 3b 33 26 85 3c af 95 4c 3c e1 bd 05 3c
       0.007373342 0.016253566 0.012486859 0.008162946
0000f0 4f 7e 92 3c 8f 3a 3d 3b e7 e2 bd bc c4 9a 39 3c
       0.017882494 0.0028874015 -0.023179485 0.011328403
000100 41 6e 37 3b 38 ca 39 bc 2d 10 62 bc dc 9b ea 3b
       0.00279893 -0.011339717 -0.013797802 0.007159693
000110 5e 77 18 bc ce 61 e6 bb f4 a2 88 bb f9 61 84 38
       -0.009305803 -0.007030702 -0.004169816 6.312499e-05
000120 84 0d e9 3c 50 7f 03 3c f9 28 8b 3b 52 e0 4c 3c
       0.028448828 0.008025959 0.0042468277 0.012504654
000130 76 35 c4 bb 55 cb 70 bc 1d 6f 96 bb f7 0f 26 3c
       -0.0059878184 -0.014696916 -0.0045908825 0.010135642
000140 a6 1a 66 bc 0b 7c 70 bb b4 d4 8e 3c 29 a5 5e 3b
       -0.014044439 -0.003669503 0.01743541 0.0033972955
000150 a1 07 c6 3c bb 81 f6 bb 66 80 9b bc d3 0a 95 3c
       0.02417356 -0.0075227893 -0.018982124 0.018193638
000160 e5 60 e6 bb e2 c4 f0 bb 0a 90 a1 3c 10 5d 9a 3c
       -0.0070305937 -0.007347689 0.019722003 0.018843204
000170 17 7e 7f bc 49 51 0e 3c ca 73 5f bb c9 bb 74 bb
       -0.015594027 0.008686372 -0.0034096115 -0.0037343374
000180 99 f7 16 3c 3f 7b 1d 3b 46 1b 5f ba 15 23 12 bc
       0.009214305 0.002402976 -0.0008510839 -0.008919497
000190 17 77 2c bc a4 8a e2 3b 18 27 8c bc ee d7 fa 3b
       -0.01052644 0.0069135 -0.017108485 0.0076551354
0001a0 b6 af 84 bc 6b bd 6b bc 4d db 42 bc 7f eb 2c ba
       -0.016197067 -0.0143884225 -0.011893106 -0.0006596371
0001b0 6d 04 74 3c 5f df 40 3b f1 fe e9 ba 2b a6 6c 3b
       0.014893633 0.0029430015 -0.0017852468 0.0036109786
0001c0 cb 11 69 bb b1 44 f3 bb 12 0f b8 bb 26 3f 9c ba
       -0.0035563584 -0.00742396 -0.005617031 -0.0011920675
0001d0 07 e6 34 bc 91 ee 48 bc a8 b8 e5 bb fa 4c 59 bc
       -0.011041171 -0.01226391 -0.007010538 -0.013262982
0001e0 4a f3 92 3b 08 b8 0e 3c 34 6a da b8 91 06 5f bb
       0.0044845687 0.008710869 -0.00010414832 -0.0034031013
0001f0 ee ae bb bc fc 30 94 bc b4 39 a8 b9 fe 1d 31 3b
       -0.022910561 -0.018089764 -0.0003208645 0.0027025933
000200 0e de cd 3c 90 a8 6a bc 97 ae 1d bd 94 8a a4 3b
       0.025130298 -0.014322415 -0.03849658 0.0050214026
000210 a7 dc b6 3c 8f 1d 59 3c 24 ec b3 3b b9 55 8a bc
       0.022322012 0.013251676 0.0054907966 -0.016886579
000220 cd 7e e7 3b 04 5c 0e bd 8b b5 e8 bc 8e 15 bd 3c
       0.0070646764 -0.03475572 -0.028406879 0.023081567
000230 fb 88 80 bb c9 79 6c 3c 8e dd f0 bb 74 bd 3d bc
       -0.0039225793 0.014433333 -0.00735063 -0.011580814
000240 d9 25 5d bc 25 b4 8f 3c c7 dc 28 bb 10 6c e3 bc
       -0.013497793 0.017541954 -0.002576636 -0.02776149
000250 96 ca ae 3c 69 d0 4f 3a b6 bc a7 3c a1 f3 8b bc
       0.021336835 0.0007927479 0.020475727 -0.017083945
000260 d7 97 5c bc 73 9f 1a 3d fb e7 c9 ba ca 27 dc bc
       -0.013463936 0.03774972 -0.0015404219 -0.026874442
000270 fb 6a f7 3c 63 80 ae 3c 5a 1d 94 bc b9 20 1b 3c
       0.03020238 0.021301454 -0.018080402 0.009468251
000280 ee 12 97 bc dc 60 80 3b 49 ac 97 bc ea 19 01 ba
       -0.018441644 0.0039177965 -0.01851477 -0.0004924821
000290 cd bb 54 bb 2b b1 0d bd f8 af f7 3b 01 e3 77 3a
       -0.003246057 -0.03459279 0.007558819 0.00094561285
0002a0 fd 5b aa 3c c6 e2 c5 3c 09 c8 ad 3c 92 41 47 3c
       0.020795817 0.024155986 0.021213548 0.012161629
0002b0 94 21 09 bb ca 3a 71 bc 0d e0 a6 bc 4a 57 8d bc
       -0.0020924555 -0.014723489 -0.020370508 -0.017253537
0002c0 d6 9a 20 bb ce 3c 11 3d b7 75 dc bc 8f 24 9f 3b
       -0.0024506352 0.03545838 -0.0269116 0.004856653
0002d0 c2 9c 00 3c 48 77 15 3b 4f a5 ca 3c 71 8d cc 3c
       0.007849874 0.0022806693 0.024737028 0.024969788
0002e0 67 93 27 39 50 f8 aa 3a d7 27 e0 bb 56 72 d5 3c
       0.00015981273 0.0013043974 -0.006840687 0.026055496
0002f0 2d c8 ad bc a4 41 9c 3c 12 c0 39 3c 16 c7 43 bc
       -0.021213615 0.019074269 0.011337297 -0.011949321
000300 15 50 84 bc e4 95 ef 3c 39 7b 1a 3c 3d 6a 84 bc
       -0.016151467 0.029246278 0.009428793 -0.01616394
000310 03 88 9b 3c 7f 34 61 3b 6e f4 39 bb f9 69 41 bc
       0.018985754 0.0034363566 -0.0028374451 -0.011805051
000320 18 44 27 bc 14 28 e3 bc 2e 74 4b 3b a0 59 85 b8
       -0.010209106 -0.027729072 0.003104459 -6.358628e-05
000330 40 a9 7b 3c 2f 37 85 bc 85 c1 86 3c 5a 7d 12 3c
       0.015360177 -0.016261665 0.0164497 0.008941019
000340 7c 23 ad 3a 02 78 d9 3c 66 df 8c bc d1 a9 a9 bc
       0.0013209428 0.026546482 -0.017196368 -0.020710858
000350 bb 30 42 bc 01 a7 cc bb 8f 90 40 3d 79 45 d3 3c
       -0.011852439 -0.0062454944 0.04701286 0.025789963
000360 69 28 68 3b 78 05 27 3c ba ec 59 bc 1d 43 18 bd
       0.0035424477 0.010194175 -0.013301069 -0.03717338
000370 32 a1 fb 3c c7 90 ba 3b d1 c0 33 bc fc 79 6c bc
       0.030716512 0.0056935283 -0.010971264 -0.01443338
000380 76 ff 37 bc 36 bc 99 3b 9a a4 be 3b 41 38 01 3d
       -0.01123034 0.004691626 0.005817962 0.03154779
000390 cf 8e 41 bc 97 69 ff 3b 32 ba a0 3c 74 7a c5 3c
       -0.011813833 0.0077945697 0.019620035 0.024106242
0003a0 c4 03 10 3d a4 af c8 3c af 74 13 3c d9 bf aa 3b
       0.03515984 0.024497814 0.0089999875 0.0052108583
0003b0 61 63 9d 3b 85 27 46 3c 32 84 84 3c bd 4e e8 bb
       0.0048031067 0.012094383 0.016176317 -0.0070894645
0003c0 34 6b 6e 3b 32 e2 df 3c 4a 6b af 3b f1 06 18 3d
       0.0036379816 0.027329538 0.005353366 0.037115995
0003d0 57 d5 cf 3c 17 1c d6 b8 90 bc 7b bb f0 b3 13 bc
       0.025370283 -0.00010209547 -0.0038411953 -0.009015068
0003e0 a0 f8 b4 bc 37 2c c6 ba d0 0b bd 3c ff 3b c1 b8
       -0.02209121 -0.0015119378 0.023076922 -9.214132e-05
0003f0 fb 9d 65 3c 57 97 86 bc a5 ff 80 3b c5 e5 07 3d
       0.014014716 -0.016429586 0.003936725 0.03317811

action_model._discrete_distribution.branches.1.bias f4 [3]
000000 c2 c8 f2 39 e7 db 96 3b 50 33 99 bb
       0.00046307413 0.004603851 -0.0046753064

exp_avg f4 [128, 5]
000000 4e 3a f4 b7 f4 5f 37 39 11 f7 5b b8 15 fc bb 37
       -2.9114217e-05 0.00017487985 -5.2443767e-05 2.2409522e-05
000010 08 97 5b 37 ec 96 dd 39 44 54 78 39 05 cf 68 38
       1.3088582e-05 0.0004226485 0.00023682514 5.5505912e-05
000020 c6 77 92 38 02 f7 37 39 4b 66 db b8 94 81 b1 b8
       6.984132e-05 0.00017544258 -0.00010461787 -8.4641535e-05
000030 74 86 69 38 b8 c9 18 b7 6e cc f8 b7 67 7d e0 38
       5.5676748e-05 -9.106872e-06 -2.9659099e-05 0.0001070451
000040 22 df 88 b9 60 8f b4 38 c9 e9 ba b8 a1 7d 71 b8
       -0.00026106188 8.6097745e-05 -8.912717e-05 -5.757588e-05
000050 43 18 25 b8 8c 22 d3 b6 f3 a6 0a 38 f3 40 ee b7
       -3.936166e-05 -6.292312e-06 3.3057247e-05 -2.8402055e-05
000060 87 e7 79 b8 eb 74 77 b9 70 39 89 b8 85 56 8c 37
       -5.9581853e-05 -0.00023599311 -6.5433676e-05 1.672959e-05
000070 c9 98 cc 37 d8 cc a1 37 7f 3b bb 38 ed b5 12 b7
       2.4389841e-05 1.9288083e-05 8.927937e-05 -8.744636e-06
000080 b5 83 1f 37 64 9c a4 35 ff b2 ff 37 2e 2a d2 38
       9.507804e-06 1.2264468e-06 3.048172e-05 0.00010021437
000090 ac 1c e6 38 f9 29 a7 b8 e4 43 c8 36 27 63 e3 37
       0.00010972595 -7.9709986e-05 5.968368e-06 2.710668e-05
0000a0 06 68 2b b8 ff 05 89 b9 0b 14 05 38 94 0a 23 b8
       -4.0866456e-05 -0.00026135144 3.1728337e-05 -3.887208e-05
0000b0 29 5d 47 b8 6c 6e 43 b8 ea 5d 1a b8 b0 73 9f 32
       -4.753206e-05 -4.659446e-05 -3.6803925e-05 1.8562645e-08
0000c0 7a 11 81 36 4e 4b 87 b6 1f dc 04 b6 8a ff 36 39
       3.846534e-06 -4.03208e-06 -1.979766e-06 0.00017452068
0000d0 6a c7 a6 b8 cc 6d 6d 38 3d f2 a8 38 b0 cd a8 b5
       -7.9526406e-05 5.660746e-05 8.055985e-05 -1.2576838e-06
0000e0 0a f1 43 b8 0c 0f e0 37 75 54 60 b8 78 56 3f b6
       -4.6716108e-05 2.6709888e-05 -5.348442e-05 -2.851155e-06
0000f0 28 56 ee b7 af 72 81 39 2d c5 1f b9 5e d3 64 38
       -2.841193e-05 0.00024690243 -0.00015236875 5.4556287e-05
000100 98 05 a8 38 de 49 39 b9 9a 55 14 b9 2c 0b 40 38
       8.011906e-05 -0.00017670493 -0.00014146269 4.578677e-05
000110 af aa 10 b7 ef e2 17 b8 10 c0 1b 38 88 23 1b b8
       -8.622809e-06 -3.6212554e-05 3.7133752e-05 -3.698797e-05
000120 bc ed 03 b9 4b 0a a9 38 7d e2 34 37 a4 25 0f 38
       -0.00012581697 8.060465e-05 1.07815695e-05 3.4128912e-05
000130 4b da 20 39 01 67 b7 b8 2d 6a 49 38 fc 38 e0 38
       0.0001534011 -8.745306e-05 4.802102e-05 0.000106917665
000140 5d 6c 20 3a 0e ea 3d 3a 04 68 21 b8 ff ad 80 37
       0.0006119663 0.00072446547 -3.8482263e-05 1.5339812e-05
000150 f9 ed 5d 39 72 cb ea b9 f5 83 d8 b9 a1 13 1a 39
       0.00021164854 -0.00044783537 -0.00041297046 0.00014693897
000160 eb a3 18 b9 b4 a9 ba b9 15 4a 0a b9 bc 1d d2 b7
       -0.00014556914 -0.00035603123 -0.00013188303 -2.5047797e-05
000170 45 95 62 37 4f 1b cc b6 46 f1 b7 b7 5b de bd b7
       1.3505404e-05 -6.082853e-06 -2.1927652e-05 -2.2634098e-05
000180 7a 8e a0 b8 c5 6a 3f b9 3d 7a cd 38 17 08 64 38
       -7.655933e-05 -0.00018254954 9.7979304e-05 5.436697e-05
000190 24 48 93 38 af 67 f4 38 74 f6 9b b7 a0 aa b4 35
       7.0229435e-05 0.00011654139 -1.8592204e-05 1.3460703e-06
0001a0 ca ec ac 36 9e 6f c9 b8 c1 ea 0e b9 f0 13 a6 b6
       5.1535653e-06 -9.605217e-05 -0.00013629628 -4.9495065e-06
0001b0 6b 63 1d b6 4d e8 f0 b7 1a b2 75 36 52 7c e7 b7
       -2.3452692e-06 -2.8718403e-05 3.6611514e-06 -2.7595237e-05
0001c0 da 8d 83 b7 bd 32 cf 37 9e 50 2f 37 30 b2 8b 38
       -1.5682472e-05 2.469995e-05 1.0449583e-05 6.6612265e-05
0001d0 b8 ef 07 37 1e 9c e4 b7 5a 25 27 38 be ee 8f 38
       8.102441e-06 -2.7252416e-05 3.985069e-05 6.8632406e-05
0001e0 0a 90 e2 b7 c4 76 7f b8 39 64 a3 b7 01 c2 41 37
       -2.7008373e-05 -6.0907347e-05 -1.9477784e-05 1.15488665e-05
0001f0 a1 50 1a b7 99 4e c5 b8 36 05 9b b9 11 b7 0d 39
       -9.197888e-06 -9.408332e-05 -0.00029567786 0.00013515005
000200 a3 7b 16 37 ce 8e 91 36 44 ca aa b8 48 0f 66 b9
       8.969483e-06 4.3379614e-06 -8.1439066e-05 -0.00021940202
000210 a2 1c c6 38 82 e1 a6 b8 43 c9 39 b9 7c f7 85 b9
       9.446709e-05 -7.957501e-05 -0.0001771795 -0.00025552127
000220 05 fc 06 b9 52 27 b5 37 12 fe 20 38 36 14 63 38
       -0.0001287312 2.1595191e-05 3.8383594e-05 5.413984e-05
000230 a8 56 a1 38 24 ac 58 b8 00 6f 3a b9 83 67 11 39
       7.693219e-05 -5.165873e-05 -0.00017779693 0.00013866839
000240 a7 eb 4c 39 d8 66 0b 39 4b 82 49 3a 74 ba 81 b9
       0.00019542743 0.00013294385 0.00076869567 -0.00024743716
000250 a5 eb f8 38 09 47 5a 39 ee 1b 59 39 bc e3 9c 39
       0.00011869454 0.00020816563 0.00020705137 0.00029924314
000260 f5 b8 e8 b8 c6 42 b8 38 03 d3 46 39 25 ea 09 b7
       -0.00011097073 8.786241e-05 0.0001896136 -8.220352e-06
000270 f6 46 21 b8 69 23 88 b6 84 12 44 37 56 b9 9d b6
       -3.845148e-05 -4.057238e-06 1.1686821e-05 -4.7005406e-06
000280 20 b3 f0 38 7f 77 3a 39 66 f2 e6 b6 7c 32 b9 b7
       0.000114774564 0.00017782858 -6.882753e-06 -2.2077227e-05
000290 90 26 5a 38 2a e3 94 37 e7 11 3a b8 04 0d 31 36
       5.2011164e-05 1.7748756e-05 -4.436253e-05 2.6382631e-06
0002a0 1e 0f 53 35 48 ad 8c 37 39 09 17 b8 12 89 a9 b8
       7.8625624e-07 1.676999e-05 -3.6009795e-05 -8.084079e-05
0002b0 3e 08 21 b7 0e 63 09 37 fe 5e 0f b8 03 e6 82 37
       -9.598267e-06 8.188899e-06 -3.4182325e-05 1.5604315e-05
0002c0 66 1a a5 39 de 32 6c b8 7f 1b b7 37 b3 f7 4e 38
       0.0003149092 -5.631416e-05 2.1828104e-05 4.9344915e-05
0002d0 36 66 3e b9 5a 11 87 b8 3d 79 59 38 9c 86 0a b8
       -0.00018157889 -6.4405336e-05 5.1849744e-05 -3.302713e-05
0002e0 4d 04 b0 b8 b8 3b dd b6 66 04 94 ba 87 b3 83 39
       -8.393135e-05 -6.5932654e-06 -0.0011292815 0.00025120025
0002f0 78 d6 cc b8 8b 59 1f b9 24 af 94 b8 a9 59 5e b9
       -9.767426e-05 -0.00015196779 -7.0898124e-05 -0.00021204971
000300 5c bc 27 38 6d 97 e9 36 45 91 60 37 d4 24 ef b9
       3.9991326e-05 6.9615694e-06 1.3385264e-05 -0.0004561307
000310 c1 c0 ce b9 2f a8 f6 36 be 08 27 b7 f8 53 c1 b8
       -0.00039434995 7.3509505e-06 -9.956011e-06 -9.2185976e-05
000320 3a 44 5b 39 9b b4 ac 39 1f 72 35 b9 5c 93 bb 38
       0.00020910884 0.00032940958 -0.00017304019 8.944303e-05
000330 e5 06 53 39 f2 8a 19 39 7f 97 68 b9 e8 06 cb 38
       0.00020125096 0.00014642978 -0.00022181681 9.681081e-05
000340 6d 9e eb b8 6d 31 8d b8 b0 ea 23 37 e2 79 9a b9
       -0.00011235182 -6.73261e-05 9.7701995e-06 -0.0002946398
000350 60 b1 cf 38 bf f8 93 b8 77 a7 d6 b8 84 92 d8 37
       9.903568e-05 -7.055839e-05 -0.00010235508 2.5817433e-05
000360 43 9c 2e b8 4e e5 f5 b7 e8 02 67 38 ef 8e 95 38
       -4.1630363e-05 -2.9313054e-05 5.50774e-05 7.131497e-05
000370 78 a6 0d 39 b6 3a f3 37 48 26 23 b8 9a 8f 91 38
       0.00013508822 2.8995197e-05 -3.889788e-05 6.940887e-05
000380 61 31 e1 38 fa f2 59 b9 74 ca 9c b8 a7 83 f8 37
       0.000107380336 -0.00020785248 -7.4763695e-05 2.962521e-05
000390 58 0c f7 37 c2 78 86 37 5b e6 17 b8 1f c8 5f b8
       2.9450443e-05 1.6030277e-05 -3.621574e-05 -5.335372e-05
0003a0 47 c9 68 b8 54 c7 ff b7 c3 32 ed b8 56 32 36 39
       -5.5500564e-05 -3.0491188e-05 -0.00011310496 0.00017375624
0003b0 f1 1d d9 38 ac 2a 05 37 e6 08 f7 b6 59 62 71 38
       0.00010352943 7.937353e-06 -7.3622095e-06 5.755047e-05
0003c0 a4 47 9a 39 6f 7c d7 39 37 3c 42 b9 e9 9a f7 38
       0.00029426545 0.00041100706 -0.00018523714 0.00011806732
0003d0 2b a5 8c 39 c8 62 8f 38 b9 73 a2 b8 8d 6f 47 b8
       0.0002682594 6.837171e-05 -7.746317e-05 -4.7549187e-05
0003e0 08 f5 b3 38 e4 57 e8 38 30 13 2e b6 58 a8 55 b9
       8.581026e-05 0.00011078993 -2.593919e-06 -0.00020375976
0003f0 ef 90 b1 38 20 4c a1 35 78 1e d0 36 04 df fe 37
       8.467014e-05 1.201759e-06 6.20243e-06 3.038301e-05
