results/ppo/FTG 00/FTG 00-7290.onnx (onnx, 74718 bytes, 9 tensors)

action_model._discrete_distribution.branches.0.bias f4 [2]
00000000: 0000 0000 0000 0000
0.0 0.0

action_model._discrete_distribution.branches.0.weight f4 [2, 128]
00000000: 83bd 4bbc 96c1 88bb 49a7 853b ab27 eabb
00000010: dd51 503b df6e d2bb 8193 1fbb 12fd 64bc
00000020: ed98 91bc d246 e4bb 9fef e33b b1d9 27bc
00000030: 4e76 ab3c c35e bdbb 3d56 063b 4f5e 84bb
00000040: 8b6e a93b 9c70 c63b 4626 953b 2390 58bc
00000050: 2e69 80bb 1a62 8cbb 154d febb 96b6 04bc
00000060: b524 dabb 501a 1abb 36c4 abbc b536 643c
00000070: e2c1 393c 2522 57bb 9f0e d33a 1053 70bc
00000080: b589 713c 22fb 09bc d3f7 88bc 20d0 d7bb
00000090: 0bb1 8639 87eb 0f3b 8748 23bb e2d1 af3b
000000a0: 8a3b 52bc 0789 0fbb 9b3f 763c c496 bebb
000000b0: feb5 11bc 3b58 0c3c 53b9 37bc 55f6 0ebc
000000c0: 0732 2dbb 7a3c 5dbc edd9 f4bb b331 edbb
000000d0: a6c3 1b3c f192 2abc a73c d73b ef46 2dbc
000000e0: c000 bd3b f812 4d3c 5796 633b b9e7 36bc
000000f0: d8e0 a73b 13c3 003b 93d1 acbb fd84 68bc
00000100: a73a 863b ad52 073c eff3 243b f22b 9d3c
00000110: c06b 653c 8369 8dbb 1245 773b 9d71 bb3b
00000120: bf4e 87bb dff9 7b39 d39c 6f3b 12e9 66bb
00000130: 5a7a 1bbc d5d8 e1ba 8169 41bc e36c 04bb
00000140: 0a58 f73b 80f9 f139 7bea 493b 9d93 dfbb
00000150: c37f f5bb 83a4 1f3c 5f9a 33ba 3345 213c
00000160: f8fd 073b dedc 1ebc fba9 b1bb a35d 953c
00000170: 58fe 513c 8dd8 6ebb 35c4 553a 029f b539
00000180: 4239 ff3a 6393 49bb d659 b33c 2d02 a83b
00000190: 6c84 4cbc f73f 92bc b9b9 3aba 5f2f 0abc
000001a0: 325c 25bc 2db2 653c c388 943b 3d46 f5b9
000001b0: 602c df3b a716 b83b f983 0abc 8acb 643b
000001c0: 68e6 d73b 6fd0 483c d80e f43a dba4 08bc
000001d0: 4f9a 12ba 138c c0bb 8ae4 ffba 5dfe 90bc
000001e0: 7dba 17bc af0f 58bc 2723 a2bb 472b 20bc
000001f0: ab62 193c ffd6 5fba 443d 873b 2f74 e33b
00000200: f5c5 04ba 006b 55ba 6d56 97bb 52aa cf3b
00000210: 2b99 f73b 54e3 47bb 7f68 dfbb bfd0 e4bb
00000220: d967 4abc db55 0f3c 7fa5 66bc 1e73 853a
00000230: 07b8 2abc eab3 923b ef40 1b3c abe2 40bb
00000240: f72c cb39 8202 d7bc 45da dfbb 0863 b33b
00000250: e781 09ba 0678 453a 9eab 0a3a 0f9e 203b
00000260: 0b53 df3b ac89 1bbc ab4a 09bc 5a6e 9dbb
00000270: b74d 4c3b ec2f cbbc 9bf6 78bb 2fc0 34ba
00000280: 0596 843b 753b 4fbc 36f6 4a3b 5bd3 623a
00000290: 1f7a a23b 95c2 4c3c 40a0 47bb d095 e23b
000002a0: 7785 bdbb dd33 e13b 0451 a13a a76b 103c
000002b0: 280a 08bb 774e afb9 179a beba bfc3 0e3c
000002c0: a307 b4b9 d5a7 403b 1d8f 2b39 8363 cdbb
000002d0: 4bd0 02ba e68f 08bc 0b24 2a3c 6e94 99bb
000002e0: 4ea2 2e3b 197f a53b ff30 e63b f4d4 12bc
000002f0: 33cd 9fbb 1621 1fbb 36e9 95bb 2383 fb3a
00000300: 78ab 993c d62d 0c3c 8230 0ab9 e14f bebb
00000310: 58bb e33b 131c a5bb 7daa 4fbb 1b80 473b
00000320: cb69 05bc b4bf 363b a22f c73b a814 3f3c
00000330: ee05 3dbb baf1 883b 9f1e a3b9 518d 953b
00000340: 107a 91bb 6eb0 0bbc 7eeb 043b fa05 993c
00000350: 7b5e 97bb 3040 b8bb 4bca 903b 22da 2ebb
00000360: 6cc1 93ba b9b9 9e3b 080e 1b3b 1f70 803b
00000370: 3431 c7b9 6b60 d13b f67d adbb 4237 d63b
00000380: bb09 b03c cfd6 94ba bccb a63b d833 143b
00000390: 06f5 393b 02e2 133b c5c9 c53a 984a 5dbc
000003a0: f17d 15bc fdcf a93b 6f38 1fbc a4e1 b1ba
000003b0: e2b4 c53b 3703 fcba ce3d 31bb 0513 6d3b
000003c0: 2b60 36bc 8596 523c b2f4 ae3b fd05 67bc
000003d0: e3a4 c2bb e889 6f3b a1f5 08bc a2a5 3abc
000003e0: ef30 9cbc 2b3f 063c 2c8d 4b3c ca2d 413b
000003f0: 7f0a 12bb 2b8e fab9 57cc 95bb 0a71 d0bb
-0.01243532 -0.004173468 0.00407878 -0.007145842 0.0031787076 -0.0064219083 -0.0024349394 -0.013976352
-0.017773116 -0.0069664503 0.0069560553 -0.010244773 0.020930436 -0.0057791187 0.002049818 -0.004039563
0.0051706485 0.0060559046 0.0045516817 -0.013217959 -0.0039187884 -0.0042841556 -0.0077606537 -0.0081001725
-0.006657208 -0.0023514219 -0.020967584 0.013929059 0.011337729 -0.0032826748 0.001610238 -0.014668241
0.014742305 -0.008421691 -0.016719734 -0.0065860897 0.0002569038 0.0021960454 -0.0024915056 0.005365596
-0.012831578 -0.0021901743 0.015029813 -0.0058163125 -0.008893488 0.008565958 -0.011213618 -0.008725722
-0.0026427524 -0.013503188 -0.007472268 -0.0072385906 0.009507095 -0.01041101 0.0065685096 -0.010575994
0.0057679117 0.0125167295 0.003472706 -0.011163645 0.005123239 0.0019647523 -0.0052740066 -0.014191863
0.0040963474 0.008259458 0.002516981 0.019185994 0.01400274 -0.0043155565 0.0037730378 0.005720331
-0.0041292603 0.0002403031 0.003656198 -0.0035234136 -0.00948962 -0.0017230759 -0.011804939 -0.0020206503
0.007548337 0.00046152994 0.0030809927 -0.006823017 -0.007492037 0.0097438125 -0.0006851311 0.009843159
0.0020750742 -0.0096962135 -0.0054218746 0.018233126 0.012816988 -0.0036444992 0.00081545423 0.0003464148
0.001947202 -0.0030758015 0.021893423 0.0051272125 -0.012482744 -0.017852766 -0.0007123012 -0.008434146
-0.010092782 0.014019531 0.004532905 -0.00046782373 0.00681071 0.0056179347 -0.008454316 0.0034911358
0.006588746 0.012256726 0.0018620146 -0.008340086 -0.0005592452 -0.005876073 -0.0019523066 -0.017699415
-0.009260771 -0.013187333 -0.004948038 -0.009775943 0.009361903 -0.0008538812 0.0041271765 0.0069413404
-0.0005064898 -0.00081412494 -0.004618457 0.0063374424 0.007556101 -0.0030500488 -0.006817877 -0.0069828923
-0.012353861 0.008748497 -0.014077543 0.0010181402 -0.010419852 0.004477014 0.009475931 -0.002943198
0.0003875268 -0.026246313 -0.0068314397 0.005474452 -0.0005245492 0.00075328385 0.0005289855 0.0024508273
0.0068153194 -0.009493273 -0.008379619 -0.0048044147 0.0031174251 -0.024803124 -0.0037988785 -0.00068950927
0.004046204 -0.012648453 0.0030969507 0.000865271 0.0049584056 0.012497564 -0.0030460507 0.0069148317
-0.0057837325 0.0068726377 0.001230747 0.008814729 -0.0020758007 -0.00033437062 -0.0014541772 0.008713662
-0.00034337965 0.002939691 0.00016361145 -0.0062679662 -0.00049901445 -0.008335089 0.01038457 -0.0046868837
0.0026647034 0.0050505516 0.0070248838 -0.008961905 -0.0048767566 -0.0024281195 -0.00457492 0.0019188862
0.01875852 0.00855585 -0.00013178776 -0.005807862 0.0069498233 -0.005038747 -0.0031687312 0.0030441347
-0.008142899 0.002788526 0.0060786763 0.01166264 -0.0028842646 0.0041792067 -0.00031112597 0.0045639654
-0.0044396 -0.008525951 0.0020281966 0.018679608 -0.0046194172 -0.005622886 0.0044186465 -0.002668031
-0.0011272854 0.004843917 0.0023659486 0.003919616 -0.00037992897 0.0063896677 -0.0052945567 0.006537349
0.021489015 -0.0011355522 0.005090205 0.002261391 0.0028374805 0.002256513 0.0015090039 -0.013506554
-0.009124265 0.005182265 -0.009718045 -0.0013571274 0.006033526 -0.0019227032 -0.0027044895 0.0036174667
-0.011131327 0.012853269 0.0053392285 -0.014100549 -0.005940066 0.0036550704 -0.008359344 -0.011392029
-0.019066302 0.008193771 0.012423795 0.0029476755 -0.0022284088 -0.0004778964 -0.0045714783 -0.0063611316

action_model._discrete_distribution.branches.1.bias f4 [3]
00000000: 0000 0000 0000 0000 0000 0000
0.0 0.0 0.0

action_model._discrete_distribution.branches.1.weight f4 [3, 128]
00000000: 41e1 2ebb 08bd 67bb 6868 013a d838 e03b
00000010: 8a4e 583b 4e4c 023c 5fd2 2abc 2906 36bc
00000020: 8b6f 173c 08bb 803a 1942 b33c 7aa4 08bc
00000030: 73c2 cb39 5cc6 203a 074e 15bb e0bd 4ebc
00000040: 7548 16bc dc62 1a3c 5878 ec3b aeba c6bb
00000050: 3d1f a2bc 7dac 5ebb 80c8 6cbb 5e60 81bc
00000060: 3522 113b 61dc 08bc afcc b03c f970 8d3c
00000070: 888a 87bb 9bbb eb3a 121d dc3b 09ef b73b
00000080: 1d16 973c 21a6 99ba 9ed9 343b 268e 443c
00000090: a3c6 67bc fce1 abbb 67f9 bebc c7bb c93c
000000a0: d287 babb dff8 5a3c 5f22 0aba 039a 9bbb
000000b0: 882b f23b 8c69 ae3b e248 513c ebf0 ba3b
000000c0: 9023 5dbc 9022 9d3b 7005 27bc b746 c5bb
000000d0: a261 f03b f38f 18bc df12 0b3c d913 b93b
000000e0: c256 78bc 398f 813b 1856 ac3c 9954 98bc
000000f0: cd5a 30bc 3a50 1fbb 411e 3e3c cab8 e0b9
00000100: b2e1 013b d752 023c fa68 2ebc bba2 53bb
00000110: 2f7a 95bb 34a9 8fbc 1539 063c 43b9 f0bb
00000120: 6a27 02bb 07a5 abbb 6ba5 adbb 58fd 55bb
00000130: d04d 7c3b efb6 0fbb 3588 d2b9 b963 413b
00000140: 5305 3a3b a322 febb 15ab 87bb 6337 cd3b
00000150: 5f23 56bb bc47 ca3b ea41 a83b ca71 da3b
00000160: b256 a0bb 53c2 4bbc 2f72 d13a 1d05 39bc
00000170: 9f49 a0bb d5a3 113c 638c 883b df4e 4abc
00000180: 17d0 e2ba a370 773b 64d1 cbb7 52c5 e43b
00000190: 7b6d 35bc 7ff4 a7ba a504 e9bb fb80 f5bb
000001a0: fbf6 b63b bdb0 703a abb9 88bc cd41 113c
000001b0: 2fbd b7bb 4d76 1a3c 7772 42bb 8675 863c
000001c0: 95f7 f1bb 88fa 883b 228c 303c 2d52 7fbc
000001d0: 343d ccba 8afc b6bb 5426 17bc a5c9 913b
000001e0: b8fc c5bb bac1 a03b fd94 1abc 7dab 9ebc
000001f0: fb39 503a aa82 693c 6fc8 f0bb bf66 3cbc
00000200: 1a3a 693c 03dd c2b8 0a72 cabc 5e17 063c
00000210: 44c0 2cbb 4b44 833c 630e 47bc e00f 93bc
00000220: f2cc 32bc 9c6e 10bc 034d e8bb fc64 c43a
00000230: 34a1 42ba ff76 d23b be64 a3ba 5a63 8a3b
00000240: b09d e4b9 3a19 35bc b21f d53c 6bf9 40bc
00000250: 2d27 6bbb 8a61 d0bb e54c 1abc 570e 91ba
00000260: eda1 693b c843 763c 124b fbbb 5048 d93b
00000270: 7915 36ba e051 6139 a0ea 06bc 9a62 fdbb
00000280: 8b32 813c b2bc 6d3b b759 553c 64e9 803b
00000290: b280 4dbb cbe6 b53a 155a f7bb 3d61 9f3c
000002a0: 7573 58bb 838f 60bc 7796 87bc 71f4 883b
000002b0: 4dec 5dbb c091 603c 85ef 213b dc13 3bbb
000002c0: 1681 bbbb ff22 64bc d04e 5b3a 03d5 023c
000002d0: b5f4 c53b 807b 4ebb 432c 9cba 1fd6 1e3c
000002e0: ad80 e0bb a8bb ed3b 4566 f0bb cdb0 1d3c
000002f0: 65ea d03b edeb 783c 89dc 983c ffe1 22bc
00000300: a877 523c 2879 fb3b 72d6 f1bb d389 2c3b
00000310: 2a32 863a 3219 c6ba beab 223c a833 40b9
00000320: 6add 77bb fb18 883b 2117 8c3b 9a01 513c
00000330: 9355 07bc 7bcc 1fbc d08d 7e3b d498 253c
00000340: 0096 9ebb fc33 0dbb a8f4 f7bb 3b9e 5f3b
00000350: adf2 6dbc c9ab 9dbb 1036 5c3b 90b4 fc3b
00000360: 3b0f 5abc 659b 46bc faf6 493c 181f 61ba
00000370: c701 c7bb b73e fb3b ead7 213c afc7 96bc
00000380: 7568 213b 3f41 03b8 f9d0 313c b355 bb3b
00000390: d63a 4b3b 4bfc 233a 67e7 6dbc 8254 c73b
000003a0: 7470 14ba 095f 043a 8e32 4a3a 6d2a 5f3c
000003b0: 52ee 053c 2f13 81ba 8540 cfba c04c d6ba
000003c0: 9289 e83b c168 94bc 825a 29ba 1f4b 833c
000003d0: aadc 3cbc 930a 0f3c 8735 18bc 2ac2 f73b
000003e0: 8ae7 6c3c 94e5 35bc b8af 15bc 3a4b 093c
000003f0: a59f 56bb fad3 1cbc 4b52 d33a 32a1 353c
-0.0026684555 -0.0035360474 0.0004936517 0.006842714 0.0033005797 0.007952763 -0.010426133 -0.011109867
0.0092429025 0.0009821365 0.021882104 -0.0083399955 0.00038864053 0.00061330735 -0.0022782104 -0.012618512
-0.009172549 0.009422984 0.0072164945 -0.0060647344 -0.019790286 -0.0033977323 -0.003613025 -0.015793022
0.0022145633 -0.008353324 0.021581976 0.017265784 -0.0041363873 0.0017984988 0.0067173326 0.005613212
0.018443162 -0.0011722484 0.002759553 0.011996781 -0.01414648 -0.0052454453 -0.023312284 0.024625672
-0.0056924606 0.013365 -0.0005269404 -0.0047485842 0.0073904432 0.0053226408 0.012773724 0.005704989
-0.013497248 0.00479538 -0.0101941675 -0.0060203928 0.0073358575 -0.009311664 0.008488386 0.005648118
-0.015157403 0.003953841 0.021037146 -0.018595027 -0.010763836 -0.0024309293 0.011603893 -0.00042862288
0.0019818363 0.007954321 -0.010645146 -0.003229304 -0.0045616846 -0.017536737 0.00819232 -0.0073463037
-0.0019859918 -0.0052381787 -0.0052992604 -0.0032652225 0.0038498528 -0.0021929105 -0.00040155803 0.0029508902
0.002838452 -0.007755594 -0.0041402676 0.006262706 -0.0032674891 0.006173102 0.0051348107 0.0066663967
-0.0048931474 -0.012436467 0.0015979464 -0.011292723 -0.004891589 0.008889158 0.004167126 -0.012347906
-0.0017304447 0.0037756346 -2.429699e-05 0.00698153 -0.011073465 -0.0012813954 -0.0071111494 -0.0074921823
0.0055836416 0.00091816095 -0.016690096 0.008865786 -0.0056072692 0.009427619 -0.0029670277 0.016413461
-0.0073842504 0.0041802563 0.010775598 -0.015583557 -0.0015582205 -0.005584304 -0.009225447 0.0044490867
-0.0060420893 0.0049059065 -0.009434936 -0.019368881 0.000794321 0.014252344 -0.0073481123 -0.011499106
0.014235044 -9.2918075e-05 -0.024712581 0.008184282 -0.0026359716 0.016023776 -0.012149426 -0.017951906
-0.010913121 -0.008815434 -0.0070892586 0.0014983709 -0.0007424534 0.006422877 -0.0012465937 0.0042232694
-0.00043605035 -0.011053378 0.02601609 -0.011778216 -0.0035881505 -0.006359284 -0.009417747 -0.0011066896
0.0035649494 0.015030809 -0.007668861 0.006630935 -0.00069459487 0.00021488173 -0.00823465 -0.0077327015
0.015771171 0.0036275801 0.013021878 0.0039340723 -0.0031357226 0.0013877986 -0.0075485804 0.019455547
-0.0033027802 -0.013706091 -0.01655124 0.0041795303 -0.003386277 0.0137066245 0.0024709415 -0.0028545773
-0.0057221754 -0.013924359 0.0008365931 0.007985356 0.0060411342 -0.0031506717 -0.0011915046 0.009694605
-0.006851277 0.0072550364 -0.00733641 0.009624672 0.0063755983 0.015192968 0.018659847 -0.009941577
0.012845911 0.007674355 -0.0073803 0.0026327267 0.0010238339 -0.001511371 0.009928642 -0.0001832979
-0.0037821182 0.0041533685 0.004275218 0.0127567295 -0.008260149 -0.009753342 0.003884185 0.010107238
-0.0048396587 -0.0021545878 -0.007567007 0.0034121412 -0.01452319 -0.004811738 0.003360156 0.0077119544
-0.013309295 -0.01212201 0.01232695 -0.0008587702 -0.00607321 0.0076673883 0.009878138 -0.018405763
0.0024628912 -3.12936e-05 0.010853046 0.0057170033 0.003101041 0.0006255551 -0.014520503 0.006083072
-0.0005662509 0.0005049562 0.0007713222 0.013620955 0.008174496 -0.0009847636 -0.0015812075 -0.0016349778
0.007096478 -0.018116357 -0.0006460325 0.016027031 -0.01152722 0.008730548 -0.009290106 0.007560988
0.0144595 -0.011102099 -0.009136133 0.008379752 -0.0032748964 -0.0095720235 0.0016122548 0.011085795

discrete_action_output_shape f4 [1, 2]
00000000: 0000 0040 0000 4040
2.0 3.0

network_body._body_endoder.seq_layers.0.bias f4 [128]
00000000: 0000 0000 0000 0000 0000 0000 0000 0000
00000010: 0000 0000 0000 0000 0000 0000 0000 0000
00000020: 0000 0000 0000 0000 0000 0000 0000 0000
00000030: 0000 0000 0000 0000 0000 0000 0000 0000
00000040: 0000 0000 0000 0000 0000 0000 0000 0000
00000050: 0000 0000 0000 0000 0000 0000 0000 0000
00000060: 0000 0000 0000 0000 0000 0000 0000 0000
00000070: 0000 0000 0000 0000 0000 0000 0000 0000
00000080: 0000 0000 0000 0000 0000 0000 0000 0000
00000090: 0000 0000 0000 0000 0000 0000 0000 0000
000000a0: 0000 0000 0000 0000 0000 0000 0000 0000
000000b0: 0000 0000 0000 0000 0000 0000 0000 0000
000000c0: 0000 0000 0000 0000 0000 0000 0000 0000
000000d0: 0000 0000 0000 0000 0000 0000 0000 0000
000000e0: 0000 0000 0000 0000 0000 0000 0000 0000
000000f0: 0000 0000 0000 0000 0000 0000 0000 0000
00000100: 0000 0000 0000 0000 0000 0000 0000 0000
00000110: 0000 0000 0000 0000 0000 0000 0000 0000
00000120: 0000 0000 0000 0000 0000 0000 0000 0000
00000130: 0000 0000 0000 0000 0000 0000 0000 0000
00000140: 0000 0000 0000 0000 0000 0000 0000 0000
00000150: 0000 0000 0000 0000 0000 0000 0000 0000
00000160: 0000 0000 0000 0000 0000 0000 0000 0000
00000170: 0000 0000 0000 0000 0000 0000 0000 0000
00000180: 0000 0000 0000 0000 0000 0000 0000 0000
00000190: 0000 0000 0000 0000 0000 0000 0000 0000
000001a0: 0000 0000 0000 0000 0000 0000 0000 0000
000001b0: 0000 0000 0000 0000 0000 0000 0000 0000
000001c0: 0000 0000 0000 0000 0000 0000 0000 0000
000001d0: 0000 0000 0000 0000 0000 0000 0000 0000
000001e0: 0000 0000 0000 0000 0000 0000 0000 0000
000001f0: 0000 0000 0000 0000 0000 0000 0000 0000
0.0 0.0 0.0 0.0 0.0 0.0 0.0 0.0
0.0 0.0 0.0 0.0 0.0 0.0 0.0 0.0
0.0 0.0 0.0 0.0 0.0 0.0 0.0 0.0
0.0 0.0 0.0 0.0 0.0 0.0 0.0 0.0
0.0 0.0 0.0 0.0 0.0 0.0 0.0 0.0
0.0 0.0 0.0 0.0 0.0 0.0 0.0 0.0
0.0 0.0 0.0 0.0 0.0 0.0 0.0 0.0
0.0 0.0 0.0 0.0 0.0 0.0 0.0 0.0
0.0 0.0 0.0 0.0 0.0 0.0 0.0 0.0
0.0 0.0 0.0 0.0 0.0 0.0 0.0 0.0
0.0 0.0 0.0 0.0 0.0 0.0 0.0 0.0
0.0 0.0 0.0 0.0 0.0 0.0 0.0 0.0
0.0 0.0 0.0 0.0 0.0 0.0 0.0 0.0
0.0 0.0 0.0 0.0 0.0 0.0 0.0 0.0
0.0 0.0 0.0 0.0 0.0 0.0 0.0 0.0
0.0 0.0 0.0 0.0 0.0 0.0 0.0 0.0

network_body._body_endoder.seq_layers.0.weight f4 [128, 5]
00000000: 4742 83be 72e3 133e 08ab 3cbf 13ed 89be
00000010: e037 2e3e 9d0f 4dbc 54da 9f3b b356 473e
00000020: b5f7 4fbe 6d84 6abc 7056 a83d 6ff3 1ebe
00000030: 2496 713e 749c c9be 15e8 2bbd ae96 eb3e
00000040: 0d84 a43e f31b 843c 2a1d 33bf 3012 4ebf
00000050: d0a4 adbd 71b9 9c3e c681 c7be 3481 abbe
00000060: d61b babe c92a debc 1569 fc3e c942 de3e
00000070: ffe6 cebe 785b 86be ace5 7bbf 3d39 b43e
00000080: a9c3 883e 5126 89bd af99 a6be 1fc8 82bf
00000090: 2cd9 2b3e 6ef9 b4be b437 9d3e 656a 27bf
000000a0: f5ab 3e3f 61fb fdbd 967d d13e 3c41 b63e
000000b0: c3c3 1cbf 7f01 ed3e 3883 ac3e 4a30 683f
000000c0: cecd 0bbe 4ea9 65bd e4e3 2a3e 4403 f9be
000000d0: 1fd5 603d a56b 45be e5e9 82bf c576 62be
000000e0: cbc7 f4be 101c c8be 56f7 a03e 114f 193e
000000f0: 170d 583e 64ba 5bbe 351a 1fbe 2539 a4be
00000100: ec6f 683d d0de 0bbe 64d0 1fbe e28e febe
00000110: 18e1 5f3d 1018 89be 323c 7bbe 6c8c 44bc
00000120: 7fc1 403d d75a 71bd b10e c4bd fd5e 463f
00000130: 5a2b 833c cf1c 003f 9bf4 cc3e 1737 0abf
00000140: 18ab 89bd 6bd5 2a3f b94a bfbe 9f24 d33d
00000150: 75d0 f7be d437 ccbd a11b 8c3e c5b6 103e
00000160: 34f3 303e 7385 63bf 8c10 9f3f 94dd c5bc
00000170: dee9 f6be 5507 f1be 4705 663e fad7 373e
00000180: e632 0ebe a66a 113f 080c 26be 0d82 b8be
00000190: b2ce 7fbd f124 c73e 4afd 36bf aaa6 9b3e
000001a0: 5766 17bf e16c fa3e 5948 b2be 7c80 9e3e
000001b0: 1e8e a23e 9b39 a8bf 59d0 173f 7d69 c23e
000001c0: a82c 9b3d f01d fe3e db25 c73d 1aa5 06bf
000001d0: 199d 0d3e 8f3c 6f3f 1a0e 9a3e 173d 15be
000001e0: dbe8 44bf 353b 57bf 8e4b 2fbe 0fae b1be
000001f0: a622 103e 46b3 13be 0575 313b dd28 ae3b
00000200: 7c95 cebd 78d6 acbe 0580 a23d 1fac 15be
00000210: 7c31 3d3f aaa5 0c3d f3bd 8a3e 181d ebbe
00000220: 4b2e ddbe 15a5 cd3c 69f7 7e3d cc62 a3bc
00000230: e89d aa3e 4274 66bf 7ed7 0d3f fd9c 873d
00000240: bb30 2ebf 47f3 2fbf ddae 4c3f 5f9d d6be
00000250: 44d9 e73e 4d5a 36bb 72f2 d7be 5c61 b23e
00000260: 54e9 f53d 50ee ddbd aa78 04bf 6879 bdbc
00000270: 8d47 4dbe 0163 10bf 60de 39be 381d d7be
00000280: 274f 493f 973a 773d 614a 62bf 26ae 873e
00000290: 45bf b5be 9c8c 983e 7115 313f 9a28 1abe
000002a0: 6ee2 7c3d 46f4 1bbf 5330 123f 89bd 63bf
000002b0: b8c9 c8be 0583 853c 1bcd ed3d e41d 3c3f
000002c0: 4c59 b13e f608 84be 3493 02bf 6c4e 12bd
000002d0: 498c 3cbe a6cc a1bd 8c5f 37be 8e3c 063e
000002e0: 8418 bf3e 9902 ad3e 874f a33d c7e1 7abe
000002f0: 528c 2ebe 3573 35bd c2c3 ec3e e4b2 f43e
00000300: e461 fd3e 663c eabd 58f4 fa3e f1b0 583f
00000310: 8709 d43e c4c7 4e3e 7178 a8be 70f7 de3c
00000320: 10b3 23bf d250 653e d7a1 a43f 405e 68bf
00000330: e3c3 3d3f fb53 34bf f1ff 4bbf ccd0 88bf
00000340: c8f2 cd3e 498f 5d3e 2bf1 00bf 5e87 4ebe
00000350: 9576 5e3e 92f8 b83d d78b f63e 2182 6c3e
00000360: 6984 0d3f 31b0 efbe 1f4d 0cbe 16bd 35bd
00000370: d154 1fbf b294 0c3f 6a38 bbbd be0d 263f
00000380: b39e f53e ac61 043f 227f d8be 5e83 3dbd
00000390: ce09 333f 565c fcbe 59f8 533e 9723 7cbc
000003a0: 6efa 373f e1d1 383f b8e0 a53e cfbb 873e
000003b0: 3c23 203e a310 033f 5653 39bf b9de 76bd
000003c0: d96e 4bbe 9d98 6d3e bd24 a33e ac93 363f
000003d0: bcf7 d73d fd92 75bf 607a 0dbf 65b2 a9be
000003e0: c876 b8be 976c 8ebd 4ac8 1abe d3a6 813d
000003f0: b90c 3bbf f120 f83d e79c 2abf 309a bc3e
-0.25636503 0.14442232 -0.7369847 -0.26938686 0.17013502 -0.0125159295 0.0048783217 0.19466667
-0.20309336 -0.014313799 0.08219612 -0.1552255 0.2359243 -0.39377177 -0.041969378 0.46013397
0.32131997 0.016126608 -0.69966376 -0.804965 -0.08478701 0.3061023 -0.38966197 -0.33497012
-0.36349362 -0.02712001 0.4929892 0.43410328 -0.4041061 -0.2624166 -0.98397326 0.3519992
0.26711777 -0.066967614 -0.32539126 -1.0217322 0.16782063 -0.3534655 0.3070656 -0.6539672
0.74481136 -0.12401462 0.40916127 0.35596645 -0.6123621 0.46290204 0.33693862 0.90698683
-0.13652727 -0.056069665 0.16688496 -0.48635304 0.054890748 -0.19279344 -1.0227629 -0.2211562
-0.4780868 -0.3908391 0.31438702 0.14971568 0.21098743 -0.21457821 -0.15537341 -0.32074848
0.056747362 -0.13659215 -0.15606838 -0.49718386 0.054658026 -0.2677617 -0.24534681 -0.01199637
0.047059532 -0.058924522 -0.09573115 0.7748869 0.016011883 0.5004396 0.4003037 -0.5399031
-0.06722087 0.667319 -0.37361696 0.10309719 -0.48401228 -0.09971586 0.2736483 0.14132221
0.17280275 -0.888755 1.2426925 -0.024153508 -0.48225302 -0.47075906 0.2246295 0.17953482
-0.13886604 0.5680336 -0.16215527 -0.3603672 -0.06245298 0.38895372 -0.7148024 0.30400592
-0.59140533 0.48911193 -0.34820822 0.309574 0.31749052 -1.314258 0.5930229 0.37971106
0.07576877 0.49632215 0.09724017 -0.52595675 0.13829459 0.9345178 0.30088884 -0.14574085
-0.7691781 -0.8407472 -0.17118666 -0.3470311 0.14075717 -0.14423856 0.0027077806 0.00531493
-0.10087106 -0.33757377 0.07934574 -0.1461644 0.7390363 0.034337677 0.27098045 -0.45920634
-0.4319938 0.025103131 0.062247667 -0.019944571 0.33323598 -0.90021145 0.5540694 0.0662174
-0.68043107 -0.68730587 0.7995432 -0.4191694 0.45282948 -0.002782482 -0.4217716 0.34839904
0.120073944 -0.1083647 -0.5174662 -0.02312918 -0.20046826 -0.5640107 -0.18151236 -0.4201448
0.786364 0.06035861 -0.88394743 0.26500052 -0.3549749 0.29794776 0.6917334 -0.15054551
0.061739378 -0.60919607 0.57104987 -0.8896108 -0.392164 0.016297827 0.116113864 0.7348311
0.3463844 -0.25788087 -0.51005864 -0.03571932 -0.1841289 -0.07900362 -0.17907542 0.13109037
0.3732339 0.33791044 0.07974153 -0.2450019 -0.17045715 -0.044299323 0.462431 0.47792733
0.49488747 -0.11437301 0.49014544 0.8464499 0.4141352 0.20193392 -0.3290439 0.027217597
-0.639451 0.22394112 1.286189 -0.90768814 0.74127024 -0.70440644 -0.7968741 -1.068872
0.4022429 0.2163669 -0.50367993 -0.20168826 0.21724923 0.09031786 0.48153564 0.23096515
0.55280167 -0.4681411 -0.13701294 -0.04436978 -0.62238795 0.5491439 -0.091416195 0.6486472
0.4797264 0.51711535 -0.42284495 -0.04626786 0.69936836 -0.49289197 0.20700206 -0.015389345
0.718665 0.7219525 0.3239801 0.26510474 0.15638441 0.5119726 -0.72392786 -0.060271
-0.19866504 0.23202749 0.31863967 0.7131908 0.105452985 -0.9592741 -0.55264854 -0.33143917
-0.36028123 -0.069543056 -0.15115467 0.06330647 -0.7306629 0.12115658 -0.66645664 0.36836386

network_body._body_endoder.seq_layers.2.bias f4 [128]
00000000: 0000 0000 0000 0000 0000 0000 0000 0000
00000010: 0000 0000 0000 0000 0000 0000 0000 0000
00000020: 0000 0000 0000 0000 0000 0000 0000 0000
00000030: 0000 0000 0000 0000 0000 0000 0000 0000
00000040: 0000 0000 0000 0000 0000 0000 0000 0000
00000050: 0000 0000 0000 0000 0000 0000 0000 0000
00000060: 0000 0000 0000 0000 0000 0000 0000 0000
00000070: 0000 0000 0000 0000 0000 0000 0000 0000
00000080: 0000 0000 0000 0000 0000 0000 0000 0000
00000090: 0000 0000 0000 0000 0000 0000 0000 0000
000000a0: 0000 0000 0000 0000 0000 0000 0000 0000
000000b0: 0000 0000 0000 0000 0000 0000 0000 0000
000000c0: 0000 0000 0000 0000 0000 0000 0000 0000
000000d0: 0000 0000 0000 0000 0000 0000 0000 0000
000000e0: 0000 0000 0000 0000 0000 0000 0000 0000
000000f0: 0000 0000 0000 0000 0000 0000 0000 0000
00000100: 0000 0000 0000 0000 0000 0000 0000 0000
00000110: 0000 0000 0000 0000 0000 0000 0000 0000
00000120: 0000 0000 0000 0000 0000 0000 0000 0000
00000130: 0000 0000 0000 0000 0000 0000 0000 0000
00000140: 0000 0000 0000 0000 0000 0000 0000 0000
00000150: 0000 0000 0000 0000 0000 0000 0000 0000
00000160: 0000 0000 0000 0000 0000 0000 0000 0000
00000170: 0000 0000 0000 0000 0000 0000 0000 0000
00000180: 0000 0000 0000 0000 0000 0000 0000 0000
00000190: 0000 0000 0000 0000 0000 0000 0000 0000
000001a0: 0000 0000 0000 0000 0000 0000 0000 0000
000001b0: 0000 0000 0000 0000 0000 0000 0000 0000
000001c0: 0000 0000 0000 0000 0000 0000 0000 0000
000001d0: 0000 0000 0000 0000 0000 0000 0000 0000
000001e0: 0000 0000 0000 0000 0000 0000 0000 0000
000001f0: 0000 0000 0000 0000 0000 0000 0000 0000
0.0 0.0 0.0 0.0 0.0 0.0 0.0 0.0
0.0 0.0 0.0 0.0 0.0 0.0 0.0 0.0
0.0 0.0 0.0 0.0 0.0 0.0 0.0 0.0
0.0 0.0 0.0 0.0 0.0 0.0 0.0 0.0
0.0 0.0 0.0 0.0 0.0 0.0 0.0 0.0
0.0 0.0 0.0 0.0 0.0 0.0 0.0 0.0
0.0 0.0 0.0 0.0 0.0 0.0 0.0 0.0
0.0 0.0 0.0 0.0 0.0 0.0 0.0 0.0
0.0 0.0 0.0 0.0 0.0 0.0 0.0 0.0
0.0 0.0 0.0 0.0 0.0 0.0 0.0 0.0
0.0 0.0 0.0 0.0 0.0 0.0 0.0 0.0
0.0 0.0 0.0 0.0 0.0 0.0 0.0 0.0
0.0 0.0 0.0 0.0 0.0 0.0 0.0 0.0
0.0 0.0 0.0 0.0 0.0 0.0 0.0 0.0
0.0 0.0 0.0 0.0 0.0 0.0 0.0 0.0
0.0 0.0 0.0 0.0 0.0 0.0 0.0 0.0

network_body._body_endoder.seq_layers.2.weight f4 [128, 128]
00000000: f029 9abd 9d37 913d 88b7 973c 38d5 d53d
00000010: b441 c63d 11ad af3d e605 18be e911 99bc
00000020: f0f4 6abd d7af bbbc c742 093c 2b1c 2d3e
00000030: b9ac bfbb 1599 f1bd e43a ad3c 765c e43d
00000040: 2874 c6bd a097 49bc 60b2 c4bd 525a 41bd
00000050: 3f2f efbd 11c4 d73d 8ff3 c5bc 446d 483d
00000060: 4600 45be 4fd4 c8bc d3e5 c0bc 0e00 5d3c
00000070: 99d5 883d ccd5 9abd 11cb 1bbe 1f44 d5bc
00000080: 977b 08be bc16 f9bb b33f 86be fbed f03c
00000090: c361 b9bd 4333 e33c fbf8 91bc 1d05 2a3d
000000a0: c399 a4bb 5b30 aebc 2e0e 8e3d 375e 2bbd
000000b0: 7e60 b7bd 8798 2c3e a716 54bc d4eb fbbd
000000c0: 6156 e33c f757 12bd 7767 a13d 3e6c df3c
000000d0: e878 9ebc f609 943d d064 a7bc 41b7 813d
000000e0: 89e4 fbbc 76cf 20bd c6a5 4d3d 3ff3 98bd
000000f0: ad89 c9bc b191 a6bd a423 6dbb e2a6 b13d
00000100: 1cc8 c839 ddec d83d 0d99 ddbd 8a0a a43d
00000110: e005 abbd 779c be3d c32c 583d f578 c5bd
00000120: aa45 433d 13ef 1cbe 229c 20bc 0ced 2e3e
00000130: e4a9 0abd f123 a03d eb67 513d 269c 203e
00000140: 091f 66bb 2de2 77bd e307 0cbe 2ba2 9bbd
00000150: 0fcf 56bd 4cc6 a43d 01a9 9a3d 73bb 0a3d
00000160: 2320 4d3d d496 1ebb 4bbc 09ba ba5a d73d
00000170: 2fa5 1cbe 10d3 873c bfc3 d8bd c295 1f3e
00000180: a223 13be 5a4b 343d 1e71 863d 172c 913d
00000190: 4f30 49bd 2dbf 883d 2b6d a53d e712 85ba
000001a0: d34f c03c 3c36 fdbc 8c09 f7bb 0388 833d
000001b0: 496f c23d 14c8 943c 95e1 b53d fc01 04be
000001c0: 0cbe 603d 7a90 13be 48ee d73c a434 5c3e
000001d0: ac93 2a3e f7de af3c b8d8 c13d d3fd df3d
000001e0: 38b1 823e a78f 24bd 5e64 eabd 42af 23bd
000001f0: 2e11 6f3d 5e8c 4e3e f8f7 213c f6ce 4d3d
00000200: 4d1a 813d ec6e c5bd 38e2 053e ca03 92ba
00000210: 4559 87bc 4d73 b23d 334a 113d a494 983d
00000220: ce4c 83bd 4506 92bd ae32 a5bd 52c9 563d
00000230: 4201 c13b a165 163e 16ad 18be adde 6f3d
00000240: f431 eb3d 5cb6 5a3d 6186 3abd 627a a4bd
00000250: a12e 2bbd 7f06 10bc bf1f a3bb b046 c2bd
00000260: ab1d 9b3c edb6 373e 85d8 f9b9 cce1 47bd
00000270: eb5c 3dbd 9bce 093e 519e 4c3d bd4e b13d
00000280: df85 513d 8e5a 7c3d 23b9 e23d e35f 9bbc
00000290: 174c 5b3c f031 1bbb a62d f83c d76f 0c3d
000002a0: b85e 763d b936 c53b b885 11bd e9c8 f33d
000002b0: b979 77bd 63f2 bebd 5050 033c 1864 dcbb
000002c0: abe3 a23d 5bdb 2b3d ef2d 0cbd 8508 263e
000002d0: 173a 3bbd c180 1d3d 0382 813d a61c 063e
000002e0: 73d0 09bd 243a bfbd ff00 2fbd 091e 78bd
000002f0: c4cd 7bbc 214e d9bc d723 5b3d b23d 3cbd
00000300: 675c 823d df5e 883d b51c 53bd 7708 15be
00000310: 3277 fcbb 3837 9e3d f065 db3d 57d1 b5bc
00000320: d026 04bd 7c23 8b3d e752 14be 6b46 2b3b
00000330: a92d e8bd cebc f83b b067 503d 42ce 7b3b
00000340: b6dc 963d b7fe f53d 601e 0a3d 43a1 893d
00000350: b4af ab3d 529c 0b3c 6bda 9e3c 4495 613d
00000360: 9fca 4fbd ee52 77bc a405 923d da11 eebd
00000370: 9e38 83bc 0292 12be 4f4e 81bd dfea 813d
00000380: 5d42 83bd 16d6 93bd 3727 dcb9 e4e1 503e
00000390: e90f e0bc 145e d1bc 7bc2 0bbe ac93 ba3c
000003a0: 5afd 1d3e 7e9f 74bb 357e b4bd 142a 9e3d
000003b0: fdda 8fbd d3e9 053d 07f6 de3d d9a2 16be
000003c0: 36d2 8fbb 789d 19bd 1873 f23d 2ce5 c1bd
000003d0: e43a 603d d9ea 073e bcd9 803a 84c0 65ba
000003e0: 2835 b93d 37f1 8fbe 99dc c0bd 112a 993c
000003f0: 9df3 a6bc ce9a 363d 0580 0f3e f142 973d
-0.0752753 0.070906855 0.018520132 0.10441059 0.096805006 0.08577932 -0.14846 -0.018685298
-0.057362497 -0.022910995 0.008377737 0.16905276 -0.0058494476 -0.11796776 0.021146245 0.11150448
-0.09690124 -0.012304217 -0.09604335 -0.047205277 -0.11678933 0.105354436 -0.02416399 0.04893233
-0.19238386 -0.0245153 -0.023547089 0.013488783 0.066813655 -0.0756031 -0.15214182 -0.02603346
-0.13328396 -0.007601587 -0.26220474 0.029410353 -0.0905185 0.027734404 -0.017818918 0.041508783
-0.0050232126 -0.021263292 0.06936298 -0.041837897 -0.08953951 0.1685506 -0.012944854 -0.1230084
0.02775115 -0.03572842 0.078810625 0.027273294 -0.019344762 0.072284624 -0.020433813 0.06333781
-0.030748622 -0.03926035 0.050206922 -0.074682705 -0.024601782 -0.08133257 -0.0036184574 0.086744085
0.00038296066 0.10592053 -0.10820208 0.08009823 -0.0835073 0.09307187 0.052777063 -0.09642211
0.04767386 -0.15325575 -0.00980285 0.17082614 -0.033853427 0.07819355 0.051124495 0.15684566
-0.0035113713 -0.060518432 -0.13674884 -0.075992905 -0.05244356 0.080456346 0.07551766 0.03387017
0.050079476 -0.0024198787 -0.0005254193 0.105153516 -0.15297388 0.016580135 -0.105842106 0.15584472
-0.14369062 0.044017173 0.06564544 0.070884876 -0.049118336 0.06677089 0.08077463 -0.0010152728
0.023475563 -0.03090965 -0.00753898 0.064224266 0.09493882 0.018161811 0.08880917 -0.12891382
0.054868743 -0.14410582 0.026358739 0.21504456 0.16657895 0.021468623 0.09465164 0.10937085
0.25525832 -0.04017606 -0.11444925 -0.03996206 0.058365993 0.20170733 0.0098857805 0.0502462
0.063038446 -0.09640297 0.13074577 -0.0011140045 -0.01652206 0.08713398 0.035471153 0.07450226
-0.06411134 -0.07130102 -0.08066307 0.052438088 0.0058900425 0.14687206 -0.14909777 0.05856197
0.11484137 0.053396568 -0.04553831 -0.08031155 -0.041792516 -0.008790611 -0.0049781497 -0.09486139
0.018935045 0.17940874 -0.000476543 -0.04879932 -0.04623119 0.1345772 0.04995567 0.08657596
0.05115306 0.061609797 0.11070468 -0.01896662 0.01338484 -0.0023680888 0.030295204 0.034286346
0.060148925 0.0060184863 -0.035527915 0.11903555 -0.06041882 -0.09323575 0.008014753 -0.0067257993
0.079535805 0.04195724 -0.034223493 0.16214187 -0.045709696 0.038452867 0.06323626 0.13096866
-0.03364606 -0.09337261 -0.04272556 -0.06057552 -0.015368883 -0.026526513 0.053500976 -0.045957275
0.063652806 0.0665872 -0.05154105 -0.1455401 -0.007704639 0.07725376 0.107128024 -0.022194548
-0.032263577 0.067938775 -0.1448475 0.0026134502 -0.11336834 0.0075908666 0.050880134 0.00384225
0.07366316 0.120114736 0.033720374 0.06720211 0.08383122 0.008521156 0.01939126 0.05507399
-0.050730344 -0.015095456 0.07129982 -0.11624499 -0.016018208 -0.1431351 -0.06313764 0.06343626
-0.06409142 -0.07218568 -0.00041990887 0.2039867 -0.027351337 -0.025557555 -0.13648407 0.022775494
0.15428677 -0.003732651 -0.088131346 0.077228695 -0.070241906 0.032693695 0.1088677 -0.14710559
-0.004389073 -0.03750369 0.11838359 -0.09467539 0.054743662 0.13273181 0.0009830515 -0.0008764344
0.09043342 -0.2811372 -0.09417076 0.018696817 -0.020379836 0.044581227 0.1401368 0.07385815
