results/ppo/FTG 00/FTG 00-2567.pt (torch, 150295 bytes, 14 tensors)

discrete_act_size_vector f4 [1, 2]
00000000: 0000 0040 0000 4040
2.0 3.0

network_body._body_endoder.seq_layers.0.weight f4 [128, 5]
00000000: cd78 dd3e 6b9c f7be 944f 523e ccef cabe
00000010: 2d6d 743e e1be 073e 947e 363d efaa 1bbe
00000020: 7af2 a6be 111a 723f 4289 c1be b96f 5fbd
00000030: 2cc9 203f 6080 06be 0fbf bbbe 3b22 cebe
00000040: a747 713d 0e05 883e 82bf 023f 9d12 96bd
00000050: 5c44 fbbe 1895 fa3e d2a4 abbe 319b 0fbe
00000060: ab50 c9be 3faf 17be 93ff bebe b845 793f
00000070: 3b87 613e 47e0 033e 7595 b93e bfdf e4be
00000080: f5e7 3abe cacc 5fbd 62b9 cfbd eba0 eb3e
00000090: 6c19 afbe 590e 0a3f 51b8 a1bf a672 5fbe
000000a0: 91b6 423e 3a68 9bbf 8bcc 81be 0843 773f
000000b0: 2f90 37bf a47a fb3e 00c7 583d 8658 073e
000000c0: 6909 b13c 75ae e93e 6918 813e 8278 0abf
000000d0: 7c31 72be 2e1d b0be a6ac b43e 8139 6bbe
000000e0: 70dd 95be 68b5 ff3e 75f5 5abf 4dba 463d
000000f0: bc00 20bf 0727 743e 21c3 fabc 9592 e93e
00000100: 734d f4be ea7a 4f3e a46b e2be d84e 213d
00000110: 4872 b33e a9a4 2dbf cd89 663f a184 b3bc
00000120: 5731 e8bc e521 9ebc e0cc a53f e2a7 d9bb
00000130: 156d 32bf 801d ca3e b8e5 afbe b4da 0a3d
00000140: ab64 dabe 9fb1 ce3e e333 9f3d 7e46 cebd
00000150: 7903 a73e 2c7d 0b3f de25 713e 56a5 57bd
00000160: eb13 95be 01da 633e 79f3 f53e 85c4 083e
00000170: 8ed6 13be 9e1a 1ebf a7ff 983e debf 173f
00000180: 4a06 37bd 0015 16be 2670 003f 6286 003f
00000190: d061 b13e fa0a ca3d ad94 c63d 4b1c 543e
000001a0: c2f2 fe3e bdd2 9abc 28a7 ac3e ab3e 043f
000001b0: 0d44 1abb 5871 c6bd 122e db3d aee3 f3be
000001c0: ddc1 1abf d04b 4a3d 7f5e 0f3f 350e 833d
000001d0: 05d5 9b3e 83c9 de3e 1750 33be 23fb 70bc
000001e0: 3d7f 68bd 5763 eb3e ae97 a1bd db4a b33d
000001f0: d705 73be 800d 403f e365 5d3f 3314 c0be
00000200: c37c d93e 585b 123f d5f5 b13e 6d6d 393e
00000210: bf02 bdbe 1ef5 5b3f 8fa6 a5be 878c b9be
00000220: 6484 89bf 8ed8 9cbe 5237 05bf dc0a 00bf
00000230: e1f9 7bbe e313 b4be 6174 7f3d 155b 32be
00000240: 125f 1ebe 3a50 b43e 57c3 973e eab9 823e
00000250: febe 063f fb78 fabe 688b 1dbf 4314 173f
00000260: 83e9 f2bc 6b8f 5f3e 4fa5 65be 4b99 943e
00000270: 3aa2 50be 80c8 72be 918c 193f 7648 db3c
00000280: a796 1fbf b724 cdbf 6624 0c3f c795 76bf
00000290: 973e 15bf e5a8 033f ddea 923e b831 fdbd
000002a0: 561e 193f bc1b ec3e d0b0 1e3f 097a d2be
000002b0: ffc6 a53e e432 8fbe b515 163e 6131 e0be
000002c0: 2866 623e 0b8d 1dbf 6a29 e3be 70da b9be
000002d0: 56e5 153f 2e08 babd 7dcd 2a3f fd43 803e
000002e0: a301 c73d 4e0c 773e 3e7b 9a3d 0fdd 14bf
000002f0: 7022 3abf 0000 d3be 631a 413d 1644 533f
00000300: e8fa aabf 4889 b53e 58fa 5bbe 6cc1 2fbe
00000310: 7787 af3e beef 6a3f d3e3 d8bd 20ea 803f
00000320: f239 10bf a095 6bbd e16e 41bf 8f23 13be
00000330: f14b 0dbf 780a 0ebf f4c6 85bd f630 193f
00000340: 241d 1abf 79d7 a9be d545 0a3e 4296 2a3e
00000350: c417 babd a94a 4abf f44b ea3e 9990 5abe
00000360: 2b10 b23e a698 e63e 150f 16bf 6cb6 783e
00000370: 056e 113e 77e9 31be 87c1 75bf 9b57 84be
00000380: 2e5d 5bbe 5540 9ebe 39a8 58bf b8c9 03be
00000390: 8437 15be 3fe9 1b3f 0046 f2be 44b3 ab3e
000003a0: 0646 b4bd ed99 913e 80dd bcbc 17cf 8c3e
000003b0: e26b 4c3e 0297 f23e afad 053e b217 08bf
000003c0: df01 81be 7a82 b9be 32fa d9be 8614 d93e
000003d0: a8f5 63bf 78b9 ca3e ce61 cebd b269 553f
000003e0: 0ec0 35bf 7203 1dbe e27b cabe 204d bdbe
000003f0: 43e5 ce3d 38be 14be f1de 88be 6786 a0bd
0.43256226 -0.48361525 0.20538169 -0.39636075 0.23869772 0.13256408 0.044554308 -0.15201925
-0.3260687 0.94571024 -0.37800032 -0.054549906 0.62806964 -0.13134909 -0.36669204 -0.4026049
0.058906224 0.26566356 0.5107347 -0.07327769 -0.49075592 0.48941875 -0.33524185 -0.14024045
-0.39319357 -0.14812945 -0.37304363 0.9737201 0.22024243 0.12878524 0.3624684 -0.44701955
-0.18252547 -0.05463866 -0.10142781 0.46021208 -0.34199083 0.5392814 -1.2634374 -0.21821079
0.19014956 -1.2141182 -0.25351366 0.96586657 -0.7170438 0.49117005 0.052924156 0.13217363
0.021610932 0.45640913 0.25213936 -0.5409013 -0.2365169 -0.34397262 0.3528797 -0.22971155
-0.29270506 0.4994309 -0.8553079 0.048517514 -0.6250112 0.23843013 -0.030610623 0.45619646
-0.4771534 0.20261732 -0.44222748 0.039381832 0.35048127 -0.67829376 0.9005402 -0.021913828
-0.02834384 -0.019303272 1.2953148 -0.0066423276 -0.69697696 0.39475632 -0.3435495 0.033899978
-0.4265493 0.4036989 0.077735685 -0.10072039 0.32619837 0.5448787 0.23549601 -0.05264791
-0.2911676 0.2225113 0.48037317 0.13356216 -0.14437315 -0.61759365 0.29882547 0.5927714
-0.044683732 -0.14656448 0.50171125 0.5020505 0.34644938 0.09865375 0.096963264 0.20713918
0.49794585 -0.018899316 0.3372128 0.51658124 -0.0023539097 -0.09689587 0.107021466 -0.47634643
-0.6045206 0.049388707 0.56003565 0.06399194 0.30435959 0.43513116 -0.1751102 -0.014708313
-0.05676197 0.45974228 -0.07890259 0.08754512 -0.23732696 0.750206 0.8648359 -0.3751541
0.42477998 0.5717063 0.34757867 0.18108149 -0.36916158 0.85920894 -0.32353637 -0.36240026
-1.0743527 -0.30633968 -0.5203754 -0.5001657 -0.2460704 -0.35171422 0.062366847 -0.17417558
-0.15465954 0.35217458 0.2964122 0.25532466 0.5263518 -0.48920426 -0.6154084 0.5901529
-0.029652363 0.21832053 -0.22426341 0.29023203 -0.20374385 -0.23709297 0.5998011 0.02676795
-0.6233925 -1.602683 0.5474304 -0.9632229 -0.5829863 0.5142959 0.2869481 -0.12362999
0.59811914 0.4611491 0.61988544 -0.4110873 0.32378384 -0.27968514 0.14656718 -0.43787673
0.22109282 -0.6154334 -0.44367534 -0.36299467 0.58553064 -0.090835914 0.667198 0.2505187
0.09717109 0.24125788 0.07543038 -0.5814981 -0.727088 -0.41210938 0.047144305 0.82525766
-1.335782 0.354563 -0.21482217 -0.17163628 0.3428304 0.9177207 -0.10590329 1.0071449
-0.5633842 -0.05751574 -0.7555981 -0.14369033 -0.55194 -0.55484724 -0.06532088 0.59840333
-0.60200715 -0.33172205 0.13503201 0.16658881 -0.09086564 -0.7902017 0.45761073 -0.21344222
0.3477796 0.45038337 -0.58616763 0.24288338 0.14202125 -0.17374216 -0.95998424 -0.25848088
-0.21422264 -0.30908456 -0.8463169 -0.12869918 -0.14571959 0.6090278 -0.4731903 0.33535206
-0.088024184 0.2843775 -0.023054838 0.27501747 0.19963029 0.47380835 0.13054536 -0.53161156
-0.2519674 -0.36232358 -0.42573696 0.4239847 -0.89046717 0.39594626 -0.100772485 0.83364403
-0.7099618 -0.15333346 -0.3954764 -0.36972904 0.10102322 -0.14525688 -0.2673259 -0.07838135

network_body._body_endoder.seq_layers.0.bias f4 [128]
00000000: 0000 0000 0000 0000 0000 0000 0000 0000
00000010: 0000 0000 0000 0000 0000 0000 0000 0000
00000020: 0000 0000 0000 0000 0000 0000 0000 0000
00000030: 0000 0000 0000 0000 0000 0000 0000 0000
00000040: 0000 0000 0000 0000 0000 0000 0000 0000
00000050: 0000 0000 0000 0000 0000 0000 0000 0000
00000060: 0000 0000 0000 0000 0000 0000 0000 0000
00000070: 0000 0000 0000 0000 0000 0000 0000 0000
00000080: 0000 0000 0000 0000 0000 0000 0000 0000
00000090: 0000 0000 0000 0000 0000 0000 0000 0000
000000a0: 0000 0000 0000 0000 0000 0000 0000 0000
000000b0: 0000 0000 0000 0000 0000 0000 0000 0000
000000c0: 0000 0000 0000 0000 0000 0000 0000 0000
000000d0: 0000 0000 0000 0000 0000 0000 0000 0000
000000e0: 0000 0000 0000 0000 0000 0000 0000 0000
000000f0: 0000 0000 0000 0000 0000 0000 0000 0000
00000100: 0000 0000 0000 0000 0000 0000 0000 0000
00000110: 0000 0000 0000 0000 0000 0000 0000 0000
00000120: 0000 0000 0000 0000 0000 0000 0000 0000
00000130: 0000 0000 0000 0000 0000 0000 0000 0000
00000140: 0000 0000 0000 0000 0000 0000 0000 0000
00000150: 0000 0000 0000 0000 0000 0000 0000 0000
00000160: 0000 0000 0000 0000 0000 0000 0000 0000
00000170: 0000 0000 0000 0000 0000 0000 0000 0000
00000180: 0000 0000 0000 0000 0000 0000 0000 0000
00000190: 0000 0000 0000 0000 0000 0000 0000 0000
000001a0: 0000 0000 0000 0000 0000 0000 0000 0000
000001b0: 0000 0000 0000 0000 0000 0000 0000 0000
000001c0: 0000 0000 0000 0000 0000 0000 0000 0000
000001d0: 0000 0000 0000 0000 0000 0000 0000 0000
000001e0: 0000 0000 0000 0000 0000 0000 0000 0000
000001f0: 0000 0000 0000 0000 0000 0000 0000 0000
0.0 0.0 0.0 0.0 0.0 0.0 0.0 0.0
0.0 0.0 0.0 0.0 0.0 0.0 0.0 0.0
0.0 0.0 0.0 0.0 0.0 0.0 0.0 0.0
0.0 0.0 0.0 0.0 0.0 0.0 0.0 0.0
0.0 0.0 0.0 0.0 0.0 0.0 0.0 0.0
0.0 0.0 0.0 0.0 0.0 0.0 0.0 0.0
0.0 0.0 0.0 0.0 0.0 0.0 0.0 0.0
0.0 0.0 0.0 0.0 0.0 0.0 0.0 0.0
0.0 0.0 0.0 0.0 0.0 0.0 0.0 0.0
0.0 0.0 0.0 0.0 0.0 0.0 0.0 0.0
0.0 0.0 0.0 0.0 0.0 0.0 0.0 0.0
0.0 0.0 0.0 0.0 0.0 0.0 0.0 0.0
0.0 0.0 0.0 0.0 0.0 0.0 0.0 0.0
0.0 0.0 0.0 0.0 0.0 0.0 0.0 0.0
0.0 0.0 0.0 0.0 0.0 0.0 0.0 0.0
0.0 0.0 0.0 0.0 0.0 0.0 0.0 0.0

network_body._body_endoder.seq_layers.2.weight f4 [128, 128]
00000000: 261e 843b 89e5 083e 8345 123d 58ba 133d
00000010: 97dc 8cbb 08f5 8dbb 658d c83d b1f2 573e
00000020: 0131 c13d 9352 c83d 817f d5bd 4ea7 13be
00000030: 115a 843d e9f0 9839 02f7 e53d 82d2 f1bd
00000040: 4463 17bd c518 a4bb fde8 873d 54ee dcbd
00000050: 6644 673d 1c26 2ebd 6d17 653d dd78 c73c
00000060: 3fb0 b33c dd2b 323e 15dd 04bc 29fc 783d
00000070: 35fe d33c f24f 7b3e 807f a93c f615 c33d
00000080: 3568 333c 06d8 af3d e5f8 433d 158c 953d
00000090: 7219 46bd d3ea 10be db49 0f3d 4a06 0b3d
000000a0: bfd0 97bc e80f 433e 9327 2a3c ba46 19bd
000000b0: 0e37 0a3d 2492 3f3e dfc4 263d be1c 1bbe
000000c0: 0ce6 f1bc 7046 f83b a57e 77bd 2d6c 99bc
000000d0: a28b 4d3d 6c04 343b 5fcb 53bd ecc1 94bc
000000e0: ce03 10bd 3d55 9abd 4f58 dcbd fc31 803e
000000f0: 2502 74bd ca05 62bc 9676 93bd e2d4 c6bd
00000100: 8e4e 5cbc 8bb4 b63c 03d9 11be a1c3 5c3d
00000110: 3f47 053e fb68 9bbc 990e 13be 95a7 0bbd
00000120: c116 843e bbb0 03be 3ddc acbd 2fca 2dbd
00000130: 26c1 113e bfc9 b03c acc1 19bc 6596 793d
00000140: 72d3 0cbe c89a 3d3e 0d2c b8bc 4c3b abbd
00000150: 662f 29bd 9217 47bd 0961 9ebc 8750 26bc
00000160: c51e a03c f90c fb3d 31c9 7d3c bc17 6ebd
00000170: 3ec3 07be 40ba 58bd 3799 efbb 8316 bebd
00000180: e12c 33bc c12d e9bc 92fa cfbd 2e56 81bd
00000190: 7dbc 9e3d 0276 0f3e 5394 873c 999e 90bc
000001a0: 0421 c4bd 2816 fdbd e146 bebd 43f3 863d
000001b0: 3092 f3bd 416f 003e c919 99bd 6e7f 9b3d
000001c0: 3adc 6a3d 299c 013e 6f1b ee3c 8f62 0f3d
000001d0: 12e9 1a3d 29dd 8ebc d116 cf3d 9194 21bd
000001e0: dbb1 063e cb5f 083e 9b80 67bb 0308 a33b
000001f0: e4fd e2bd f458 17bc 4fb2 adbc 5185 1a3d
00000200: 6e17 893d c059 6fbd 83ab da3c f2db ad3c
00000210: 4ea4 ac3d 0edf b8bd bcb7 2dbe 69de 543d
00000220: 89f1 db3d efca b83c d10a 0a3e 319a c8bd
00000230: a74d 1d3c 72ee 07bd 9cf1 b93d c83c 88bd
00000240: 8173 7a3a 64e2 48bd 810f 153d 271e aebc
00000250: f294 373d 4ccb 08be b919 57bd 1017 923c
00000260: 8d88 d13d bc63 c2bd 14ba 7c3d 64c2 13bd
00000270: a1bf 7e3d c540 47be d36a 35bd c056 1c3e
00000280: 9aef 8d3b 4184 a73b 0931 d2bd 113e bf3d
00000290: 7534 303a 392e 04be e8c5 59be 5da6 5dbd
000002a0: cf50 edbc c4e1 f73c c732 3e3d fe91 d0bd
000002b0: 317b 933d f3c6 89bb 121e 223e fdd2 96bc
000002c0: 968e 01bd 8bd8 56be 9c78 0d3e 420f 01be
000002d0: f4d8 70bd aef8 6dbd ee35 09bd 37c4 15bc
000002e0: 04c0 d7bd 88ca 28be 0024 7cbd 285e 023d
000002f0: cb7a 2b3d d6d0 afbd 91c3 fa3d 73cd 583d
00000300: 23f3 efbc ef5b a13d b371 f3bc af27 f03d
00000310: 08b5 bfbc e5d5 5cbe 8569 e8bc 99ed 153e
00000320: 1df4 2f3e 2b2b e8bb 5acf 0abe 15f8 b6bb
00000330: ffb6 203e e9f4 c2bd 1a2a 093c fbc5 12be
00000340: 77c2 783c 7e8c 15be a248 4d3e 0f0d 873d
00000350: ea35 63bd 3e94 403e 8142 9f3d 4d7d 73bd
00000360: 33fa e1bc f767 163d cfdf 45bd 5e47 debb
00000370: 3dcc 4f3c 645a cf3d 3fb3 2e3d 0699 41bc
00000380: d194 0c3c 6be0 2ebd d048 d83d 6f71 073b
00000390: 16c6 89bd 0a51 823c 7469 fc3b cea8 b7bd
000003a0: a73f 22bd 7e1d d63c 55cd 9bbd 4263 0cbc
000003b0: 8610 81bd a61b a43c da15 bdbd d069 d1b8
000003c0: 1b3e c03d e36b 503d edfe 843d 098e c73c
000003d0: cb56 793d 4915 993d da34 013e d3aa 25be
000003e0: de45 523d dff0 67bd e189 6abd 3d70 d1bc
000003f0: fb59 05be ecfc 223d 03fa 983d 905f 21be
0.0040319143 0.1336881 0.035710823 0.036066383 -0.0042987573 -0.0043321885 0.09792594 0.21088673
0.09433175 0.09781375 -0.1042471 -0.1441929 0.06462491 0.0002917119 0.112287536 -0.11807729
-0.0369599 -0.0050078356 0.06636236 -0.10787645 0.056461714 -0.042516813 0.055930544 0.024349624
0.021934627 0.17399545 -0.008109351 0.060787354 0.025878051 0.24542215 0.02069068 0.09525673
0.010950138 0.08586125 0.047844786 0.07302109 -0.04836411 -0.14152078 0.034982543 0.033941545
-0.018532155 0.19049037 0.010385412 -0.037420966 0.03374391 0.18708092 0.040715095 -0.15147683
-0.02952864 0.007576756 -0.060423512 -0.01872834 0.050181992 0.0027468456 -0.05170762 -0.018158875
-0.03515988 -0.07535789 -0.10759031 0.25038135 -0.059572358 -0.0137953255 -0.07200353 -0.09708573
-0.013446463 0.022302886 -0.1424294 0.053897504 0.1301546 -0.018970957 -0.14361037 -0.034095366
0.2579861 -0.12860386 -0.084404446 -0.042429145 0.14233837 0.021580575 -0.009384554 0.060934443
-0.13752535 0.18516076 -0.022481943 -0.08360919 -0.04130497 -0.048606463 -0.01933338 -0.010151035
0.019545922 0.12258334 0.015489862 -0.058128104 -0.13258073 -0.052911997 -0.007311966 -0.092816375
-0.010935993 -0.0284642 -0.10155214 -0.063152656 0.07750795 0.1400986 0.016550219 -0.01765375
-0.0957661 -0.123577416 -0.09290863 0.06589367 -0.118931174 0.1254244 -0.07475621 0.07592665
0.05733893 0.12657227 0.029065816 0.035006102 0.03781993 -0.017439442 0.10111774 -0.039448325
0.13153784 0.13317792 -0.0035324458 0.0049753203 -0.11083582 -0.009237517 -0.021203188 0.037724797
0.06693922 -0.0584352 0.026693111 0.021223042 0.08429776 -0.09026919 -0.1696462 0.05196992
0.107394286 0.022557704 0.13480689 -0.09795035 0.009601033 -0.033186384 0.090792865 -0.06652218
0.00095539546 -0.049044028 0.03639174 -0.021254612 0.04481978 -0.13358802 -0.052514765 0.017833263
0.10231123 -0.09491679 0.061700895 -0.036074057 0.06219447 -0.19458301 -0.04429133 0.15267467
0.0043315412 0.0051122014 -0.10263259 0.0933801 0.0006721684 -0.12908258 -0.21266901 -0.054113735
-0.028969197 0.03025902 0.046435144 -0.10184096 0.07201231 -0.004204625 0.15831783 -0.018411154
-0.03163012 -0.20981042 0.1381554 -0.12603477 -0.058800653 -0.058098488 -0.033498697 -0.00914102
-0.10534671 -0.1648351 -0.06155777 0.031828076 0.04186515 -0.08584754 0.122443326 0.052930307
-0.029290741 0.07878863 -0.029717302 0.11726319 -0.023401752 -0.2156597 -0.028370628 0.14641418
0.17182966 -0.007085224 -0.13555661 -0.005583773 0.15694807 -0.09519369 0.008371854 -0.14333336
0.015183083 -0.14604375 0.20047238 0.065942876 -0.05547134 0.1880655 0.077763565 -0.059445668
-0.027585125 0.036720242 -0.048309144 -0.00678341 0.012682972 0.101246625 0.04265141 -0.011816269
0.0085804025 -0.04269449 0.10560763 0.0020666977 -0.06727235 0.015907783 0.0077030007 -0.08967744
-0.039611485 0.02613711 -0.07607523 -0.008568587 -0.0630198 0.020032715 -0.092326835 -9.985606e-05
0.09386846 0.05088414 0.06493936 0.02435972 0.060873788 0.07474763 0.12617818 -0.16178446
0.05133616 -0.056626197 -0.057260398 -0.025566215 -0.13022606 0.039791986 0.07469561 -0.1575911

network_body._body_endoder.seq_layers.2.bias f4 [128]
00000000: 0000 0000 0000 0000 0000 0000 0000 0000
00000010: 0000 0000 0000 0000 0000 0000 0000 0000
00000020: 0000 0000 0000 0000 0000 0000 0000 0000
00000030: 0000 0000 0000 0000 0000 0000 0000 0000
00000040: 0000 0000 0000 0000 0000 0000 0000 0000
00000050: 0000 0000 0000 0000 0000 0000 0000 0000
00000060: 0000 0000 0000 0000 0000 0000 0000 0000
00000070: 0000 0000 0000 0000 0000 0000 0000 0000
00000080: 0000 0000 0000 0000 0000 0000 0000 0000
00000090: 0000 0000 0000 0000 0000 0000 0000 0000
000000a0: 0000 0000 0000 0000 0000 0000 0000 0000
000000b0: 0000 0000 0000 0000 0000 0000 0000 0000
000000c0: 0000 0000 0000 0000 0000 0000 0000 0000
000000d0: 0000 0000 0000 0000 0000 0000 0000 0000
000000e0: 0000 0000 0000 0000 0000 0000 0000 0000
000000f0: 0000 0000 0000 0000 0000 0000 0000 0000
00000100: 0000 0000 0000 0000 0000 0000 0000 0000
00000110: 0000 0000 0000 0000 0000 0000 0000 0000
00000120: 0000 0000 0000 0000 0000 0000 0000 0000
00000130: 0000 0000 0000 0000 0000 0000 0000 0000
00000140: 0000 0000 0000 0000 0000 0000 0000 0000
00000150: 0000 0000 0000 0000 0000 0000 0000 0000
00000160: 0000 0000 0000 0000 0000 0000 0000 0000
00000170: 0000 0000 0000 0000 0000 0000 0000 0000
00000180: 0000 0000 0000 0000 0000 0000 0000 0000
00000190: 0000 0000 0000 0000 0000 0000 0000 0000
000001a0: 0000 0000 0000 0000 0000 0000 0000 0000
000001b0: 0000 0000 0000 0000 0000 0000 0000 0000
000001c0: 0000 0000 0000 0000 0000 0000 0000 0000
000001d0: 0000 0000 0000 0000 0000 0000 0000 0000
000001e0: 0000 0000 0000 0000 0000 0000 0000 0000
000001f0: 0000 0000 0000 0000 0000 0000 0000 0000
0.0 0.0 0.0 0.0 0.0 0.0 0.0 0.0
0.0 0.0 0.0 0.0 0.0 0.0 0.0 0.0
0.0 0.0 0.0 0.0 0.0 0.0 0.0 0.0
0.0 0.0 0.0 0.0 0.0 0.0 0.0 0.0
0.0 0.0 0.0 0.0 0.0 0.0 0.0 0.0
0.0 0.0 0.0 0.0 0.0 0.0 0.0 0.0
0.0 0.0 0.0 0.0 0.0 0.0 0.0 0.0
0.0 0.0 0.0 0.0 0.0 0.0 0.0 0.0
0.0 0.0 0.0 0.0 0.0 0.0 0.0 0.0
0.0 0.0 0.0 0.0 0.0 0.0 0.0 0.0
0.0 0.0 0.0 0.0 0.0 0.0 0.0 0.0
0.0 0.0 0.0 0.0 0.0 0.0 0.0 0.0
0.0 0.0 0.0 0.0 0.0 0.0 0.0 0.0
0.0 0.0 0.0 0.0 0.0 0.0 0.0 0.0
0.0 0.0 0.0 0.0 0.0 0.0 0.0 0.0
0.0 0.0 0.0 0.0 0.0 0.0 0.0 0.0

action_model._discrete_distribution.branches.0.weight f4 [2, 128]
00000000: 38ff 823b 447d bd3b 114b 8b3c 887f 3f3c
00000010: 9f65 56bc e533 3839 9450 943b 5357 00bb
00000020: 64d3 1f3b aa6a cd3a b3f6 10bc 7ef7 32bc
00000030: 12a8 6e3b 2f27 003c 854a 683b aba3 31bc
00000040: 1284 a1bc 5e96 44b9 1324 873b 7eb4 9e3c
00000050: e065 32bc a55e 5b3c 837b ac3b 7fd9 0e3c
00000060: 33ac 93bc 7758 84bb 2772 3fbc 47b6 243a
00000070: dcad 14bc ff97 ba3b bf69 2dbc bbca 15bc
00000080: 2c07 1f3c 56de 913b 896e 15bc c9c7 b83b
00000090: e377 96bc 83fd e53b 03b6 d13b 481e 053c
000000a0: 6e48 23bc fd9f f73a b7ac 65ba 07fa fdbb
000000b0: eff9 db3b 767f 203b 6780 63bc c7e3 763c
000000c0: 05c7 923c bc7d 1dbc 2493 88bb 5209 35bc
000000d0: 32b7 583b a488 be3b 0c09 45bb 2380 ad3a
000000e0: 9c0c 05bc 4e23 c33b 272c dd3b a31a 8abc
000000f0: 519f 8bbc 5fc4 34bb 497e 3cbc 2b84 6a3b
00000100: 274b 513b c906 afbc 57ea e53b abdc 2d3c
00000110: b731 e5bb a909 bd3b 5345 0a3c 4bd8 03bc
00000120: 4194 413a 8e93 88bb 3d30 063c a7a0 c5bb
00000130: 7dac c03b fb04 fbba 58c8 6f3c 2b3e 823b
00000140: ec67 31bb 59ea 26bc b026 203c c328 713a
00000150: 0abb e83b f8a9 c7bc 63fe 063a fc69 42bb
00000160: 6d87 ba3b 28b5 753c 666b 32bc 7b1c 5b3c
00000170: abe6 993b f05f 7cbc be63 2c3c a33e 093c
00000180: ea28 13bc f7ea b53b f11a 813a 6f42 0e3b
00000190: 673d 2abc bcd2 023c 1542 a8bb 03f8 26bc
000001a0: 8a19 593b 007f 12bc b8d6 e739 636c 89bb
000001b0: fbe7 87bb af63 fb3b 1bfa 89bb 1f2b c6bb
000001c0: a748 153c 6b8c bdbc 2b61 ed3a 3f7a 28bc
000001d0: e01b dbbb 3889 5c3c 4754 453b d2a3 703b
000001e0: b2f5 eabb baa7 8cbb 7140 013a 9b83 2dbc
000001f0: f1f9 bd3a 05a6 0d3c 1e31 413b cc9e ad3a
00000200: db93 99bb 3732 8bbc 54fc 923a bd19 8abb
00000210: 4045 5fbc f150 9c3b c1c6 0d3b 4884 733c
00000220: e29e 4cba 0319 6ebb 85d0 e13b 774a a8bb
00000230: 8bce 093b 805e 06bc ecb3 983b d7aa bfba
00000240: 31b4 233c 32f6 5f3c 8f7f 5ebb 1d4d bc3b
00000250: 7328 8bbb a077 883b c529 35bc ad5c 8cbc
00000260: ec0d 09bc bfd2 09bc 17c7 82bb 03d4 f839
00000270: df3f 87bc 23fa 5b3a 1f13 0ebc a2cb 5a3b
00000280: 3bce 2a3c 272e 1ebc fbb6 57bb 454a e1bb
00000290: 7764 65ba db38 40bb 0703 a33c 03b4 0a3b
000002a0: a81f 7a3a e4a2 85bc 0510 de3b fe91 89bc
000002b0: 057d 0c3c c673 803a 5d68 a83b e56e 513c
000002c0: f6fb 3ebc c5af 39bc f5d3 bdbb 9828 663b
000002d0: 1d62 32bb 4f25 433b 23f8 10bc 5b5c f13b
000002e0: b131 073b 6bf6 443a 4059 823c 8873 53bc
000002f0: 3390 ca3c 7e64 413c 423f 51ba a2ce 93bc
00000300: 082b cfba 9b01 323c 6b4a 93bb c0b1 7bbc
00000310: 4ad7 e5b9 2fd7 88bb 9ff7 eebb 692d a33b
00000320: d7f0 8b3b eeba 0a3b 4a3c 173a fd65 233c
00000330: f3e6 7c3a 98a1 d53b 19ff 963c 4d86 08bc
00000340: 5f01 1bbb 43bc b63b 7513 093c 4d66 4dbb
00000350: 531b 993b 1bf9 13bc b80b d03a 4e90 1abc
00000360: 7a6f ca3b 5c9a 35bb 85b5 bfbb db7d ed3b
00000370: e315 413c 2559 59bb aafb 7a3c 99a6 3c3c
00000380: 17ff 5dbc a583 53bc bd44 d8bb 5629 023b
00000390: a4cd beba e0b5 923b cde9 2abc 8365 403c
000003a0: ef13 13bc fa44 d03b 1298 90bc 2723 b9bc
000003b0: 0f7e 83bb 72a0 56bb 5325 593c d255 803c
000003c0: 185c 3ebb 49c2 233c 2309 e83b b53e 8dbc
000003d0: 8300 c6ba d7be 893a bbb6 1cbc dcbd c33a
000003e0: 595d b6bb 30db 033c 42b3 f0ba 5a87 e5bb
000003f0: 993a 36bc f366 85bc 47fa debb db39 dcbc
0.0039977096 0.005782755 0.017003568 0.011688121 -0.013085752 0.0001756694 0.004526207 -0.00195833
0.0024387473 0.0015672047 -0.00884788 -0.010923265 0.0036416096 0.007821842 0.0035444808 -0.010842244
-0.019716296 -0.00018748033 0.0041241734 0.019373175 -0.010888547 0.013389264 0.005263747 0.008718847
-0.018026447 -0.004038866 -0.011684931 0.0006283265 -0.009074654 0.005694389 -0.010584294 -0.009142573
0.0097063 0.0044515533 -0.009120592 0.0056390506 -0.018367713 0.0070187463 0.0063998713 0.008124895
-0.009965999 0.0018892285 -0.0008761393 -0.007750753 0.006713144 0.0024490035 -0.013885594 0.015068955
0.017917166 -0.009612497 -0.004167931 -0.011049585 0.0033068177 0.0058146287 -0.0030065207 0.001323704
-0.008120682 0.0059551364 0.006749648 -0.016858405 -0.017043741 -0.0027582867 -0.011504718 0.0035784345
0.0031935663 -0.02136554 0.007016461 0.010611693 -0.006994452 0.005768974 0.00843938 -0.008047174
0.0007384457 -0.0041679805 0.008190212 -0.006031114 0.005879937 -0.0019151265 0.014635168 0.003974696
-0.002707 -0.010187709 0.009774849 0.00091994944 0.007102375 -0.02437304 0.0005149601 -0.0029665222
0.0056924135 0.014996804 -0.010889864 0.0133734895 0.004696687 -0.015403733 0.010521827 0.00837675
-0.008981923 0.0055516916 0.0009849948 0.0021707078 -0.010390616 0.007984813 -0.0051348307 -0.010190967
0.0033126795 -0.008941412 0.0004421973 -0.004193829 -0.0041475273 0.0076717953 -0.004210723 -0.006047621
0.00911156 -0.023138246 0.0018110623 -0.010283052 -0.0066866726 0.01346045 0.0030110048 0.0036718738
-0.0071704024 -0.0042924555 0.0004930562 -0.010590459 0.0014494044 0.008645539 0.002947874 0.0013246178
-0.004686815 -0.016991718 0.0011214116 -0.004214494 -0.01362735 0.004770391 0.002163336 0.014863081
-0.0007805658 -0.0036330826 0.0068913125 -0.00513583 0.002102765 -0.0082012415 0.0046601202 -0.0014623058
0.009991691 0.013669537 -0.0033950543 0.0057464973 -0.0042467653 0.004164651 -0.011057322 -0.017134035
-0.008365136 -0.008412062 -0.0039910185 0.00047460207 -0.016509948 0.000839146 -0.008671551 0.0033385535
0.010425146 -0.009654558 -0.0032915461 -0.0068753087 -0.0008750627 -0.0029330764 0.019898904 0.0021164424
0.00095414603 -0.016313024 0.006776812 -0.016793247 0.008574729 0.0009800128 0.005139394 0.012782787
-0.011656752 -0.011333411 -0.0057930895 0.003511941 -0.0027219125 0.0029776876 -0.008848223 0.007365746
0.0020628984 0.0007513526 0.015911698 -0.012905963 0.024726963 0.011803744 -0.00079821434 -0.018042866
-0.0015805671 0.010864641 -0.0044949553 -0.015362203 -0.00043838687 -0.0041760425 -0.0072927023 0.0049797785
0.0042706537 0.0021168548 0.00057691766 0.009973046 0.0009647451 0.0065195076 0.018432187 -0.008332801
-0.002365194 0.0055766418 0.008366455 -0.0031341494 0.0046724468 -0.009031559 0.0015872633 -0.009433819
0.00617784 -0.0027710414 -0.0058504962 0.007247669 0.011785003 -0.0033164707 0.01531879 0.011514329
-0.013549588 -0.0129098045 -0.006599991 0.0019861064 -0.0014557135 0.0044772476 -0.010431719 0.011742952
-0.0089769205 0.006355879 -0.017650638 -0.02259977 -0.00401283 -0.0032749441 0.013253528 0.015665922
-0.0029046591 0.009995052 0.0070811673 -0.017241815 -0.0015106354 0.0010509145 -0.009565051 0.0014933902
-0.005565327 0.008047864 -0.001836397 -0.0070046606 -0.011122369 -0.016284442 -0.0068047377 -0.026883056

action_model._discrete_distribution.branches.0.bias f4 [2]
00000000: 0000 0000 0000 0000
0.0 0.0

action_model._discrete_distribution.branches.1.weight f4 [3, 128]
00000000: ad21 4ebc 736b d7bb 0bee 01bc e46e babb
00000010: f9cb 15bc 53b1 363c dab9 d13b 3b1f 10bc
00000020: 59fb 29bb bf88 8fbc 0af4 d5ba b3eb fe39
00000030: ba2c ebbb 10a8 6cbb 736f 0bba bd77 083c
00000040: 235b ef3a 9ba8 903a 9b30 f43b 5740 32bb
00000050: cb9c 2d3c 5138 c73b 3ad3 febb 0051 dc3b
00000060: f113 1f3c eaf5 d93a a033 17bb ad7b 4cbb
00000070: 1b27 3abc 97f1 223b 48e2 403c a371 2cbc
00000080: ff5f 2d3c b8c3 563b b1a6 813a 81b1 3cbb
00000090: 3010 0f3c e97c 22bc 3033 9d3b 70b9 503c
000000a0: 12b2 d8b9 0478 b33b 57b9 813c 2a03 96bb
000000b0: f99b 1e3c e6e3 32bb 7be7 363c 6583 163c
000000c0: 5590 d4bb 97a2 df3a 9a4b 0fbc cce6 973c
000000d0: 6537 7b3b 34bb 87bb 1a71 683c 570d b0bb
000000e0: ea3c e3bb 64a7 1e3b e602 87bb bffb e33b
000000f0: 5f65 b43b 6777 40bc 97f2 24bc 953a 5cbb
00000100: 2886 e23b 2c94 4c3b e410 9abb c4d8 26bc
00000110: 02cf 94bb 583b f33a 9f9d d6bb 3b07 0bbb
00000120: d8fc 5fbc 7f58 98bc 30a0 bfbb bc97 cb3b
00000130: 4db0 f7bb f199 14bc 782a fabb 0d8f e63b
00000140: e5f5 d3bb 2b4b 03bc a5d4 e33a b53b 013c
00000150: 05b8 e4bb 0dac d4bb 8884 be3a b313 793c
00000160: 0773 1a3b 785f 683b 5174 99bb 6f0d d13a
00000170: c259 213b 5f1d 5b3a 75a2 763c 2762 2a3c
00000180: 4bc1 54bc a2df c5bb 2cdb 94ba e3ac 5c3b
00000190: 487d 06bc ab5b 1abb df0a f9ba cbed 36bb
000001a0: 723c 2cbc 77b3 5cbb ae63 9b3b 41d5 953b
000001b0: 6581 803c 51d6 c4bb d806 0d3c 7ec2 9a3a
000001c0: 5bd8 1b3b 7304 8e3b 9369 17bc d313 bf3a
000001d0: 0674 903a 2308 383b 45e6 253c 94f8 103c
000001e0: c293 093c 2792 94ba 1c63 15bc 217f 87bb
000001f0: 751a 563b 6638 333c af78 87ba 53e3 e93a
00000200: 99ac ba3b 2524 723c 5cb5 ca3b 42d2 86bb
00000210: 8521 b83b 9429 863b 5bda e1bb d7c7 d1ba
00000220: b780 d5bc db17 53b9 7752 51bc 3b8b d6ba
00000230: a618 483c 6050 e2bb 43be 17bc 5807 55bc
00000240: 0072 d1bb aae7 2fbc 2b7a 4d3c c57c d43a
00000250: b1a5 273c 9d24 59bc c603 a2ba e636 b43b
00000260: 3067 2fba 1d9c a7bc f5a0 6a3a 654e 5e3c
00000270: 91f8 0ebc 4131 adbb 8ee6 1a3a aff0 babb
00000280: b759 8cbb 0b2a 653c fbdb 19bc abc7 bcbb
00000290: fc63 843a 9d66 db3b 6974 08ba b56b bebb
000002a0: 032c 3abc 2a93 efbb 80b3 1abc bf73 4b3c
000002b0: 0bc7 0fbc 7c77 153b ffd5 aa3c 2b06 94bb
000002c0: a05a 0dbc 419d 973b 4142 233c 1f73 c03a
000002d0: 0f5e 093b a34e 1cba 25ea 27ba 5885 7abb
000002e0: 231c 7c3c 9e06 a53b c7a2 40bc 6810 dbbb
000002f0: c911 b9ba 7aa0 1e3c b0ca f2bb 8d52 f2bb
00000300: d8ac ee3a 8bab 993c 63d3 9bbc a50d 82bb
00000310: f478 04bc c380 8dbb 719f 22bc 5c91 003b
00000320: eb06 843b bbd6 c0bb d40f a2bb be3f a4bc
00000330: 0e49 833b 4c9b baba e226 353b 0801 2f3b
00000340: 8217 e4bb 303a 9d3b 885e 25bc 310d 3cbb
00000350: 9748 42bb e91d 92bb a839 3d3c 6bc6 acba
00000360: eaa5 473b f9c5 23b6 aa7f d43a b747 a2ba
00000370: 410d 373b 7132 b9bb 22d8 e83b 9f25 ae39
00000380: c00d c83b 7b6d dd3b 42b1 febb 830d 263c
00000390: 2799 98bb 4baf 0c3c 8050 153c c305 89bc
000003a0: 8351 7cbb 5ba7 81bb 4336 bebb 3a30 ab3b
000003b0: ab76 03bc ffe1 533b 1933 c0bb c346 093c
000003c0: 3bf1 16bc afc6 a9bb bbaf cbbb a7f1 b33b
000003d0: 08bc cd3b 99d0 8b3c 32c3 413b 3a9b 5b3c
000003e0: f348 e03b c1ed acbc 57bf 46bc 93a1 9b3b
000003f0: 03b5 143c 822f 9e3a 76d5 2e3c 69ae ac3a
-0.012581271 -0.0065740882 -0.007930289 -0.0056894887 -0.009142869 0.011150676 0.006400329 -0.008796508
-0.0025937168 -0.01752126 -0.001632334 0.00048622265 -0.0071769627 -0.0036110915 -0.00053190364 0.008329329
0.0018261414 0.0011036576 0.0074520833 -0.0027198994 0.010596464 0.0060797115 -0.007776645 0.006723523
0.009709344 0.0016629074 -0.0023071542 -0.0031201646 -0.0113618625 0.0024863237 0.0117727 -0.01052514
0.010581969 0.0032770466 0.0009891597 -0.0028792324 0.008731887 -0.009917476 0.004797362 0.012739524
-0.00041331403 0.0054769535 0.015835447 -0.004578014 0.0096807415 -0.0027296483 0.011163588 0.0091866
-0.0064869323 0.0017062005 -0.008746052 0.01854267 0.0038332578 -0.0041421894 0.014187122 -0.005372684
-0.0069347518 0.002420866 -0.0041202186 0.0069575007 0.0055052484 -0.011747218 -0.010067604 -0.0033604254
0.0069129653 0.0031216247 -0.0047017206 -0.010183517 -0.004541279 0.0018557115 -0.0065495516 -0.0021214026
-0.0136711225 -0.018596886 -0.0058479533 0.0062131565 -0.0075588585 -0.009069906 -0.007634457 0.007036096
-0.006468522 -0.008013527 0.0017382099 0.00788777 -0.0069799447 -0.0064902366 0.0014535347 0.015202451
0.0023567097 0.0035457294 -0.0046830554 0.0015949438 0.002462015 0.00083585636 0.015053381 0.010399378
-0.012985538 -0.006038622 -0.0011356822 0.0033672384 -0.00820858 -0.0023553174 -0.0019000432 -0.0027912732
-0.010512458 -0.0033676305 0.0047421074 0.004572541 0.0156867 -0.006006994 0.008607589 0.0011807231
0.002378008 0.0043340265 -0.009241479 0.0014578052 0.0011020906 0.0028081022 0.010125701 0.008848328
0.008397045 -0.0011335061 -0.009117868 -0.004135028 0.0032669578 0.010938739 -0.0010335649 0.0017844237
0.005696845 0.014779125 0.0061861705 -0.00411442 0.00561923 0.004094312 -0.006892485 -0.0016004991
-0.026062353 -0.00020131415 -0.012776009 -0.0016368398 0.012212908 -0.006906554 -0.0092616705 -0.013002239
-0.0063917637 -0.010736385 0.012541334 0.0016211501 0.010232375 -0.013253358 -0.0012360744 0.0054997085
-0.00066910964 -0.020460183 0.0008950376 0.013568495 -0.008726255 -0.0052854125 0.0005908989 -0.0057049613
-0.004283156 0.013987075 -0.009390826 -0.005761107 0.0010100598 0.006695582 -0.0005205335 -0.0058111795
-0.011363032 -0.0073112445 -0.00944221 0.012417733 -0.008775483 0.0022806814 0.020853994 -0.004517337
-0.008627564 0.0046269004 0.009964527 0.0014682746 0.0020960604 -0.00059626455 -0.00064054347 -0.0038226452
0.015387568 0.005036189 -0.011757559 -0.0066853054 -0.001411968 0.009681815 -0.007409416 -0.0073950947
0.001820947 0.018758556 -0.019021695 -0.0039689117 -0.008085478 -0.004318328 -0.009925709 0.001961789
0.004029145 -0.005884973 -0.0049457345 -0.020049926 0.0040065115 -0.0014236956 0.0027641584 0.0026703496
-0.00696081 0.0047981963 -0.010093339 -0.0028694386 -0.0029645318 -0.004459132 0.011549391 -0.0013181692
0.0030463883 -2.4404128e-06 0.0016212363 -0.0012380992 0.0027931484 -0.005651765 0.007105843 0.00033215896
0.0061051548 0.006757436 -0.0077725956 0.010135057 -0.004656929 0.008586715 0.009113431 -0.01672638
-0.0038500733 -0.003956718 -0.0058048083 0.005224255 -0.008023898 0.003233075 -0.0058654663 0.008378687
-0.009212787 -0.0051811556 -0.006216017 0.0054914537 0.0062785186 0.01706724 0.0029565808 0.013403708
0.0068446337 -0.021109464 -0.01213058 0.0047494858 0.00907636 0.0012068602 0.01067101 0.0013174537

action_model._discrete_distribution.branches.1.bias f4 [3]
00000000: 0000 0000 0000 0000 0000 0000
0.0 0.0 0.0

network_body._body_endoder.seq_layers.0.weight f4 [128, 5]
00000000: 4cc8 cdbe be61 0ebf 7221 9d3e 4f41 85bd
00000010: 8766 a9be 297b 3c3f 8d14 d33e 3263 32be
00000020: a64d f53e 9c0d f2be ec58 6f3e 28e8 05bf
00000030: 0b01 4f3e 6d04 8a3d 4d1a 18bf 6a61 c43d
00000040: d52b ab3e 6530 203f f3be 0dbe adb7 12be
00000050: 66f9 b7be b691 843e 9af3 03bf 31c3 c23e
00000060: 08b9 a9be fa39 373f 6f7b 66bd 0b5b eabe
00000070: 215d b53e 4cfd 65bd 18cc f23e 2542 213f
00000080: 9f7e 08bf d1df 963e 8874 83bd f477 8abd
00000090: e02e 5abe 0886 01be 03cc 54be 0a87 00bf
000000a0: f5a7 6abe 9ad7 3cbd 5b0d 663d 7440 043e
000000b0: 24a5 c33e 1741 f83c 8bbd af3e 98df dfbe
000000c0: 025e 1b3f 86b9 3e3e 8063 0fbe 5ed3 303e
000000d0: b4c1 643e e6f7 51be c1a5 0abf 1512 803e
000000e0: f8c1 373e 546b 47be 6904 8dbe 441e ed3e
000000f0: 26a7 933d 7fb1 003d 7565 51be 88f8 07bf
00000100: b41a a33e 6c50 a63e d16d 2cbe e191 663a
00000110: 8c16 343f 404c a93e c270 c4be 6bb3 7dbe
00000120: 7fb0 653e 16d3 503f 025d 693e 464b 7dbe
00000130: f94f 88be c924 a8bc 6c98 83be 26f6 1dbf
00000140: 6951 d43d 3b70 cc3d dc6b c13e 0ab6 a03e
00000150: 53c7 183f bd46 93be 4a9f 60bf f15f 553e
00000160: 1517 f53d c381 0f3f e72e b0bb ad62 debe
00000170: b4af 803e 9dea 55be 0bcc a63d 319d 0cbf
00000180: 005b 0abe 1d28 6c3e 6a71 3dbe e5b0 fd3d
00000190: 839f 613c c5da 3b3e b456 4f3f 2e46 663e
000001a0: a6e6 3abf 74a3 abbe 8713 813f c8ca 88be
000001b0: 9d58 363f 9bed 1b3e 13d6 153e e84f 0abf
000001c0: d24b 293f ee4b 02bf ddf0 673e 8c9d d73e
000001d0: ad79 1bbe f4bd 603e e5d8 9b3f affe 06bf
000001e0: 4e65 493e 0872 d23d 0dc6 0e3e 748d ee3e
000001f0: 6cd8 b03d 5889 d03d bc89 9c3c c0da 9d3e
00000200: 1aba 70be 62b2 063f 5ce2 93bd b20c 54be
00000210: c67a 5a3e 693b 9f3f abb2 1fbe 2fbf 9dbe
00000220: ae4b 11bf beb2 033f 8620 2d3f c45d 7a3e
00000230: e9d3 17be 42e8 80be 695e d2bd 8940 7ebd
00000240: 38ba 84bd a5a8 b3bd a5ee 0fbf 86a2 0cbf
00000250: d122 7e3f 2637 f23c 63e1 bcbe dbd6 29be
00000260: 3789 19bf d53a 35be 25d9 c73d 8a0e 4e3f
00000270: e911 f2be 4cb0 af3d c8d4 7fbe 8477 5cbe
00000280: ca1e 9abd db3a 4c3f 6a11 c83d 24cb 3fbf
00000290: 54ff d7bc 849e 743f 0474 90be e9e5 1cbf
000002a0: 983f b73e 53ee 723d 0cb8 293f 5ac5 a6bd
000002b0: 78ee b43d 897a 2b3f 6da4 133f 4256 383e
000002c0: efc1 05bf 699c 32be 0e2c efbe e7bc 173f
000002d0: 32ce 87be 43a2 88bd 7bf0 883e aaa5 643f
000002e0: fbb3 c93e 1281 b23e 6bce 9e3e b95d 8fbe
000002f0: 1e89 31be 4da6 4dbe b1b5 36bf 8c73 a43e
00000300: 4fba 34be 97b6 5e3d b3da c73d cbbf 493e
00000310: c85d 65be ff16 26bf b341 cfbc ef5c 1e3f
00000320: 0526 26be c85e 8cbe 3c05 44bf 7a1e 0ebf
00000330: e9d3 89ba 36a4 b33e 65ee d23e d708 153e
00000340: 1654 5f3d e551 143f 0576 87be 3397 c9be
00000350: 6928 d8be fa8f 67bf 161b 72bd d2d1 dbbd
00000360: 5a97 0bbe 8ab2 37bf dc1a 973e e211 8bbe
00000370: 9683 653f fa67 2e3e d29c 60bf d4fb 30bd
00000380: a934 303e 7ded 063f 79d0 2e3f a64a 1fbe
00000390: 9ca2 703e cb6f d0bd 92b3 07be a8b3 6a3e
000003a0: f197 c63c 0d15 d3be af43 293d 7868 3d3f
000003b0: 5a10 d23c 460e 51bf 0bfa 3ebe f621 b2be
000003c0: 5ae3 61bd 0c33 273f 9ded 1ebe d383 83bd
000003d0: f7bc 22bd b961 303f efda 5dbe 829d e03c
000003e0: 4f0f 86bf de87 48bf 1691 31bf 0bd2 ff3e
000003f0: 9eff 80bc a6cb 9d3e 8589 94bf 8df6 7e3e
-0.40191877 -0.5561789 0.3068958 -0.06506597 -0.33086035 0.7362543 0.41226617 -0.17420653
0.47910804 -0.47276008 0.23373765 -0.5230737 0.20215242 0.067391254 -0.5941513 0.09588893
0.3343188 0.62573844 -0.13842373 -0.14327879 -0.35932463 0.2589242 -0.5154358 0.38039544
-0.3314898 0.7157284 -0.05627006 -0.45772585 0.35422614 -0.056149766 0.47421336 0.62991554
-0.5331821 0.29467633 -0.06418711 -0.067611605 -0.21306944 -0.12648785 -0.2078095 -0.50206053
-0.22915633 -0.04610405 0.05616508 0.12915212 0.3821193 0.030304475 0.34324297 -0.43725276
0.6069032 0.18625459 -0.140028 0.1726813 0.22339517 -0.20504722 -0.5415917 0.25013795
0.17945087 -0.19474536 -0.27542427 0.46312153 0.072096154 0.031419273 -0.20448859 -0.53113604
0.3185631 0.32483232 -0.16838767 0.00087955414 0.70346904 0.33065987 -0.38367277 -0.24775474
0.22430609 0.8157209 0.22789386 -0.24735746 -0.26623514 -0.020525353 -0.25702226 -0.6170372
0.1036709 0.09982344 0.37777603 0.31388885 0.59679145 -0.28764907 -0.87743056 0.2083738
0.11967293 0.56057376 -0.005376685 -0.4343466 0.2513405 -0.20890279 0.08144387 -0.54927355
-0.13511276 0.23062177 -0.18500295 0.123872556 0.013770941 0.18345173 0.80991673 0.22487709
-0.7300819 -0.33523142 1.0084084 -0.2671721 0.71228963 0.15227358 0.14632444 -0.5402818
0.6613132 -0.5089711 0.22650476 0.42112386 -0.15183134 0.21947461 1.2175566 -0.52732366
0.19667551 0.10275656 0.13942738 0.46592295 0.08635029 0.10182446 0.019108646 0.30830956
-0.23508492 0.5261594 -0.07220909 -0.20707968 0.21335897 1.2440006 -0.155955 -0.30809924
-0.56756103 0.51444614 0.6762775 0.24449831 -0.14826931 -0.251772 -0.102719136 -0.062073264
-0.06480831 -0.08772401 -0.5622352 -0.5493549 0.99271876 0.029567312 -0.36890706 -0.16585867
-0.59975 -0.17698224 0.09758214 0.80490935 -0.4727929 0.08578548 -0.24983513 -0.21529967
-0.07525404 0.79777306 0.097689465 -0.74919343 -0.026366867 0.95554376 -0.28213513 -0.61288315
0.35790706 0.059309315 0.6629646 -0.081431106 0.08834547 0.6698385 0.5767277 0.18001655
-0.52249044 -0.17442478 -0.467133 0.5927262 -0.26524502 -0.06671574 0.26745972 0.89315283
0.39395127 0.34864098 0.3101686 -0.28001192 -0.17337462 -0.2008297 -0.7137099 0.32119405
-0.17649196 0.05437335 0.097585104 0.1970207 -0.22399056 -0.6487884 -0.025299883 0.61860555
-0.16225441 -0.27416062 -0.7657049 -0.55515254 -0.0010515425 0.3508622 0.41197506 0.14554153
0.05452355 0.5793746 -0.2645723 -0.39373168 -0.4221833 -0.90454066 -0.059107862 -0.107333794
-0.13631955 -0.71756804 0.2951268 -0.2716208 0.8965391 0.17031851 -0.8773929 -0.043208912
0.17207588 0.5270613 0.68286854 -0.1555582 0.2349953 -0.10177573 -0.13252094 0.22920096
0.024242373 -0.41226998 0.041324314 0.7398753 0.025642563 -0.81662405 -0.18650071 -0.34791535
-0.05514846 0.65312266 -0.1552033 -0.06421628 -0.039730992 0.6889911 -0.21665548 0.027418856
-1.0473422 -0.78332317 -0.6936201 0.49964938 -0.015746888 0.30819434 -1.1604468 0.24898739

network_body._body_endoder.seq_layers.0.bias f4 [128]
00000000: 0000 0000 0000 0000 0000 0000 0000 0000
00000010: 0000 0000 0000 0000 0000 0000 0000 0000
00000020: 0000 0000 0000 0000 0000 0000 0000 0000
00000030: 0000 0000 0000 0000 0000 0000 0000 0000
00000040: 0000 0000 0000 0000 0000 0000 0000 0000
00000050: 0000 0000 0000 0000 0000 0000 0000 0000
00000060: 0000 0000 0000 0000 0000 0000 0000 0000
00000070: 0000 0000 0000 0000 0000 0000 0000 0000
00000080: 0000 0000 0000 0000 0000 0000 0000 0000
00000090: 0000 0000 0000 0000 0000 0000 0000 0000
000000a0: 0000 0000 0000 0000 0000 0000 0000 0000
000000b0: 0000 0000 0000 0000 0000 0000 0000 0000
000000c0: 0000 0000 0000 0000 0000 0000 0000 0000
000000d0: 0000 0000 0000 0000 0000 0000 0000 0000
000000e0: 0000 0000 0000 0000 0000 0000 0000 0000
000000f0: 0000 0000 0000 0000 0000 0000 0000 0000
00000100: 0000 0000 0000 0000 0000 0000 0000 0000
00000110: 0000 0000 0000 0000 0000 0000 0000 0000
00000120: 0000 0000 0000 0000 0000 0000 0000 0000
00000130: 0000 0000 0000 0000 0000 0000 0000 0000
00000140: 0000 0000 0000 0000 0000 0000 0000 0000
00000150: 0000 0000 0000 0000 0000 0000 0000 0000
00000160: 0000 0000 0000 0000 0000 0000 0000 0000
00000170: 0000 0000 0000 0000 0000 0000 0000 0000
00000180: 0000 0000 0000 0000 0000 0000 0000 0000
00000190: 0000 0000 0000 0000 0000 0000 0000 0000
000001a0: 0000 0000 0000 0000 0000 0000 0000 0000
000001b0: 0000 0000 0000 0000 0000 0000 0000 0000
000001c0: 0000 0000 0000 0000 0000 0000 0000 0000
000001d0: 0000 0000 0000 0000 0000 0000 0000 0000
000001e0: 0000 0000 0000 0000 0000 0000 0000 0000
000001f0: 0000 0000 0000 0000 0000 0000 0000 0000
0.0 0.0 0.0 0.0 0.0 0.0 0.0 0.0
0.0 0.0 0.0 0.0 0.0 0.0 0.0 0.0
0.0 0.0 0.0 0.0 0.0 0.0 0.0 0.0
0.0 0.0 0.0 0.0 0.0 0.0 0.0 0.0
0.0 0.0 0.0 0.0 0.0 0.0 0.0 0.0
0.0 0.0 0.0 0.0 0.0 0.0 0.0 0.0
0.0 0.0 0.0 0.0 0.0 0.0 0.0 0.0
0.0 0.0 0.0 0.0 0.0 0.0 0.0 0.0
0.0 0.0 0.0 0.0 0.0 0.0 0.0 0.0
0.0 0.0 0.0 0.0 0.0 0.0 0.0 0.0
0.0 0.0 0.0 0.0 0.0 0.0 0.0 0.0
0.0 0.0 0.0 0.0 0.0 0.0 0.0 0.0
0.0 0.0 0.0 0.0 0.0 0.0 0.0 0.0
0.0 0.0 0.0 0.0 0.0 0.0 0.0 0.0
0.0 0.0 0.0 0.0 0.0 0.0 0.0 0.0
0.0 0.0 0.0 0.0 0.0 0.0 0.0 0.0

network_body._body_endoder.seq_layers.2.weight f4 [128, 128]
00000000: cf3e 523d 47d7 6bbd 00c4 383d caee c3bd
00000010: 07ab 14bd 33e4 f8bc 8604 14bc 171a b3bd
00000020: 0c30 57bb f7ec 863d fa0d 65be dd5a c63a
00000030: ea81 a7bc a958 ff3c b0fc 583d 12fc 4abd
00000040: 3150 19be 0440 babc 923b d1bd f5d0 fabc
00000050: 9416 dc3c 0e5c 6b3d 63fe 16bd 6525 f63c
00000060: 2214 92bd 1e48 b33c 12f3 813d a098 1b3e
00000070: 35e9 f83c fec8 0a3d c0e9 f5bd 207f 843c
00000080: f378 603d 134b 9bbd 6b8c 9c3d c343 d33d
00000090: 3665 643d faee 853d 0f3a eebc f39d a93b
000000a0: 5b13 98bd d7bf a83d 63e2 eb3d 4ee4 e53d
000000b0: af33 6abc c958 133d 655a f5bd 1ae1 e83c
000000c0: 74b8 48be 7875 683c bd4a c8bc 30f6 17be
000000d0: 32ca 0f3e 4d8e 343d ec3e 12be 96d6 833d
000000e0: 1700 54bd 3ca6 dfbd e161 f23c 8ac2 c03c
000000f0: 8cdb 76bd 0eb3 2a3e def2 c83d ab03 f4bb
00000100: 6852 63ba bd9d a23c 74b5 89bd 5cec 6f3d
00000110: 9109 afbc 4582 a03d 5edb 40bd 8a93 2b3d
00000120: e56a 9f3d d02f 01bd 86a8 d13d 6383 22be
00000130: 96e3 d83d 20a3 753d dc43 c4ba c200 e0bd
00000140: 935d 233d f908 91bc 76f4 743e 00d5 cd3d
00000150: 9097 433c 12aa 9d3d f050 f7bc 7632 863c
00000160: 28b5 08be 0874 62bd a98e 0d3d 914b b6bc
00000170: c9e1 1cbe 49a5 773d 6c9a fc3d 8dad 1f3d
00000180: 4371 0c3c 80f1 973c cf0e 3f3c fa87 38bd
00000190: d71d d83d 562e b73d d9ab 8a3d 4f89 073e
000001a0: 7d4c ff3d 5163 56bd 2766 bd3d db7d 06be
000001b0: 29a8 893d 6478 64bb 37d7 87bd be12 ebbd
000001c0: 9468 ed39 a8fb 9d3d ee63 f43d 5890 1dbe
000001d0: 7f41 5e3d d733 a8ba 4d0b 1d3e f888 4f3e
000001e0: 8cce e03d 9062 5e3b 1428 4d3e 837e 62bd
000001f0: eb56 a3bd 5326 c2bd 4467 fa3d cf37 19bc
00000200: 8354 163d ed86 1abd 200a 56bc 16b1 45bd
00000210: 7542 9cbd 92bd c3bb c1de 76bd e47e 473d
00000220: 0a08 623c b7cb 80bd 1acd 00be a363 37bd
00000230: a458 583e 9946 febd bdf5 d23b e920 083e
00000240: 794c 263e 4093 b4bd eb8a dfbd caca 823d
00000250: 60f2 1bbe 6bb2 16be 9030 403e 8764 e63d
00000260: 2880 cbbc 6cd5 563d 8300 88bd 8238 4dbe
00000270: cbe3 b63b 1547 293c 8c2e 4c3e 6176 23bd
00000280: 7e00 223e 8792 41bd 168c 7cbd 4eb4 43bd
00000290: 3f49 88bc d82d 8bbc 6e6e 6b3d 754f 62bc
000002a0: 59f1 a03d 9683 94bd d378 e4bd 9b85 4dbd
000002b0: 0862 8abd 7ff0 14be 7d5e f83c 244b 33bd
000002c0: e205 32be 7c91 c73d 39ab a0bc 2618 c2bd
000002d0: cbc9 a53b 3ea9 07bb 7806 ca3c 62c6 19be
000002e0: 9a22 bf3d c13d 903d 4db2 bb3d f42e 4fbe
000002f0: 6c6f ea3d af15 0c3d cbc2 873c 989b 573d
00000300: 5ed3 acbd e267 b43a 87e1 043e b168 b4bd
00000310: 1887 c03d a054 99bc 882b 0c3c 9f31 2ebe
00000320: ac29 583d 425f 30bd 9ebc 9fbd 4661 d3bc
00000330: 0200 1c3d e105 a13d b02a acbd 34ad d33d
00000340: 4ce8 763d cb4e 313e 9f37 8abd 9c56 ed3c
00000350: d756 7d3c 7a30 b53d 2c24 0d3e b554 db3d
00000360: 03ee 56bd 843f 5cbb d856 e3bd 991c edbd
00000370: 174e a43c 9034 993d dbd6 8a3d bc62 46bc
00000380: 2e7a aebd ef9f b1bc a645 dc3d 3f15 80bd
00000390: 6b4b 8b3d 2d54 2f3d d3d3 9c3c 3cc8 e13d
000003a0: c83d aebb 9ced 27bd b0c4 623e 3740 cebb
000003b0: c9c7 ca3d f3b0 ebbd 1c48 d63d 40a5 233d
000003c0: 304d 3e3d 84ad 69bd 2295 213e 3983 233d
000003d0: 7912 383d 6e92 94bd 7d5a 1fbc 9b49 753d
000003e0: 12ad 88bd 4548 69bd f679 233b 4ab4 7e3d
000003f0: 7bc5 6abc 5c9e 733c 1a4a 9abc 6924 b7bb
0.05132943 -0.05757835 0.045108795 -0.0956703 -0.036295917 -0.030382251 -0.009034282 -0.087452106
-0.0032835035 0.06588166 -0.22368613 0.001513328 -0.02044769 0.031170206 0.052975357 -0.0495568
-0.14971997 -0.022735603 -0.1021644 -0.030617217 0.026866235 0.057460837 -0.036863696 0.030047128
-0.07132746 0.021884974 0.0634519 0.1519494 0.03038464 0.033883087 -0.12007475 0.0161739
0.054802846 -0.07582679 0.0764397 0.10315659 0.055760585 0.06539722 -0.029080419 0.0051762997
-0.07425567 0.082397155 0.11517789 0.11225186 -0.014294549 0.035973344 -0.11980132 0.02842765
-0.19601613 0.014188163 -0.0244497 -0.14840007 0.14041975 0.04408102 -0.14281815 0.064374134
-0.0517579 -0.109203786 0.029587688 0.023530263 -0.06026797 0.16669866 0.09811948 -0.0074467263
-0.0008671642 0.019850606 -0.067240626 0.05857502 -0.021366866 0.07837347 -0.047084205 0.04188875
0.077840604 -0.03153974 0.102372214 -0.15870433 0.105902836 0.05997002 -0.0014973837 -0.109376445
0.03988416 -0.017704474 0.2392138 0.10050392 0.011937991 0.07698454 -0.030189961 0.016381484
-0.13350356 -0.055286437 0.03455988 -0.02225283 -0.15320505 0.060460363 0.12334141 0.03898387
0.008571926 0.018547773 0.0116612455 -0.045051552 0.105525665 0.08944385 0.067710586 0.13235973
0.12465761 -0.05234081 0.09248 -0.13133948 0.06721527 -0.0034861797 -0.06632846 -0.11478184
0.0004528208 0.07714015 0.119331226 -0.15387094 0.05426168 -0.0012832832 0.15336342 0.20267093
0.10976896 0.003393326 0.2003482 -0.055296432 -0.07975563 -0.09479966 0.122267276 -0.009351685
0.03670169 -0.03772633 -0.013063937 -0.048264585 -0.07629863 -0.0059735263 -0.06027103 0.048704997
0.013795862 -0.062888555 -0.1257824 -0.044772755 0.21127564 -0.12415809 0.0064379857 0.13293804
0.1624011 -0.08817148 -0.109151684 0.06386335 -0.15229177 -0.14716499 0.18768525 0.11249643
-0.024841383 0.05244963 -0.066407226 -0.20041087 0.0055813543 0.010331889 0.19939631 -0.039907817
0.158205 -0.04725888 -0.061657034 -0.047779374 -0.016636489 -0.016989633 0.05747836 -0.013812889
0.078585334 -0.072516605 -0.11155858 -0.050176244 -0.06756979 -0.14544867 0.030318493 -0.04377283
-0.17385057 0.09744546 -0.019612895 -0.09477262 0.005059456 -0.0020700241 0.024661288 -0.15017083
0.093327716 0.070430286 0.091648676 -0.20232755 0.11447033 0.034200367 0.016572377 0.05263862
-0.084387526 0.001376387 0.12976657 -0.08809031 0.09400767 -0.01871711 0.0085553005 -0.17011116
0.052774116 -0.043059595 -0.07799648 -0.02580322 0.038085945 0.078624494 -0.084065795 0.1033577
0.06028013 0.17315213 -0.0674889 0.028971963 0.015462599 0.08847137 0.1378333 0.10709516
-0.05247308 -0.0033607194 -0.111005485 -0.1157772 0.020056767 0.074807286 0.06779262 -0.012108501
-0.08519398 -0.021682708 0.10755472 -0.06254052 0.06801494 0.042804886 0.019143974 0.1102452
-0.0053174235 -0.040998086 0.22145343 -0.006294276 0.09901387 -0.1150836 0.104629725 0.039952517
0.04646033 -0.057050243 0.15779546 0.039920066 0.044939492 -0.07254492 -0.009726164 0.05988465
-0.066736355 -0.056953687 0.002494452 0.062183656 -0.01432931 0.014869299 -0.018834163 -0.005589057

network_body._body_endoder.seq_layers.2.bias f4 [128]
00000000: 0000 0000 0000 0000 0000 0000 0000 0000
00000010: 0000 0000 0000 0000 0000 0000 0000 0000
00000020: 0000 0000 0000 0000 0000 0000 0000 0000
00000030: 0000 0000 0000 0000 0000 0000 0000 0000
00000040: 0000 0000 0000 0000 0000 0000 0000 0000
00000050: 0000 0000 0000 0000 0000 0000 0000 0000
00000060: 0000 0000 0000 0000 0000 0000 0000 0000
00000070: 0000 0000 0000 0000 0000 0000 0000 0000
00000080: 0000 0000 0000 0000 0000 0000 0000 0000
00000090: 0000 0000 0000 0000 0000 0000 0000 0000
000000a0: 0000 0000 0000 0000 0000 0000 0000 0000
000000b0: 0000 0000 0000 0000 0000 0000 0000 0000
000000c0: 0000 0000 0000 0000 0000 0000 0000 0000
000000d0: 0000 0000 0000 0000 0000 0000 0000 0000
000000e0: 0000 0000 0000 0000 0000 0000 0000 0000
000000f0: 0000 0000 0000 0000 0000 0000 0000 0000
00000100: 0000 0000 0000 0000 0000 0000 0000 0000
00000110: 0000 0000 0000 0000 0000 0000 0000 0000
00000120: 0000 0000 0000 0000 0000 0000 0000 0000
00000130: 0000 0000 0000 0000 0000 0000 0000 0000
00000140: 0000 0000 0000 0000 0000 0000 0000 0000
00000150: 0000 0000 0000 0000 0000 0000 0000 0000
00000160: 0000 0000 0000 0000 0000 0000 0000 0000
00000170: 0000 0000 0000 0000 0000 0000 0000 0000
00000180: 0000 0000 0000 0000 0000 0000 0000 0000
00000190: 0000 0000 0000 0000 0000 0000 0000 0000
000001a0: 0000 0000 0000 0000 0000 0000 0000 0000
000001b0: 0000 0000 0000 0000 0000 0000 0000 0000
000001c0: 0000 0000 0000 0000 0000 0000 0000 0000
000001d0: 0000 0000 0000 0000 0000 0000 0000 0000
000001e0: 0000 0000 0000 0000 0000 0000 0000 0000
000001f0: 0000 0000 0000 0000 0000 0000 0000 0000
0.0 0.0 0.0 0.0 0.0 0.0 0.0 0.0
0.0 0.0 0.0 0.0 0.0 0.0 0.0 0.0
0.0 0.0 0.0 0.0 0.0 0.0 0.0 0.0
0.0 0.0 0.0 0.0 0.0 0.0 0.0 0.0
0.0 0.0 0.0 0.0 0.0 0.0 0.0 0.0
0.0 0.0 0.0 0.0 0.0 0.0 0.0 0.0
0.0 0.0 0.0 0.0 0.0 0.0 0.0 0.0
0.0 0.0 0.0 0.0 0.0 0.0 0.0 0.0
0.0 0.0 0.0 0.0 0.0 0.0 0.0 0.0
0.0 0.0 0.0 0.0 0.0 0.0 0.0 0.0
0.0 0.0 0.0 0.0 0.0 0.0 0.0 0.0
0.0 0.0 0.0 0.0 0.0 0.0 0.0 0.0
0.0 0.0 0.0 0.0 0.0 0.0 0.0 0.0
0.0 0.0 0.0 0.0 0.0 0.0 0.0 0.0
0.0 0.0 0.0 0.0 0.0 0.0 0.0 0.0
0.0 0.0 0.0 0.0 0.0 0.0 0.0 0.0

value_heads.value_heads.extrinsic.weight f4 [1, 128]
00000000: 8c2a c83d c6cd 533e 2789 3fbe a862 7abd
00000010: 04c0 41be 6a09 1abe c431 ddbd 19e7 1ebe
00000020: d693 423e a0a9 d03d 54a5 fb3d 90c9 02bc
00000030: c0c8 ff3c 889d f23c 7cb4 ae3d 6897 26be
00000040: c075 6b3c ae04 453e 6066 253e 317d febd
00000050: 525a aabd b261 523e 80c1 3bbe 10ae 2c3e
00000060: 9051 833d 6057 62bd 488d 17bd 90de 7b3d
00000070: 1cf7 57be 21d4 d1bd 98bf c23d bc92 0fbe
00000080: a864 0ebe 22e0 dabd 5417 cc3d ae75 2bbe
00000090: 808e fa3d b1a2 57be 2892 f43d a87b 483e
000000a0: 9af0 203e 22a3 90bd 6b17 efbd bcff 1fbd
000000b0: 806d 88bd 28df f93c e837 0fbe 8ca3 2ebd
000000c0: d401 4abe c2bb 04be 42d7 003e dcd8 3b3e
000000d0: 5cc9 42bd 00bc 433e 8348 39be 682a 8b3d
000000e0: 801c 7bbc 6c96 20be 98e7 65bd 8005 303b
000000f0: aca8 be3d 7295 433e 9034 ba3c 584f fc3c
00000100: 8843 b4bd 9476 a73d 94da 933d 39d6 44be
00000110: d00e 4b3d 945d 01bd 323d 3cbe 689b e13d
00000120: 2250 02be dc68 efbd 78fc 753d 2856 d03c
00000130: 685d fd3d 4874 61bd c892 4c3d d434 4d3e
00000140: 489e 813d 78ce b5bd bc2c 61bd f6ce 2c3e
00000150: 0a91 163e 1816 b9bc 6214 173e 13ff 33be
00000160: 98cb 9e3c 0404 f6bd 9c33 cd3d 4a71 1d3e
00000170: d0b7 483d 4e0c 05be 7e63 0e3e 04d9 45be
00000180: 984f c83d f047 18bc de37 08be 88fa f3bc
00000190: 3025 24be 1035 90bd 7e93 423e 80dc 193e
000001a0: 92cb 373e 20c1 fc3d 7c27 003e 4275 3d3e
000001b0: 9ad2 8cbd a23f 8fbd bed3 183e f118 4bbe
000001c0: 552d 3abe 9ccd cb3d 14bc a83d fc84 14be
000001d0: 0883 793d 0812 3ebd 5af1 5b3e 8cd6 16be
000001e0: 945a 4e3e 83ed bbbd a026 4d3d 78bd 1b3d
000001f0: f498 ef3d 0084 053d 29d1 31be 3293 5bbe
0.0977374 0.20683965 -0.18704663 -0.061129242 -0.18920904 -0.15042654 -0.10800508 -0.15517844
0.19001707 0.101886034 0.12287393 -0.007982627 0.031223655 0.029616132 0.085305184 -0.16268694
0.0143713355 0.19240066 0.16152334 -0.12426222 -0.083180085 0.2054508 -0.18335533 0.16863275
0.06412041 -0.05525911 -0.03699997 0.06149155 -0.21090358 -0.102455385 0.095092 -0.14020818
-0.13905585 -0.10687281 0.09965387 -0.1674411 0.12234211 -0.21058156 0.119419396 0.19578421
0.15716782 -0.07062365 -0.116743885 -0.039062247 -0.066615105 0.030501917 -0.1398617 -0.04263644
-0.1972726 -0.12962249 0.12582114 0.18344444 -0.047555313 0.19114685 -0.18094067 0.06795198
-0.015326619 -0.15682381 -0.056129068 0.0026858747 0.09309515 0.19099978 0.022730142 0.030799553
-0.08801943 0.08176914 0.07219425 -0.19222344 0.049574673 -0.031583384 -0.18382719 0.110159695
-0.1272588 -0.11689922 0.060055226 0.025431708 0.123713315 -0.055042535 0.04994467 0.20039684
0.06329018 -0.088772714 -0.054974303 0.16875824 0.14703766 -0.022593543 0.14753869 -0.17577772
0.01938419 -0.12012485 0.10019609 0.15375248 0.049003422 -0.12992975 0.13905141 -0.19321066
0.09780806 -0.009294495 -0.13302562 -0.029782549 -0.16029811 -0.07041371 0.19001576 0.1502552
0.1794875 0.12341523 0.12515062 0.18501762 -0.068761066 -0.06994559 0.14924523 -0.19833733
-0.18181355 0.09951326 0.08238998 -0.14503855 0.060915977 -0.046403915 0.21478787 -0.1473028
0.2015174 -0.09176161 0.050085664 0.03802249 0.11699095 0.032596588 -0.17364945 -0.2144287
