results/ppo/FTG 01/FTG 01-11853.onnx (onnx, 74718 bytes, 9 tensors)

action_model._discrete_distribution.branches.0.bias f4 [2]
000000 12 2f 60 3b 11 2f 60 bb
       0.0034207744 -0.0034207741

action_model._discrete_distribution.branches.0.weight f4 [2, 128]
000000 fe 3e 56 bb a7 7d e0 bb 69 f7 50 3b 6d 0c 08 bc
       -0.0032691355 -0.0068509164 0.003188575 -0.008303744
000010 13 be 1a 3c 4a 27 4f bc f1 69 8e 3b 46 3e 4c 3b
       0.009444731 -0.012643645 0.0043461253 0.0031165048
000020 65 4a e6 3b 25 32 b6 3b e5 15 ae 3a fc 37 0b bc
       0.0070279115 0.005560177 0.0013281672 -0.008497234
000030 5a f5 72 3b d7 fa 41 3b f2 01 9d bb a0 49 72 38
       0.003707251 0.0029598975 -0.0047914917 5.7765865e-05
000040 52 be 81 bc f0 00 5c bc 51 0d aa bb c6 62 a7 3c
       -0.015837822 -0.013427958 -0.0051895757 0.020432841
000050 4b 24 32 3b b7 47 77 bc 2c bc b5 3a 55 af 43 3b
       0.0027182277 -0.015092782 0.0013865284 0.0029859145
000060 b8 42 3e 3c e6 41 01 3c 05 36 4e bc 84 5b 66 3c
       0.011612587 0.007889247 -0.012586121 0.014059905
000070 89 b8 ec 3b 28 07 ec 3b ae 48 95 3c 83 e8 ec 3b
       0.0072241467 0.0072030015 0.018223133 0.007229866
000080 4b 14 32 bc f7 1a fe bb 73 96 27 bb c1 10 4a bb
       -0.010869096 -0.0077546793 -0.0025571852 -0.003083274
000090 88 cf fd bb 96 db 10 3c 8a 67 54 bc e8 59 fb bb
       -0.007745687 0.008841416 -0.012964139 -0.00767063
0000a0 17 b3 1c bb 90 e7 da 3a ed 93 ea 3b a3 24 d3 bb
       -0.0023910457 0.0016701091 0.0071587474 -0.0064435764
0000b0 a1 82 ea bb d0 89 cf 39 c8 76 dc ba 42 3b ef bb
       -0.0071566855 0.00039584795 -0.0016820068 -0.0073007653
0000c0 08 9c 07 bb 47 32 cd 3a 9e d8 a2 bb 9d 94 2a 3b
       -0.0020692367 0.0015655243 -0.0049696704 0.0026028522
0000d0 65 51 4a 3b 50 97 81 3c 2a 05 15 bc 0f a7 02 3b
       0.0030871269 0.015819222 -0.0090954695 0.0019936
0000e0 98 35 33 3c ea 2b f7 bb 22 48 54 3b a6 fa c4 ba
       0.010938071 -0.0075430768 0.0032391627 -0.0015028312
0000f0 68 13 40 3b 57 4c 42 bc e2 07 c9 b7 96 a5 c1 bb
       0.0029308442 -0.011859021 -2.3964738e-05 -0.005909632
000100 3e 07 24 3b f7 7c 87 bb 49 c3 59 bc 04 82 bd bb
       0.002502873 -0.00413477 -0.0132911885 -0.0057833213
000110 90 83 f0 3b ba 70 84 ba a9 07 5c 3b f2 db 8c 3b
       0.007339902 -0.0010104396 0.0033573902 0.0042986805
000120 a2 d2 e8 3b 51 b3 11 3c 94 e0 03 bb 35 23 d7 3b
       0.0071051875 0.00889285 -0.0020122873 0.0065654763
000130 ec 99 2c bc b7 85 17 3c 81 e4 75 bc e6 fd 35 3b
       -0.010534745 0.009248189 -0.015008093 0.0027769743
000140 c0 e7 3b bb 9c 60 88 bb 08 30 20 3c 29 b5 23 3c
       -0.002867207 -0.0041619074 0.009777077 0.009991922
000150 16 5b 08 bc 50 47 d6 bb b8 72 f7 3a cd 5b a8 3b
       -0.008322498 -0.006539263 0.0018878793 0.0051378966
000160 10 7d f1 3b bf 8a 17 bc da 52 50 bb 4d bb 0d bc
       0.007369645 -0.009249388 -0.0031787665 -0.008650613
000170 61 90 04 bb 26 2c 62 3b 46 82 77 3b 04 82 00 3a
       -0.0020227658 0.0034511178 0.0037766858 0.00049021863
000180 f8 be 23 39 93 68 89 3c 21 2b 52 3a 37 9f 3d bc
       0.00015616033 0.016773498 0.0008017291 -0.011573604
000190 47 43 cf 3b 40 1d ad 3b dd 26 80 bb 98 b0 33 bb
       0.0063251588 0.005283028 -0.003910883 -0.002741849
0001a0 d0 b2 92 3b 86 ca 48 3c 63 fe cf 3a 04 9a 54 3b
       0.0044768825 0.012255317 0.001586866 0.0032440433
0001b0 ec b7 f4 bb 4d 2f 47 3c 22 7c 11 ba e5 0d 84 3c
       -0.0074682143 0.0121572735 -0.0005549808 0.016119907
0001c0 d8 a1 58 bc 17 51 ae ba 27 bf 6d bb c0 23 63 ba
       -0.01322218 -0.0013299313 -0.0036277266 -0.000866469
0001d0 a6 b1 49 3c fc 04 d8 3b 10 24 01 bb be 30 88 bb
       0.012310421 0.006592391 -0.0019705333 -0.004156201
0001e0 c8 f8 17 bc 3c 7a ce 3b c0 ae 15 3c cd 8d f1 bb
       -0.009275623 0.0063011926 0.009135902 -0.0073716403
0001f0 dc b6 25 bc 47 b7 b7 3b 77 ec ec 3a 0a c5 87 3a
       -0.010114398 0.005606565 0.0018075843 0.0010358405
000200 dd b5 b0 3a 39 6c ef 3b 50 ad e0 bb 9b 41 19 bc
       0.0013481934 0.0073066023 -0.006856598 -0.0093540205
000210 ed 70 83 3b 50 89 2a 3c ae 16 fb bb fa ac 35 bb
       0.0040112645 0.010408714 -0.0076626157 -0.002772151
000220 85 f8 6f 3b 7b 4b 06 3c cd 6c 31 3c 04 4e 0e 3c
       0.0036616635 0.008196707 0.010829163 0.008685593
000230 46 79 fa bb 5d 95 2b 3c 2b 79 15 bc 45 cc 2f bb
       -0.0076438515 0.010472623 -0.009123127 -0.0026824635
000240 65 a7 3f 3c 74 82 06 3c 8f a4 4d 3c 77 06 e8 ba
       0.011697625 0.008209813 0.012551441 -0.0017702122
000250 0d 42 fd ba e0 a3 bf ba 2f 51 55 bc ff 0c 60 bc
       -0.0019322053 -0.0014620982 -0.013019844 -0.0136749735
000260 5a e1 9c bb 0d 48 ae bb cd c4 67 3b 6a b5 34 39
       -0.004787606 -0.0053186477 0.0035365105 0.0001723372
000270 7b b9 67 bc 1b d0 92 3b 9b ed 9c bb bc fd 98 3b
       -0.014143343 0.0044803745 -0.004789067 0.0046689194
000280 09 84 5b bc 1d 2a 7b bc 41 e3 17 3c 3f 88 0c 3c
       -0.013398179 -0.015329865 0.00927049 0.0085774055
000290 88 3d 9a 3c f3 b5 af bb a5 f1 8f bb a7 42 1a 3c
       0.018828169 -0.005362266 -0.00439282 0.009415305
0002a0 35 82 dc bb b9 20 e8 bc 76 7a 15 3b c4 2a cb bb
       -0.006729389 -0.028335916 0.0022808588 -0.0062001664
0002b0 6a 48 c8 bb a0 ea b6 3b 53 97 af 3b 88 cd e5 bb
       -0.006112148 0.0055821687 0.0053586154 -0.0070130266
0002c0 fe 4f 83 bb 9e d2 bb 3b 9a 59 97 3c d9 42 21 3c
       -0.0040073385 0.0057318946 0.018475343 0.009842598
0002d0 e8 44 ec bb 0d 71 2b bb 79 33 d0 3a b5 43 07 bc
       -0.0072103627 -0.0026159913 0.0015884481 -0.008255889
0002e0 bd ee a9 bc f2 ea c9 39 43 96 79 bc a8 ba c3 ba
       -0.020743722 0.00038512755 -0.015233579 -0.0014932947
0002f0 f4 e1 db bb e4 ec a7 3c c4 d5 ef bb 17 64 e4 3b
       -0.0067102853 0.0204987 -0.007319184 0.0069699395
000300 b2 8f 24 3c b4 5f 61 3c a8 db 50 bb 40 85 f5 bb
       0.010044025 0.013755728 -0.0031869207 -0.0074926913
000310 86 b1 74 3c 40 3c 80 3b 21 06 82 bc a9 a4 03 3c
       0.014934903 0.0039134324 -0.015872063 0.0080348635
000320 ac 4d 46 39 7d 99 0d bb 70 dd 86 3b 3e ae 84 3c
       0.00018911686 -0.0021606379 0.004115753 0.016196366
000330 3d 1d b1 bb c5 09 84 bc ce 1d 99 3b 36 30 a9 39
       -0.005405097 -0.01611794 0.0046727424 0.00032270112
000340 2f c8 8f 3b 51 4b 43 3a 02 3c 23 3b 14 8b 35 bb
       0.0043878774 0.00074498827 0.0024907594 -0.0027701305
000350 21 73 d2 bb 3f f6 cb 3a be 62 80 ba ff 09 b9 bb
       -0.006422416 0.0015561058 -0.0009795052 -0.0056469436
000360 d3 cf 16 bc 31 55 06 bc dc 51 02 bc b5 7c 84 bc
       -0.009204823 -0.008199022 -0.007954087 -0.016172746
000370 1a b8 44 ba f2 06 c5 39 c4 af 9c 3c 2e f5 c3 3b
       -0.000750424 0.00037579943 0.01912678 0.0059801554
000380 2f 68 f6 bb 34 fd e0 b8 21 9e 80 bc 2b 71 af 3b
       -0.007519744 -0.00010728315 -0.015700402 0.005354067
000390 90 2e 57 3a 55 6e 12 bc c5 38 96 bb 6e 58 72 ba
       0.00082085375 -0.008937438 -0.004584404 -0.00092447444
0003a0 e5 8c f4 3b 82 26 56 bc 32 e5 df 3b 35 1e 18 3c
       0.007463085 -0.013070704 0.006832742 0.009284546
0003b0 a4 cf 82 3a d1 b1 e9 3b b7 d1 26 bb 4c 6c 5f ba
       0.0009980095 0.007131793 -0.002545459 -0.00085229124
0003c0 7a d7 b8 3b 71 80 ed 3b fc 26 ab bb ba 84 15 bb
       0.005640921 0.0072479774 -0.005223153 -0.0022814707
0003d0 99 02 f2 bb ee 8b 36 bb a4 8a 55 bb fc 25 2b 3c
       -0.0073855636 -0.00278544 -0.0032583857 0.010446068
0003e0 c8 ca 28 3c b6 48 9b bc 8b da 15 bc 5a 3e b0 bb
       0.010302253 -0.01895557 -0.009146343 -0.0053785266
0003f0 c8 27 80 b9 d3 99 29 3c 7d 14 9f 3b a6 96 02 bb
       -0.00024443702 0.010351616 0.0048547373 -0.001992622

action_model._discrete_distribution.branches.1.bias f4 [3]
000000 3d 52 5c 3b 38 6c 9f ba b6 e8 71 ba
       0.0033618354 -0.0012162989 -0.0009228097

action_model._discrete_distribution.branches.1.weight f4 [3, 128]
000000 44 5c 4c bb 2b eb 20 3b 41 7b bc bb 8d a9 90 bc
       -0.0031182924 0.0024554234 -0.0057519977 -0.017658973
000010 3e da ae 3b 85 08 13 bc 81 2c 96 3b 26 fd 00 bb
       0.005336075 -0.008974199 0.004582942 -0.0019682138
000020 4e e1 dd 3b 90 3b f4 3b ea 76 90 bb a0 5c 07 3c
       0.006771243 0.0074533895 -0.004408707 0.00826183
000030 dc ef 80 3b 92 87 0a 3c 28 7c 48 3b 84 59 fb bb
       0.0039348435 0.008455174 0.003059158 -0.007670583
000040 51 e2 e4 bb 0c d3 83 b7 d6 e5 b8 b9 85 04 9e bc
       -0.006984987 -1.5714693e-05 -0.00035266456 -0.019289264
000050 ab 65 98 3a 2a 36 ab bb d6 19 e4 3b a8 0a 16 39
       0.0011626979 -0.0052249627 0.0069610877 0.00014309085
000060 b3 c6 87 bc 91 8b ad 3a 7b bc 8f 3b 2f 2e 8a 3b
       -0.01657424 0.0013240447 0.0043864823 0.0042169313
000070 72 0b bb b9 05 5f 3b 3c 63 16 51 39 4e a4 81 3b
       -0.00035675947 0.011436229 0.00019940133 0.003956354
000080 8d fd 7a bc 5f bc 2b bc e1 f5 4a bc 6f 4a 05 bb
       -0.01531924 -0.010481923 -0.012387724 -0.0020338555
000090 43 fa 5b bb f3 bb ac 3c cc b4 33 bb 91 2f a3 ba
       -0.0033565916 0.021085715 -0.0027420996 -0.0012450089
0000a0 eb d3 1a 3c 14 f9 c3 bb ef 49 83 b9 d8 0a 28 3c
       0.009449939 -0.00598062 -0.00025041352 0.010256492
0000b0 a1 93 0f bc 95 ff 7c 3a e6 a9 6d bc d2 b5 3b 3c
       -0.008763225 0.0009651122 -0.014505839 0.011456924
0000c0 30 88 fc 3b 77 d1 bb 3b 54 26 98 bc 2b 8c 56 ba
       0.0077066645 0.0057317573 -0.018572964 -0.0008184339
0000d0 7d f8 61 bb e2 b0 a3 3a b4 02 ff 3b e8 34 89 3b
       -0.0034480386 0.0012488628 0.0077823047 0.004187215
0000e0 08 53 29 3b fe d5 4f 3c 5a 6e af bb 22 93 0d 3c
       0.0025836844 0.012685297 -0.005353731 0.008641036
0000f0 76 e2 aa bc 56 20 4a 3b 18 01 4f bc 81 36 b6 3a
       -0.020859938 0.0030842028 -0.012634538 0.0013901741
000100 7c 25 2d 3c b5 85 da 3a 0b 56 3a bb 38 f4 15 3b
       0.010568019 0.0016671928 -0.0028432633 0.0022881161
000110 36 d7 34 3c 4a a8 d5 bb 43 a1 12 3c 0b c6 2c 3b
       0.011037638 -0.0065203058 0.008949581 0.002636316
000120 35 8c 28 3c 3c bb 32 3c 39 2c 93 bb 0a 66 9f bb
       0.010287334 0.010908898 -0.0044913557 -0.004864459
000130 41 75 99 bc d8 8a 4d 3c 5b 8a 02 3c 27 92 31 3c
       -0.018732669 0.01254531 0.007967557 0.010838068
000140 94 d5 98 3a f1 a8 2b 3c 5d 21 a1 3b 25 f3 c4 bb
       0.0011660331 0.0104772905 0.0049173073 -0.0060104304
000150 27 52 60 3b b5 a5 80 3b 42 fb 6e bb 01 16 22 3c
       0.0034228654 0.003926004 -0.003646568 0.009892941
000160 aa c9 2f bc a8 6e 01 bc ae f1 75 bb 6e b4 72 bb
       -0.010729233 -0.007899918 -0.0037528086 -0.0037033814
000170 39 b8 c1 bb ca c9 2d 3c 63 c8 79 bb a7 cb 02 3c
       -0.0059118536 0.010607192 -0.0038113825 0.007983125
000180 0c dd 28 3c fc b6 3d 3c 55 40 c7 ba e5 a7 d9 bb
       0.010306608 0.011579271 -0.0015201668 -0.006642329
000190 96 62 47 3c e3 16 2f 3c 48 27 0d 3c fe 01 96 ba
       0.012169501 0.010686609 0.008615322 -0.0011444686
0001a0 63 4e 3f bb f7 05 f3 3b 0d 89 38 3c 22 dc c2 3b
       -0.002919101 0.0074164825 0.011263144 0.005946652
0001b0 43 5c a0 ba 69 ba f6 39 c5 0d 97 3a 8e af 5d 3c
       -0.0012234527 0.00047059663 0.0011524489 0.013530625
0001c0 70 78 02 3c 67 5d 70 3c fc bd 26 3c 96 31 b6 3b
       0.007963285 0.014670706 0.010177132 0.0055601103
0001d0 12 e4 e9 bb 36 38 0a bc f3 6a 18 bc ce 9d ae bb
       -0.007137784 -0.008436253 -0.009302842 -0.0053288704
0001e0 db 05 49 3b bd 85 50 bc b0 07 e0 39 74 f9 e8 b9
       0.0030673656 -0.012727198 0.00042730337 -0.00044436345
0001f0 6f 6c f1 bb fd bc c8 3b 13 49 40 bc 70 62 e8 ba
       -0.0073676626 0.006126045 -0.011736172 -0.0017729532
000200 19 76 41 bc 5d c2 64 bb ec 57 bb bb ec 62 40 3b
       -0.011807942 -0.0034905889 -0.005717268 0.0029355837
000210 05 8d 08 3b 70 57 ed 3b 51 4b 82 bc ba eb 9a 3a
       0.0020836007 0.0072430894 -0.015905054 0.001181952
000220 81 5d 51 3c 3c aa bb bb 8f ee 32 3c 81 44 c1 bb
       0.012778641 -0.0057270806 0.010921135 -0.005898059
000230 11 18 12 3b 6f 2f ca bb d9 de 27 bc b3 02 a1 bb
       0.0022292177 -0.0061702053 -0.010246002 -0.004913652
000240 70 e8 50 3b 55 85 57 bc 04 c3 96 3c 86 c9 82 3c
       0.0031876825 -0.013154347 0.018403538 0.015965234
000250 94 cf 76 bc 30 5e c3 ba 28 0a b7 bb 16 67 85 bc
       -0.015064139 -0.0014905389 -0.0055859275 -0.016284507
000260 df f5 09 bc c7 ce 0c bc d2 97 34 3a c4 6c 46 bb
       -0.008420437 -0.008594221 0.0006889078 -0.0030277232
000270 4d f1 d6 3a a8 3b 03 3b ca 52 4b bc ff 72 05 bc
       0.0016398818 0.0020024572 -0.012409875 -0.008145093
000280 58 86 01 bc 65 fa 53 3c 72 91 29 3c 35 33 96 bb
       -0.007905565 0.012938117 0.010349618 -0.004583741
000290 12 bf c8 3b 58 ad c2 bc ad 4c 8b 3a 19 6f 2b bc
       0.006126293 -0.023764297 0.001062771 -0.010463499
0002a0 00 e3 1a 35 87 ad a6 bb a6 5b 53 ba 3a ec bb bb
       5.76998e-07 -0.005086604 -0.0008062668 -0.0057349475
0002b0 8c 48 5d bc e8 6f 22 bc 5e e2 39 bb 0b df 00 bc
       -0.013506066 -0.009914376 -0.0028363685 -0.007865678
0002c0 3b f6 a6 3b 7c 3b 7a bb 79 b6 02 bc f6 fe 46 bc
       0.005095271 -0.0038182428 -0.007978075 -0.012145748
0002d0 d4 7c 04 3c ec 84 09 3b 7a c3 a9 bc 65 83 1d bc
       0.008086402 0.0020983769 -0.020723093 -0.009613846
0002e0 c5 3f b7 bb 55 db aa 3c b7 50 02 bc 86 47 e7 3a
       -0.0055923187 0.020856539 -0.007953814 0.0017645217
0002f0 59 bd 33 bb 02 91 26 3b c4 8a 2a 3c fb a3 1e 3c
       -0.0027426092 0.0025416021 0.010409061 0.009682651
000300 07 28 a1 3b 81 bc 93 3b d1 1b aa bb 3c 50 be 3a
       0.0049181017 0.0045085554 -0.0051913043 0.0014519761
000310 82 19 bd bc 69 1d 80 bc a6 8a db ba b5 58 37 3c
       -0.023083452 -0.015639024 -0.0016749694 0.011190583
000320 1a e6 2a 3a 75 da 20 3a a0 5f 29 3c 24 3d 46 3c
       0.0006519273 0.0006136068 0.01033774 0.012099538
000330 25 d5 4c 3a 42 db 02 3c 2f c9 ba bb 09 59 7e bc
       0.00078137434 0.007986845 -0.0057002525 -0.015524157
000340 19 35 f6 3b 3c 0b c0 bb 58 45 04 bc 74 1a 3b 3c
       0.007513654 -0.0058607142 -0.008073173 0.011419881
000350 b4 f4 43 3c 76 ed 36 3a 4a fa 96 3b 3f ff 34 3b
       0.011960197 0.00069781335 0.0046074735 0.002761796
000360 2b e9 41 3c 1f d4 d5 3b 9c fd 13 3c b4 d0 43 3c
       0.011835377 0.006525531 0.009032633 0.011951614
000370 b9 4c 55 3c 1c 7f 25 3c db 0c d9 3b 23 90 37 3c
       0.01301878 0.010101106 0.006623847 0.011203798
000380 f1 35 4b 3c 22 25 1b bb c5 6b 9a bb 60 ee 9f 3c
       0.012402997 -0.0023673256 -0.004712554 0.019522846
000390 b4 36 09 3c c1 ca 04 3c 78 e1 97 bc 09 3f 4b ba
       0.008374859 0.008104981 -0.018540129 -0.00077532284
0003a0 c6 0d b1 3b 77 31 a9 bc dc 5b 52 3b 5b 7b 34 bc
       0.0054032532 -0.02065347 0.003209821 -0.011015738
0003b0 36 89 64 bb a2 15 ef bb b1 be ab 3b 68 af ac 3c
       -0.0034871823 -0.00729628 0.005241238 0.021079734
0003c0 cd 90 c8 3a 92 23 96 ba e5 6f 8e bc 23 56 ea bb
       0.0015301943 -0.0011454693 -0.01738734 -0.0071513816
0003d0 97 ff 32 bc ce 7c 04 3a ba b8 63 bb 5c 31 99 bc
       -0.010925195 0.0005053998 -0.0034747557 -0.018700294
0003e0 14 ce fe bb fe fb 5f b9 ae f3 95 bb 8d 61 a6 bb
       -0.0077760313 -0.00021360812 -0.004576168 -0.005077547
0003f0 3b 34 94 3b 50 5a 16 39 02 92 dc 3c f6 48 7b bb
       0.004522828 0.00014338759 0.02692509 -0.0038343049

discrete_action_output_shape f4 [1, 2]
000000 00 00 00 40 00 00 40 40
       2.0 3.0

network_body._body_endoder.seq_layers.0.bias f4 [128]
000000 ec 18 76 3b 6c c4 2f 3a ca 4f 23 bb 80 f3 85 bb
       0.0037551476 0.00067049894 -0.0024919384 -0.0040878654
000010 07 7b 86 ba 8a d9 ca ba 51 7f 08 3b 05 d3 97 3b
       -0.0010260054 -0.0015476209 0.002082784 0.00463331
000020 f5 36 82 3b 01 0d 09 bb b7 56 ca 3a 73 d1 7c 3b
       0.0039738365 -0.0020912292 0.001543722 0.003857699
000030 06 41 75 3b 74 71 a6 3b 3d e9 91 bb 46 a6 07 bb
       0.003742279 0.0050794426 -0.004452853 -0.0020698472
000040 7e 37 55 3b ea 20 b8 3a 14 54 6b bb 41 37 35 3b
       0.0032534297 0.0014047895 -0.0035908269 0.0027651342
000050 11 0b 54 bb f9 d0 b5 ba 65 e1 29 3b 36 da 82 bb
       -0.003235523 -0.0013871483 0.00259217 -0.003993298
000060 cc f2 2e bb 61 fd 7a bb 39 e2 ab 39 87 f9 0c 3b
       -0.0026695011 -0.0038297998 0.0003278421 0.0021511035
000070 38 cb 52 3b bd e8 8c bb 0b 11 53 bb e0 ae 33 3b
       0.0032164585 -0.0043002055 -0.0032206203 0.0027417466
000080 a6 01 6e 3b f3 ba e3 ba 20 30 b2 38 d1 8e 11 3b
       0.00363169 -0.0017374441 8.4966654e-05 0.002221037
000090 13 ec 82 3b ff 4f e8 ba 60 e4 46 35 6c 24 b4 ba
       0.0039954274 -0.0017724036 7.409308e-07 -0.0013743765
0000a0 96 82 69 b9 00 c8 c6 3a 5a 78 df 39 aa 5c 80 3b
       -0.00022269259 0.0015165806 0.00042623543 0.0039172964
0000b0 2a 5d c4 3a fc 5b 8d 3b 67 de 4e ba 29 b6 93 3b
       0.0014981378 0.004313944 -0.0007891417 0.004507799
0000c0 e2 92 e0 3a ed 96 c2 3b ed 6e f9 3a 7a 47 90 3b
       0.0017133618 0.005938402 0.0019030251 0.004403052
0000d0 79 dc 84 3b 7a 65 7a bb 52 b1 59 3b 77 48 49 bb
       0.0040546027 -0.0038207457 0.0033217263 -0.0030713358
0000e0 73 42 5b bb 20 a9 5b bb 04 83 8f 3a 25 0d 59 3b
       -0.0033456355 -0.0033517554 0.001094908 0.0033119407
0000f0 4b 0d 40 bb c2 0b 1b bb 0d 83 72 3b 85 1e df ba
       -0.0029304798 -0.0023658131 0.0037004382 -0.0017022645
000100 17 10 4f 3b 17 88 b5 b9 d8 6d 11 3b c2 e9 de b9
       0.0031595284 -0.00034624405 0.0022190716 -0.00042517303
000110 3f 91 48 bb 2b 13 af 3a 80 f0 71 bb 0b e8 44 3b
       -0.0030604152 0.0013357153 -0.003691703 0.0030045535
000120 4a fe f7 b8 76 1f 06 bb 78 3d bf 3a 02 ce 2e bb
       -0.00011825243 -0.002046553 0.0014590463 -0.0026673083
000130 95 3b ab b9 aa 57 80 3b 30 59 90 36 fb f0 ad ba
       -0.00032660054 0.0039167004 4.301917e-06 -0.001327067
000140 51 ba 03 3b 3b fb 88 3b 40 0e 95 3b 31 39 85 bb
       0.0020100067 0.0041803396 0.004548818 -0.0040656556
000150 26 3a 03 3b 2b 0f 91 3b bd 59 14 3b 17 21 84 3b
       0.0020023673 0.004426857 0.0022636496 0.004032265
000160 21 b3 19 3b 09 dc 69 3a dd 58 20 3a 03 e2 06 3b
       0.0023452716 0.00089210324 0.0006116757 0.002058149
000170 89 06 96 3b 16 45 98 3b 4f 10 da ba 22 79 0a 3b
       0.004578416 0.0046469076 -0.001663694 0.002112933
000180 87 d7 8d bb 6c 14 0d bb ba ef 5f 3b 4a 14 e8 ba
       -0.0043286714 -0.0021527065 0.0034169988 -0.0017706242
000190 ba 4e c8 ba a4 bc 83 3a f4 c0 55 3b 2b 60 c3 3b
       -0.0015282251 0.0010050726 0.003261623 0.005962392
0001a0 f0 7e 75 3b 43 f8 93 bb b2 45 17 3b 70 d3 7c 3b
       0.0037459694 -0.004515679 0.0023082313 0.0038578175
0001b0 34 14 4c 3b 9a 0d bf 3a ee 2f 64 b8 5e c2 18 3b
       0.0031139972 0.0014576197 -5.4404074e-05 0.0023309211
0001c0 32 39 97 3b fe c9 64 b9 cd c9 31 3b f8 57 10 bb
       0.0046149725 -0.00021819022 0.002712834 -0.002202509
0001d0 c9 92 96 39 07 6f c6 3b 7e b6 f9 ba 58 f1 8b 3b
       0.00028719593 0.006055716 -0.0019051579 0.004270714
0001e0 dd 52 16 3b ce 9d 8b 3b 3a 5c 0f bb 25 32 89 39
       0.0022937574 0.004260755 -0.002187504 0.00026168037
0001f0 f2 02 71 3b ef 0a fd 3a 28 2e d3 3a 5d ec 92 39
       0.0036775437 0.0019305627 0.0016111778 0.00028023394

network_body._body_endoder.seq_layers.0.weight f4 [128, 5]
000000 16 63 01 bf 2d 36 9a 3e 89 32 28 bf 65 cb 4a 3e
       -0.5054182 0.30119458 -0.6570211 0.19804151
000010 3e cd 86 3f c5 68 4f 3f aa 65 47 bd 59 a1 c5 bd
       1.0531385 0.8101924 -0.04868094 -0.09649915
000020 3b 62 9e 3e 93 05 22 3d bc 33 89 bc c9 c4 18 bf
       0.3093432 0.039556097 -0.016748302 -0.5967527
000030 10 57 09 bf 6f c4 cd 3e c7 dd 66 bf 7f 5c b8 be
       -0.5364847 0.4018893 -0.90182155 -0.3600807
000040 00 df 9f 3f 26 95 29 be e7 41 b0 3d f9 be 11 bf
       1.2489929 -0.16560802 0.0860632 -0.56932026
000050 e4 d9 0a be 2d 21 9f 3f 14 57 91 be bc 28 b0 be
       -0.13559681 1.2432 -0.28386748 -0.34406078
000060 dd ba 3f be 45 b1 5a 3f 3d dc 0e bb df c6 35 be
       -0.18723626 0.8542674 -0.0021798753 -0.17751645
000070 f0 d4 e1 be 8e 84 a3 bd 48 bd fa bc 8a 1a 77 bf
       -0.4410777 -0.07984267 -0.030607834 -0.9652487
000080 43 eb bb 3f ec 74 8d be 2a 0c 0c 3f 85 74 30 bf
       1.4681171 -0.27628267 0.5470606 -0.68927795
000090 10 80 9c 3e 1c 96 c4 be 06 e4 14 3e 73 ce 53 be
       0.30566454 -0.38395774 0.14540109 -0.20684223
0000a0 f9 ba 88 3e 4f ca b0 3d 40 dc 1d be 02 55 3b 3f
       0.2670515 0.08632337 -0.1541605 0.73176587
0000b0 f7 2a 03 3f 5a 2a 4c 3e a7 3d 8f be 23 37 46 bd
       0.51237434 0.19938031 -0.27976725 -0.048392426
0000c0 42 57 28 bf 6e e1 de 3d 34 79 21 bf b5 4d 94 be
       -0.65758145 0.10882841 -0.63075566 -0.28965536
0000d0 ac f6 05 3e 71 8d 90 be 9e 49 89 bf 01 b9 39 bf
       0.13082379 -0.2823291 -1.0725591 -0.7254792
0000e0 21 ab 97 bd 69 11 a2 be 6d a3 08 bf 6f cb dd bd
       -0.07405687 -0.31653908 -0.5337437 -0.108298175
0000f0 61 be 4a bf da 6d d3 3e d9 f6 4c 3f b8 f7 88 bc
       -0.79196745 0.41294748 0.8006416 -0.016719684
000100 d6 8c 4e 3f 28 a7 bc be a0 70 6a bf 51 08 e1 3e
       0.8068365 -0.3684628 -0.915781 0.43951657
000110 07 a2 be 3e 97 c7 0c be 72 96 88 3d 8d 6f c4 3e
       0.37232992 -0.13748012 0.0666932 0.38366356
000120 f5 b7 b6 be 3a 8a 85 3e c7 17 e6 3c 71 d2 f5 3e
       -0.35687223 0.2608202 0.02808751 0.48012117
000130 27 df 26 3f 82 22 c1 3e 82 41 a0 be 7f 88 4b 3e
       0.65184253 0.3772164 -0.31299978 0.19876288
000140 27 4d 88 bc b0 c8 8c 3d ca 25 03 bf ba 0c 42 bf
       -0.016638352 0.068742156 -0.51229537 -0.7580067
000150 4f 8b 98 3e 2f 6d 7c 3e f0 22 cd bc 76 9d 18 3f
       0.29793784 0.24651025 -0.025041074 0.59615266
000160 ae 32 f8 be 9a c0 0b be a5 b1 fb 3e bd 7f bc 3e
       -0.48476166 -0.1364769 0.4915897 0.36816207
000170 98 dc 03 3f 19 5a 1d bf 03 65 82 3c 8c 1e 01 be
       0.51508474 -0.61465603 0.015917307 -0.12609309
000180 8d 8e 58 3c c6 51 91 3d 2c 73 96 3c bd 53 8a be
       0.0132175805 0.07095675 0.018365465 -0.27017012
000190 0d 2f 09 3e b4 ff 69 3d d6 33 d6 3e 54 fb 3a be
       0.13396855 0.057128623 0.41836423 -0.18259937
0001a0 9b 80 99 3e a6 33 a9 3e 9d e3 e8 3d 15 d5 2d 3e
       0.2998093 0.33047217 0.11371539 0.16975816
0001b0 04 ff b6 bd f2 35 36 bf cd 97 a8 be 4a 7f 56 bd
       -0.08935359 -0.71176064 -0.32928315 -0.052367486
0001c0 3e 30 8a bf c3 ce b6 be 43 06 f5 3e 60 ff fa be
       -1.0795972 -0.35704622 0.4785634 -0.4902296
0001d0 52 18 8d 3e 71 0f 4e 3e d8 d0 60 be 55 30 cb be
       0.27557617 0.20123078 -0.21954668 -0.39685312
0001e0 fd 04 3f 3e ef 1d 17 bf 32 19 20 3d 35 bf c2 be
       0.18654247 -0.5903005 0.039086528 -0.38036504
0001f0 9e b2 7b 3e b7 32 ef be 92 93 2f 3f 7a d7 c4 3e
       0.24579856 -0.4671838 0.6858455 0.38445646
000200 54 59 d8 be e7 e6 84 3e 4c 9a 88 3c 17 92 16 3f
       -0.42255652 0.25957415 0.016675137 0.58816665
000210 60 a6 18 bf 07 57 90 bd b7 7e 90 3e 09 27 3f 3e
       -0.5962887 -0.07047849 0.28221676 0.18667234
000220 f8 b0 8d 3e 7b 69 54 be 36 21 21 bf f3 94 ca be
       0.2767408 -0.20743363 -0.629413 -0.39566764
000230 b5 37 13 3f 5e 48 69 3c f5 14 25 3f 2e bb 6a 3e
       0.5750688 0.014238445 0.644851 0.22922966
000240 dc e0 8e 3d 7e 78 35 3e d9 31 16 bf 04 67 a4 3e
       0.06976482 0.17721745 -0.5866981 0.32109845
000250 a2 32 9c be 27 a7 c4 be a6 db 91 be 88 1b 86 be
       -0.3050738 -0.38408777 -0.2848789 -0.2619288
000260 c8 94 70 bd 9a e3 6a 3e a3 86 c4 3d 59 3e fe 3d
       -0.05873564 0.22938386 0.095959924 0.124142356
000270 97 12 a0 bc 1a 93 e4 3e bb 51 49 3f 30 62 56 3e
       -0.019540114 0.4464348 0.78640336 0.20935893
000280 40 23 fb be 80 bd 0f bf e3 60 51 3f 19 49 2b be
       -0.4905033 -0.5614853 0.8178846 -0.16727103
000290 e2 98 43 bf dd 77 13 be 20 fb 81 bf 0a 86 c6 3d
       -0.76405156 -0.14401193 -1.0154762 0.09693535
0002a0 3e 4e 44 3e 27 ff d0 3e 9d 07 2d 3f 57 3d 04 3d
       0.19170472 0.40819666 0.6758974 0.03228506
0002b0 40 5e 8d be 14 77 fa 3e cc 1d 09 3f f9 78 b8 be
       -0.2761097 0.48918974 0.5356109 -0.36029795
0002c0 61 ea 14 3f 14 49 05 3f e3 1c a7 be 28 a3 ac 3e
       0.58170134 0.52064633 -0.32639226 0.33718228
0002d0 72 46 6c be 1d 5b da 3e 99 1f 31 bf 6d a1 7d bf
       -0.23073748 0.4264764 -0.6918884 -0.9907444
0002e0 06 65 8b be 4e 6c 5f be 0e d7 40 3f 8e 99 af bd
       -0.27225512 -0.21818659 0.7532815 -0.0857421
0002f0 27 80 0a 3f 1a 6f 3c bf 82 0c ef 3e 18 c0 1f 3e
       0.54101795 -0.7360703 0.4668923 0.15600622
000300 2e ed 3b 3f 11 f3 b7 3e 79 3f a0 be 44 da ed 3e
       0.7340878 0.35927632 -0.31298426 0.46455586
000310 95 97 ca bd ab df eb 3e f2 a8 f8 3e 80 82 8f be
       -0.09892193 0.46069083 0.48566395 -0.2802925
000320 ff dc 56 be 31 01 db 3e bb 76 91 3c bf 0d 0e 3f
       -0.20982741 0.42774346 0.01775681 0.55489725
000330 91 0d a6 bf 9b de 0e 3e 66 5f d9 3d aa 03 1d bd
       -1.297289 0.13952105 0.10613899 -0.038333572
000340 2e f7 dd bd 5c 94 a8 bb 4f 7c 0d 3f ed 5b dc bd
       -0.108381614 -0.005144639 0.55267805 -0.10759721
000350 82 1f 66 bf bd e7 e1 3d d8 a0 2f 3e 6d 42 b0 3e
       -0.8989183 0.11030529 0.17151201 0.3442568
000360 ec 62 f5 3e 22 2b e1 bd b1 fb 64 3e 6d a2 df 3e
       0.47927034 -0.10994555 0.22361638 0.4367861
000370 18 d0 ad 3e 78 e3 22 bf 90 0b 61 3e 58 f4 fa 3e
       0.33947825 -0.6362834 0.21977067 0.49014544
000380 2a 4b 4b 3e 06 86 86 3c d3 17 85 be b2 0f 00 3c
       0.19852892 0.01642133 -0.2599474 0.007816242
000390 cc c3 dd 3d b0 89 97 bc f2 89 21 3f e5 92 c0 be
       0.10828361 -0.018498272 0.6310111 -0.37612072
0003a0 55 53 89 3e a1 73 4a bf 4c 7c 5d be 65 1d 42 3f
       0.2682139 -0.79082686 -0.21629447 0.758261
0003b0 49 19 a6 3e 8d 23 02 bf b2 26 bd 3e 5e 32 29 bf
       0.32441166 -0.50835496 0.36943585 -0.6609248
0003c0 cd b1 60 bf 85 6b 5c 3f f1 0d 50 3f 2e 50 07 3e
       -0.877713 0.8610156 0.8127127 0.1321418
0003d0 45 0d 5e 3f 86 de 88 be 6c 27 d6 bd d2 a3 a8 3d
       0.86739 -0.26732272 -0.10456738 0.08234371
0003e0 29 f1 8d 3e a2 db e3 3e 7d 3f 43 3f e6 76 0c 3e
       0.27723053 0.44503504 0.7626875 0.13717231
0003f0 f5 a6 8c 3e 1f cd 1b bf ac 4e 2a bf 5c 60 58 be
       0.27471128 -0.60859865 -0.66526294 -0.21130508

network_body._body_endoder.seq_layers.2.bias f4 [128]
000000 f0 c6 34 bb cd 98 07 bb 99 18 2f 3b 8b 5e 3e bb
       -0.0027584396 -0.0020690442 0.0026717542 -0.0029048051
000010 b7 52 e9 3a 56 a5 8e bb 02 85 93 3b 75 ec 3a 3b
       0.001780114 -0.0043532057 0.0045019398 0.0028522287
000020 cb 71 7e 3b d4 91 67 3a 6b f8 93 bb 41 50 9d b9
       0.003882515 0.0008833681 -0.0045156977 -0.00030005167
000030 ad 3c 41 3b 88 a8 69 3b 7d 1d 62 3a 3d f1 19 bb
       0.0029485628 0.003565343 0.000862561 -0.0023489736
000040 c2 19 39 bb 18 d7 28 bb d2 65 3d bb 73 92 33 3b
       -0.0028244113 -0.0025762971 -0.00288998 0.0027400523
000050 ad fb 06 ba 3c 00 51 bb d1 05 33 3b 2f 98 d9 3a
       -0.0005149197 -0.003189101 0.00273167 0.001660114
000060 4e 1f 9a 3b 79 90 fa 3a aa 22 7f bb 29 83 94 3b
       0.004703439 0.0019116543 -0.0038930574 0.004532237
000070 36 62 fe 3a 1a 77 fe ba 7b e5 3e 3b 87 71 d0 3b
       0.0019407931 -0.0019414157 0.002912848 0.0063611898
000080 25 fb 02 bb 9f 4a aa 3a 32 f6 83 bb ee fa 58 bb
       -0.001998612 0.001299221 -0.0040271515 -0.003310855
000090 3d 70 a6 bb bb cc b8 3b 36 28 8b bb 43 29 62 bb
       -0.005079298 0.00563964 -0.004246737 -0.0034509457
0000a0 12 98 69 3b 07 62 fd 3a 86 7b 09 ba e3 39 02 b9
       0.003564362 0.0019331583 -0.00052445417 -0.0001241933
0000b0 7f 8e 3f bb 15 f0 3a 3b 4e cc 67 bb ee f9 50 bb
       -0.0029229221 0.0028524448 -0.0035369578 -0.003188725
0000c0 7d 70 e1 ba f4 01 03 bb f7 46 23 bb 7a 7d 02 ba
       -0.0017199662 -0.0019990178 -0.0024914125 -0.0004977804
0000d0 ba 9e 67 3b c4 d0 62 3b cd c3 cf ba 97 e0 72 3b
       0.003534241 0.0034609297 -0.00158512 0.0037060136
0000e0 ba 7e 5d 3b 45 c5 af ba ab 20 44 3b ad 2c 18 3a
       0.0033797459 -0.0013410231 0.0029926698 0.0005804997
0000f0 f9 51 86 3b b7 82 34 bb 6e dc ad bb 44 09 31 bb
       0.0040991274 -0.0027543732 -0.0053058183 -0.002701358
000100 20 c3 38 bb c2 7a 67 bb bc ea 96 3a ff 6b 20 bb
       -0.0028192475 -0.0035320972 0.0011514048 -0.0024478433
000110 28 41 c2 3b c3 73 14 3b 9d 86 1f 3b b2 33 5b bb
       0.0059281774 0.0022652007 0.002434171 -0.003344756
000120 a8 e5 b7 3a 72 61 4c 3b 3b 51 2f bb da 46 15 bb
       0.0014030235 0.0031186012 -0.0026751298 -0.0022777827
000130 91 90 49 bb b8 60 77 3b 67 a6 84 bb 41 8d bd 3b
       -0.0030756334 0.0037746858 -0.004048157 0.005784661
000140 bc 57 17 ba b1 83 4e 3b 98 67 1d bb f2 44 46 3b
       -0.00057732663 0.00315116 -0.0024018046 0.0030253497
000150 61 79 40 bb a9 ed 3c bb 7d 46 33 bb 30 6f 4d 3b
       -0.0029369222 -0.002882818 -0.0027355247 0.003134679
000160 21 c1 99 3b 0e 29 86 bb ed 3c 5d 3b 32 e0 2f 3b
       0.004692212 -0.0040942496 0.0033758238 0.0026836512
000170 a8 81 22 bb b4 68 f7 39 2b ee 8d bb 34 ad 56 bb
       -0.002479652 0.0004718952 -0.0043313703 -0.0032757046
000180 18 a8 83 ba 70 79 7d 3b 56 2c 59 3b 9d 02 06 bb
       -0.0010044603 0.0038677119 0.0033137999 -0.0020448335
000190 cd 3f fe 3a 21 d1 50 3b 28 e5 7c 36 23 6d 83 bb
       0.0019397676 0.0031862932 3.7684313e-06 -0.004010813
0001a0 2f 1a 9f bb ff 63 89 3b 5c 52 07 bb 96 40 8c 3b
       -0.0048554162 0.0041928287 -0.0020648455 0.00428016
0001b0 04 c3 5f bb fb 38 fb 3a 0b 08 91 b9 42 5f 73 3b
       -0.0034143338 0.0019166762 -0.00027662548 0.0037135636
0001c0 7d 1e 4f bb 20 6c 12 bb 3d 14 81 3a f2 d4 1e 3b
       -0.0031603866 -0.002234228 0.000984795 0.0024235812
0001d0 72 7a 39 3b 60 7d 59 3b 74 42 ac 39 2b ca 28 bb
       0.0028301743 0.0033186302 0.00032855908 -0.0025755267
0001e0 66 e3 0e bb 30 1d 40 3b 2f a7 68 3b c7 7a 9f 3b
       -0.002180302 0.0029314272 0.003550004 0.004866931
0001f0 f2 f9 0d bb c7 55 26 ba fb ac 3d 3b ad 9c 48 bb
       -0.0021663872 -0.0006345179 0.0028942216 -0.0030610964

network_body._body_endoder.seq_layers.2.weight f4 [128, 128]
000000 09 74 fa 3d 74 7a 22 be 25 fa e1 3d e6 70 e2 3c
       0.12229163 -0.15867025 0.110340394 0.027641725
000010 c7 2b d2 bd 6c 3c ae 3c de f1 23 bd 52 05 92 3d
       -0.10262256 0.021269046 -0.040025584 0.07129921
000020 c3 c0 de bd 28 6e 0c be 9a 1e 9b 3d 05 31 d6 3d
       -0.1087661 -0.13713896 0.07574196 0.104585685
000030 d8 c3 51 3d df 8e b0 3c 92 93 8d 3d 94 89 dc bb
       0.05121216 0.021552501 0.069129124 -0.006730268
000040 ee c0 f5 bd 00 ee 0e bd 2e 72 62 bd 6b 7d fc bb
       -0.11999689 -0.034894943 -0.05528467 -0.0077053807
000050 4f 16 0b 3e ef b3 ac bc 2d e4 8e 3d e4 bc 8b 3d
       0.13582729 -0.021081893 0.06977115 0.068231374
000060 29 ef aa bd f9 8a 14 bd 25 bb 4a bd e1 9b 16 bc
       -0.083463974 -0.036265347 -0.04949488 -0.009192438
000070 60 64 8a bc 6c 4e f3 3c b9 e7 35 3b a4 73 a4 3b
       -0.016893566 0.02970048 0.0027756526 0.0050186682
000080 70 46 44 3d 2f 94 06 3e b4 2d f2 bd aa 00 ff 3c
       0.047918737 0.13142465 -0.118251234 0.031128246
000090 49 cb 83 3d 35 f3 92 3d 90 3b 52 bb f8 6f 06 be
       0.06435258 0.07175294 -0.003207896 -0.1312865
0000a0 a6 15 91 3a 74 c1 bc 3d 07 84 39 bd 02 01 07 bd
       0.0011069074 0.09216586 -0.045291927 -0.032959945
0000b0 f5 77 2a bd 41 db 9d 3d a7 96 7e 3c 91 63 4f 3e
       -0.041618306 0.07707835 0.015538848 0.20252825
0000c0 a7 73 45 bc a3 38 ce 3d de 53 09 3e 2c c1 a6 3d
       -0.012051499 0.10069396 0.13410899 0.08142313
0000d0 06 13 d2 bd 68 d4 2f 3e ab 20 f7 bd 15 58 dc 3d
       -0.10257535 0.1717087 -0.12066778 0.10758988
0000e0 c9 f2 72 bd ee 60 f1 bd 73 a5 85 bd 44 3f ed 3d
       -0.05931357 -0.11786066 -0.065256976 0.115843326
0000f0 28 22 e9 3d 6b 7e 60 bc 2e 99 b5 3d 53 25 01 3e
       0.11383468 -0.013702015 0.08867107 0.12611894
000100 a0 eb de 3c 40 d7 56 3d a5 55 17 3d a9 57 0d bc
       0.027211964 0.052451372 0.03694691 -0.008626857
000110 0a 14 d8 3c 9a 2e 0d bd 05 cf 07 3d c4 67 27 3d
       0.026376743 -0.03446827 0.033156414 0.040870443
000120 14 76 cb 3d 68 fe ba 3d 87 5d bc bd aa 6d 28 bd
       0.09934631 0.091305554 -0.091975264 -0.04112021
000130 27 c7 2c bd d0 ad 55 bd 85 21 12 3c 45 40 96 bd
       -0.042182114 -0.052167714 0.0089191245 -0.07336477
000140 c5 1e e5 bd 44 12 e5 bd e7 4f 04 bd 14 3f 3a 3e
       -0.111875094 -0.111851245 -0.032302763 0.18188125
000150 de f7 02 be 3b c8 05 3d d5 8d 6e bc e9 80 00 3d
       -0.12789866 0.032661658 -0.014560183 0.03137294
000160 37 86 cf bd 56 f9 ba 3d f6 3f 1c 3e 89 b0 99 bd
       -0.10133021 0.09129588 0.15258774 -0.075043745
000170 ab d1 74 bd 7f 24 8f 3b f3 1f fd bd 22 74 4c 3d
       -0.059770267 0.0043683643 -0.123596095 0.04991544
000180 ad 75 fc 3d 11 67 c7 3d ad f8 82 bb 0c 38 ce ba
       0.123271324 0.09736455 -0.0039969296 -0.0015733256
000190 1e 7a c0 bd 67 39 5c bc e1 7e 2c be bf 79 26 bd
       -0.09398292 -0.01344142 -0.16845275 -0.04064345
0001a0 bb 18 da bc bf c8 9d 3c 58 ee 11 be 1c 5c ee bd
       -0.02662312 0.019260762 -0.14251077 -0.11638662
0001b0 ff c9 32 3d ef 15 bc 3d cc 04 b6 3d bf bb ad 3d
       0.04364967 0.09183871 0.08887634 0.08483075
0001c0 17 b0 89 bb 1e 89 64 bd 95 ab d0 bc ee 6e 29 bc
       -0.0042018997 -0.055794828 -0.025472442 -0.010341389
0001d0 33 ac ca 3d d1 08 a7 3c 2b d3 26 be 87 8e a1 3d
       0.09896126 0.020389946 -0.16291492 0.07888513
0001e0 9a 66 b0 bc b6 32 24 3e 37 67 91 3d 23 18 80 bd
       -0.0215333 0.1603497 0.07099765 -0.06254604
0001f0 da 2f 9c 3d 02 9f fe bc a0 96 92 bd fd e5 1e bc
       0.076263145 -0.03108168 -0.07157636 -0.009698388
000200 08 d3 06 be 61 02 e7 3c 66 90 1b 3d be 80 15 3e
       -0.1316644 0.028199377 0.037979506 0.14599892
000210 7c b6 a4 bb da f6 b5 3c 41 2c a9 3d 67 e7 fa 3c
       -0.0050266366 0.022212435 0.08260394 0.03062792
000220 08 40 57 bd 31 83 90 bd b1 e7 9e bd 43 84 98 3c
       -0.0525513 -0.07056273 -0.077590354 0.018617755
000230 e5 03 15 bd 73 d6 27 be e2 20 9b bd f2 9a b1 3e
       -0.036380667 -0.163904 -0.07574631 0.34688526
000240 1d b6 24 3c 44 f6 2c bd 23 a8 91 bc fe 79 22 bd
       0.010053185 -0.042227045 -0.01778037 -0.039667122
000250 7f 93 a2 bc 57 6b 14 3e 2c ab 0a be e1 60 e3 bd
       -0.019845722 0.14494072 -0.1354186 -0.111024626
000260 13 8a 2e 3e 4e 20 10 3e d8 f8 36 bd c9 f5 7a 3d
       0.17044859 0.14074823 -0.04467091 0.061269555
000270 c0 1e d1 bc ea 52 81 3d 51 46 4a 3e 1c b5 85 3d
       -0.025527358 0.06314643 0.19753386 0.065286845
000280 bb de b1 ba 83 87 e6 bd d5 35 8b bd 5d f4 2f bd
       -0.0013570407 -0.112563156 -0.06797377 -0.042957652
000290 b7 86 b1 3d 09 b6 dc 3d c2 13 57 ba c6 c7 fe 3c
       0.08668273 0.10776908 -0.0008204543 0.031101119
0002a0 c1 1b 69 3c de 89 15 3e 5d 8e a8 3c c6 c0 05 39
       0.014227808 0.14603373 0.020575697 0.00012755682
0002b0 dc d6 e8 3d 82 17 6f bc 78 35 0d 3e ff 91 c8 bd
       0.11369106 -0.014593007 0.13789928 -0.097934715
0002c0 d3 a4 5e 3d be 01 21 bd 6b 31 e4 3c aa 9d 11 be
       0.054356407 -0.039308302 0.027855596 -0.142203
0002d0 7d 34 1d bc 9e 7a ba 3c 8e 00 08 3e 9b 2d 05 be
       -0.009595034 0.022763547 0.13281462 -0.13005678
0002e0 6b 0b 6e 3d eb a4 89 bd c4 ea f7 bc 0d 5f 4f ba
       0.058116358 -0.06720909 -0.030263312 -0.0007910587
0002f0 4c d5 77 3b 07 8a 38 3d b4 ec 00 be 2e 01 c3 bc
       0.0037816344 0.045053508 -0.12590295 -0.023804273
000300 6a f0 ee 3c e5 99 ca 3b 6e 7c b2 bb 09 07 ba 3d
       0.029167373 0.0061828964 -0.005446962 0.09083373
000310 82 42 ce bd 33 f9 db bd 04 a2 ab 3d f0 73 c0 3c
       -0.10071279 -0.1074089 0.083805114 0.023492783
000320 27 1f dc bc 8d 9c a9 bd 70 61 62 bd 3f 4f 7f bd
       -0.026870323 -0.08281813 -0.055268705 -0.062331434
000330 76 bd b9 3c 07 9d 06 be 33 f6 8f bd 2b 99 dc bc
       0.02267335 -0.13145839 -0.07029381 -0.026928505
000340 c3 39 f5 bd 8e 52 05 3d 35 db 63 3d 89 6a c0 bd
       -0.11973908 0.032549433 0.055628974 -0.0939532
000350 33 36 f9 bc 16 59 f6 3c 8a 2a 73 bd 4e 1e df 3d
       -0.030421352 0.030071776 -0.05936674 0.10894452
000360 cb b4 a2 3d 56 3f 09 be 9c 7e 36 bd 4e 96 26 be
       0.0794464 -0.13403067 -0.044554338 -0.16268274
000370 82 d1 b4 3d 83 40 15 bd 63 60 0c 3c 7c 73 bc bd
       0.08829023 -0.036438476 0.008567902 -0.092017144
000380 d0 4a 5e 3b 21 17 8f bc eb 8c 40 3d 96 ea b5 3d
       0.0033919103 -0.017467083 0.04700939 0.08882634
000390 6d da 01 3d 5f c3 70 bd d3 ad 16 bc ac 12 c1 3d
       0.031702448 -0.05878007 -0.009196716 0.094273895
0003a0 0f 74 4c 3d 7a a1 de bd 09 31 65 3d 66 e2 c2 bd
       0.04991537 -0.10870643 0.055954967 -0.09515838
0003b0 08 c2 1d 3c cc 11 e6 3b ae 3d 23 3d 3c 39 b8 3d
       0.00962878 0.0070211645 0.039853744 0.089952916
0003c0 26 36 91 3c b3 f6 2b 3d da bc ec bd 83 fd 24 bd
       0.017726015 0.041983318 -0.11559458 -0.04028083
0003d0 68 65 aa bd a2 41 12 3d 27 e1 b3 3c ae ac 86 3d
       -0.08320123 0.035707124 0.021957947 0.06575905
0003e0 f5 b9 e0 3b 32 a5 23 bd 51 c1 77 bc 44 c9 87 bd
       0.0068581053 -0.039952464 -0.015121774 -0.06630185
0003f0 61 b1 99 3d f7 cb 40 be e5 25 9a 3d 93 27 1f be
       0.075045355 -0.18827806 0.07526759 -0.1554244
