results/ppo/FTG_RayReward 00/FTG_RayReward 00-5000013.pt (torch, 441207 bytes, 40 tensors)

discrete_act_size_vector f4 [1, 2]
000000 00 00 00 40 00 00 40 40
       2.0 3.0

network_body._body_endoder.seq_layers.0.weight f4 [128, 5]
000000 68 83 44 3e 53 40 00 3f 43 46 d5 3d 38 a0 16 be
       0.19190753 0.5009815 0.10413792 -0.14709556
000010 4f 61 ab 3e dc c3 30 3f f1 73 1a bd 62 76 1c 3f
       0.33472678 0.6904886 -0.037708227 0.6111814
000020 28 ee 0e 3f 77 76 5f 3d 4d 24 a3 bf dd 79 8b bf
       0.5583215 0.054556336 -1.2745453 -1.0896565
000030 f5 6e ee be 0a 2c 1c 3e 47 14 68 bf fb e9 2e be
       -0.46569028 0.15251175 -0.9065594 -0.17081444
000040 0e 45 5e bf 82 cb 45 be d3 3c ca be 90 e5 77 3e
       -0.8682412 -0.19315913 -0.3949953 0.24208665
000050 be a8 e5 be d7 89 c7 3e a8 9f 88 3e 61 c2 f8 bc
       -0.44855303 0.3897235 0.26684308 -0.030366125
000060 f2 9e d3 be df 49 62 3e ee af 57 3f 43 1e 18 3f
       -0.41332203 0.22098492 0.8425282 0.59421176
000070 28 39 1e bf 41 77 c2 3d 6f 69 25 bf 38 2d 5c 3e
       -0.61805964 0.09495402 -0.64614004 0.21501625
000080 dc de b8 bd 8f 0f 5e be f9 86 f2 be 14 68 19 3f
       -0.09026882 -0.21685623 -0.473686 0.59924436
000090 c7 a8 4c 3f 6e df 7b 3f d4 03 80 3f 1f c6 1d 3f
       0.79945034 0.983878 1.0001168 0.61630434
0000a0 0f 1e 94 bd 7e b7 4e 3e f5 5b d1 3e 93 e2 99 bf
       -0.07232296 0.20187184 0.4089047 -1.202227
0000b0 1b cf 2a be 4f 24 29 bf 5b 98 b6 3e 73 e6 be 3e
       -0.16680567 -0.6607103 0.35663113 0.37285194
0000c0 d2 fb 97 bd 91 bf c3 3e 71 d5 f6 3e 5e 0d 8f 3b
       -0.07421078 0.3823209 0.48209718 0.004365607
0000d0 9f 20 5d 3e 06 98 2d 3e e3 c9 00 bf cf ff 7e be
       0.21594475 0.16952524 -0.50308055 -0.2490227
0000e0 f1 17 07 3e 8c cd 9e be c8 a4 70 3f f9 11 57 3f
       0.13192727 -0.31016195 0.94001436 0.840118
0000f0 d3 b1 3f be a7 70 aa 3d 01 47 92 bd c5 3d e4 3e
       -0.18720178 0.08322268 -0.07142449 0.44578376
000100 99 6e d9 3e 85 e7 2b be a5 98 25 3f 79 70 25 be
       0.42467192 -0.16787536 0.6468604 -0.16156186
000110 8c 07 87 3c 76 c4 61 bd 01 21 ee 3e 05 dd a8 3e
       0.01648309 -0.055119 0.46509555 0.32981125
000120 05 44 ae 3e 47 55 ea be ad 31 1a be 00 6e 5b be
       0.3403627 -0.45768186 -0.15058012 -0.2142868
000130 62 a7 17 be ed aa aa 3e 51 84 84 3f 06 27 6c 3f
       -0.14809945 0.3333353 1.035288 0.92247045
000140 a0 38 87 bf 4e b7 2b 3e fc 53 ab be 06 f8 05 bf
       -1.0564156 0.16769144 -0.33462512 -0.5233158
000150 ea ea 9c 3d 0d c3 9d bc 15 40 4d 3f b6 e2 fc 3c
       0.07661994 -0.019258047 0.80175906 0.030869823
000160 30 c3 e4 be 8e 83 92 3e 8e 70 f4 3e fe dd 29 3f
       -0.44680166 0.28615993 0.47742122 0.6635436
000170 75 c1 38 be 9d a0 d3 3e 22 53 2e bf 38 4c 28 bf
       -0.18042548 0.41333476 -0.680956 -0.657413
000180 8b 63 13 3f 67 6e 9a 3e 18 95 5d bd f3 12 2c 3f
       0.57573766 0.30162355 -0.054097265 0.67216414
000190 80 18 04 be 21 0d 2e 3f 2e e7 ac be c8 af 73 3f
       -0.12899971 0.67988783 -0.33770126 0.95190096
0001a0 cf 32 68 be be f6 99 ba 9c c8 15 bf cd 58 9b 3f
       -0.22675632 -0.0011746509 -0.5850923 1.2136475
0001b0 9c aa 89 3e da 15 aa 3f df f7 c9 3e 0e d6 7c 3e
       0.26887977 1.3287919 0.39446923 0.2469103
0001c0 d0 ba 78 be 46 ec 43 3f 10 74 8a 3f 80 05 b2 be
       -0.24290013 0.765324 1.081667 -0.3476982
0001d0 74 c1 2b 3f 14 9d 8b 3e 4b 77 0e 3e e3 14 8b bd
       0.6709206 0.2726828 0.13912694 -0.06791093
0001e0 ec 71 0b 3f bf ec 72 3e 49 50 25 bf b1 a6 98 3c
       0.54470706 0.23723124 -0.6457563 0.018634172
0001f0 ff 95 4a bd 63 ed 3d 3d 8c 54 68 3f b4 5d e1 3e
       -0.049459454 0.046368968 0.9075401 0.44016802
000200 52 80 ba be 2e f1 d6 3d 33 3b 93 bb 98 9e 06 3f
       -0.36426026 0.1049522 -0.004493141 0.52585745
000210 92 4d 20 3e 5c c8 9a 3d 2c 06 c8 be 8d 4b b9 3d
       0.1565459 0.07557747 -0.3906721 0.09047613
000220 ef fa 4e bf f9 3d 2d be ca f9 55 3f 01 83 c4 be
       -0.80851644 -0.16918172 0.8358427 -0.38381198
000230 2a 6e b7 3e c0 0e 7a be ea b4 ab 3e 24 f2 cf bd
       0.35826236 -0.24419689 0.33536464 -0.101536065
000240 88 c7 db 3e ea 96 14 bf 09 0d 38 3e c6 c2 62 be
       0.42925668 -0.58042777 0.17973723 -0.22144613
000250 66 c0 02 3e bd 59 1c 3e f6 cf 22 3d d5 92 b7 3c
       0.12768707 0.15268607 0.03974911 0.022408882
000260 72 f6 d2 3e 5f ce 1f 3d f7 0e 85 3f 87 45 c8 3e
       0.41203648 0.03901517 1.0395192 0.39115545
000270 e8 46 78 bf 8d 00 3a 3e a7 90 85 be a8 6a d4 be
       -0.96983194 0.18164273 -0.26086923 -0.41487622
000280 55 74 ff 3e 95 dd 15 3f 49 10 d2 bc 59 51 94 3e
       0.49893442 0.5854123 -0.025642531 0.28968313
000290 c3 f2 34 bf f4 f9 6a 3e 6c 71 a0 be 99 b5 88 3e
       -0.70682925 0.22946912 -0.31336534 0.26701048
0002a0 20 f6 4f 3e 27 5d 6a be 4e 6b 81 be e0 6f 53 3e
       0.20308733 -0.22887097 -0.2527718 0.20648146
0002b0 33 04 e9 bd 7f de 23 3f 21 45 07 be 4e 44 0d 3f
       -0.11377754 0.6401138 -0.13209964 0.5518235
0002c0 57 70 94 3e 25 90 ab 3e b1 7f 47 be b8 d9 29 3e
       0.28991958 0.3350841 -0.19482304 0.1658696
0002d0 a4 3f e1 3e ea 34 f3 3c 39 c1 98 be 29 14 6d 3e
       0.43993866 0.029688317 -0.29834917 0.23152222
0002e0 28 63 a5 be bc 65 c4 3d d6 89 78 3e 14 5d 06 bf
       -0.32302213 0.09589717 0.2427133 -0.52485776
0002f0 75 6e 5d bf 62 53 68 bf 0d 0d 1e bf ce 0c 7b be
       -0.8649667 -0.9075223 -0.61738664 -0.24516603
000300 25 0f e5 3d 83 36 23 3c 41 c1 cc bd 1f 28 09 bf
       0.11184529 0.009961727 -0.09997798 -0.53576845
000310 2c af 7c bf 49 15 da 3e 7c 5c 48 3f fd b5 1c 3f
       -0.9870479 0.42594364 0.7826612 0.6121519
000320 9f ec 4a be 28 04 04 3e c2 3c 31 3c 47 81 d2 3e
       -0.19816826 0.1289221 0.010817708 0.41114256
000330 d9 e3 1a 3d 8d f5 c0 3d df 8e be bc f4 aa bc bd
       0.03781495 0.09421835 -0.023261486 -0.09212294
000340 f7 d2 10 3f a1 4e bc 3f 1d 45 08 be 9d 8c 47 bf
       0.56571907 1.4711496 -0.13307615 -0.77948934
000350 9c 8f 07 bf 08 cf 71 be 9a 77 46 3f 5f 6a 8b 3f
       -0.52953506 -0.23614132 0.7752625 1.0891837
000360 5f 31 90 bf 1a 53 49 bf 3b e9 37 bf 72 5b e7 bd
       -1.1265067 -0.7864243 -0.71840256 -0.11296739
000370 51 b7 a2 bc 72 d0 87 be ce 48 18 be fc c0 b3 3d
       -0.019862803 -0.2652622 -0.14871523 0.08777043
000380 15 46 59 be c4 2f 08 3e c4 18 2c bf 54 82 e9 bc
       -0.2121814 0.13299471 -0.6722529 -0.028504528
000390 31 b0 9e 3e b8 71 b3 3e 07 b0 14 bf a1 32 90 3e
       0.30993798 0.35047698 -0.58081096 0.28163627
0003a0 70 b8 39 be d1 24 5f bf 74 fa 4a bf e9 74 63 3d
       -0.18136764 -0.8716555 -0.7928841 0.055531416
0003b0 52 32 9e be 64 d2 0e 3d d9 3e 23 3e a9 16 b2 be
       -0.30897766 0.034868613 0.15941943 -0.34782913
0003c0 e9 57 bc 3e 0c db 6c bf a6 1d 4a 3e 99 44 f2 3d
       0.3678582 -0.9252174 0.19737872 0.1182949
0003d0 e7 6b 7d 3d b5 7f 55 bd 75 24 00 be 05 17 92 be
       0.06187048 -0.052123744 -0.12513907 -0.28533188
0003e0 d0 8a 2a be f6 fd 62 3f 3d d5 ad 3e 5b f8 51 bd
       -0.16654515 0.88668764 0.3395175 -0.05126224
0003f0 bc b3 9c bd 9f 35 ac be c9 ed 1f bf 16 64 5c 3d
       -0.07651469 -0.3363466 -0.62472206 0.053806387

network_body._body_endoder.seq_layers.0.bias f4 [128]
000000 87 e8 3c be 3c c3 da bd 5d d0 d0 3d b6 df 66 3e
       -0.18448077 -0.10681769 0.10195992 0.22546276
000010 1a 1a 4a 3d 7a 8d 49 3e 85 13 06 3e 80 b1 cb bd
       0.0493413 0.19682875 0.13093384 -0.09945965
000020 a6 a5 ae 3e 1a ac f5 bd c7 45 88 3e ac 51 3a be
       0.34110755 -0.119957164 0.26615736 -0.18195218
000030 4e 8d 59 be 37 96 0c bd e4 43 64 3e 66 36 37 be
       -0.2124531 -0.034322944 0.22291523 -0.17891845
000040 3e d5 a0 3c 3d 8c bb bc dc a3 ad bd bf 60 f5 bd
       0.019632932 -0.02289402 -0.08478519 -0.119813435
000050 db 5a df bd 73 7f 49 bd c3 d7 1c be a9 36 80 bd
       -0.10906001 -0.04919381 -0.15316682 -0.062604256
000060 db 07 14 be b5 7a 06 3e 79 49 21 3e 51 d7 ae bd
       -0.14456122 0.13132747 0.15750684 -0.08537162
000070 f4 77 60 3e 7a 75 17 be 1c 70 7b 3c a2 81 80 3e
       0.21920758 -0.14790908 0.015346553 0.25098902
000080 1c 02 5d bd b0 d5 42 be 10 d9 2e be 37 0f f8 bd
       -0.05395709 -0.19026828 -0.1707499 -0.12112277
000090 1e 99 88 3d 82 a7 8e 3e fe 6c 05 be c6 d7 91 bd
       0.0666983 0.27862173 -0.13029858 -0.07121234
0000a0 cb 6a 59 be b7 8f 3e be 86 6b 3d be 6d 4e bc 3d
       -0.21232145 -0.1860951 -0.18498048 0.09194646
0000b0 8d b8 0f 3e 2f 76 10 be cb 4b 2c 3e db 23 f1 3d
       0.14035244 -0.14107583 0.16825788 0.11774417
0000c0 04 ce aa 3d 36 30 fe 3c 9b 46 9f 3e 74 fa 6f bd
       0.083400756 0.031028848 0.31108555 -0.05858846
0000d0 53 0d 49 be 56 58 8a 3e 19 76 2a be 96 25 d5 3c
       -0.19633989 0.2702052 -0.16646613 0.026018899
0000e0 2b 4b 4a be a7 4f 7b 3d 5e be d4 bd 29 0b 9b bd
       -0.19755237 0.06135526 -0.10387872 -0.07570488
0000f0 78 7e 4d bd bb cb 7f 3e 28 b3 9e 3e 53 09 9a 3e
       -0.050169438 0.24980061 0.3099606 0.3008524
000100 9f 24 e3 3d 7b d6 b3 bd c9 fe 76 3e 6b 6a 1c be
       0.11090969 -0.08781143 0.2412063 -0.1527497
000110 65 ba d5 3d f5 dd 13 be 2e 05 68 be e0 b5 18 be
       0.104359426 -0.14440139 -0.22658226 -0.1491313
000120 99 f9 e1 bd 32 05 49 3e 8d c8 a4 3a c4 d7 32 be
       -0.11033935 0.19630888 0.0012571976 -0.1746512
000130 9b d1 40 be 33 de 0b 3e 3e f3 ea 3d 16 68 30 3e
       -0.18829958 0.13658981 0.11472176 0.17227206
000140 ed 51 ac bd 70 24 38 3d 71 1d 45 be c1 e3 7a 3e
       -0.084140636 0.044956625 -0.19249512 0.24500944
000150 46 6d 39 be 0c a9 c4 bd 73 41 c4 bc 80 65 9d 3e
       -0.18108091 -0.09602556 -0.02395699 0.307415
000160 43 46 9b 3c 09 9d de bd d4 e6 d0 bd 17 36 f0 bd
       0.018954402 -0.10869796 -0.10200277 -0.11729067
000170 dc ee b1 3e 3b 6c cc bd 37 09 32 3e 9d a2 0f 3e
       0.34752548 -0.09981581 0.17386328 0.14026876
000180 ad 49 02 bc f7 9c 94 3b 60 97 fb 3d a7 84 b8 3d
       -0.007952136 0.004535313 0.12284732 0.090096764
000190 f4 1c 63 3e d6 ec 79 3e 36 e0 1d be 48 bb 4b 3e
       0.22179013 0.24406752 -0.15417561 0.19895661
0001a0 a8 fd eb bd da 8f 01 be e0 79 5d be cc a3 19 be
       -0.115229905 -0.12652531 -0.21628523 -0.1500389
0001b0 fd 48 c4 bc 9a c2 07 3e 7a 7d ea 3d 51 6c 24 be
       -0.023960585 0.13257828 0.11449714 -0.16056944
0001c0 66 29 0a be 49 81 6a 3e 3a 77 86 3e f0 3f b7 3d
       -0.13492355 0.22900881 0.26262838 0.08947742
0001d0 ae 44 b0 3d 13 cd 1e be 8c b8 87 bd 8c 31 2b 3e
       0.086068496 -0.15507917 -0.066269964 0.1671812
0001e0 65 3a 59 bd 99 bd f3 bd 07 ed f3 bb ae 4b 08 3d
       -0.053034205 -0.11901397 -0.0074440273 0.0332753
0001f0 c6 83 36 be 36 e1 ab 3e af 9b 93 bd a3 97 26 be
       -0.17823705 0.3357026 -0.07207429 -0.16268782

network_body._body_endoder.seq_layers.2.weight f4 [128, 128]
000000 bb 56 86 3e b8 95 9b bd 77 3a ba bd 19 e3 2a 3e
       0.26238045 -0.07596916 -0.090931825 0.16688193
000010 b0 1f 7e ba 0e 60 b7 bd 0f 22 ac 3d a4 ca 96 3c
       -0.0009694053 -0.08953868 0.08404934 0.018407173
000020 18 e3 19 3e 93 f5 b8 3d b3 03 09 3d 50 c3 5f bd
       0.15028036 0.090312146 0.033450793 -0.054629624
000030 b7 8f 69 bd 73 d6 16 bd 86 8e 1a 3e 3c 99 b9 bc
       -0.057021823 -0.03682561 0.15093431 -0.022656076
000040 f1 a5 28 bd ed 17 5d 3d 84 c8 a7 3d 4d a1 d9 3d
       -0.04117388 0.053977896 0.08192542 0.10626469
000050 f1 6e 20 3a e2 d0 98 3d 75 fc 08 be 55 ab 01 be
       0.0006120047 0.07461716 -0.13377555 -0.12663014
000060 e8 5e 8f bd 50 5e fa 3b cd 95 b8 bb 1a a8 ae bd
       -0.07000524 0.0076406375 -0.005633092 -0.085281566
000070 e5 28 b8 bd 8f ce 94 bd bd 62 4e bb 79 0f 59 3e
       -0.08992175 -0.072659604 -0.0031491958 0.21197309
000080 ee 98 bf 3d b1 23 2b bd f8 ef 51 be 3a 01 c2 bd
       0.09355341 -0.041782085 -0.20501697 -0.0947289
000090 e1 70 5e 3e 27 4d 41 3e 76 91 07 bd 43 59 d0 bd
       0.21722747 0.18877088 -0.033097707 -0.10173275
0000a0 b9 b9 85 be b6 f2 2d be f6 48 1f be bd c9 2d 3e
       -0.26118258 -0.16987118 -0.15555176 0.16971488
0000b0 d8 3d 10 3d 20 1b 97 3d a6 ef f4 3d c6 c2 33 3e
       0.03521523 0.073782206 0.11959772 0.17554769
0000c0 99 b9 d4 3d 85 12 30 bd 40 be da 3d 27 b7 00 3e
       0.103869624 -0.04298641 0.106808186 0.12569867
0000d0 63 94 85 bd 63 5e 52 bd 1b 94 03 be 87 16 ec 3d
       -0.06522443 -0.051359545 -0.12849467 0.11527734
0000e0 d7 04 e9 3d 5f 61 d2 bc 8d 82 cb 3d 92 63 64 bd
       0.11377876 -0.025681196 0.0993701 -0.05575902
0000f0 57 fb 1b bd 73 a1 d7 bc 41 80 0b bd 2a 4c 95 3d
       -0.038081493 -0.026322102 -0.03405786 0.07289918
000100 5b 20 c1 3d 43 cc 0c be b2 b8 35 3c 23 c6 23 3d
       0.094299994 -0.13749795 0.011091398 0.03998388
000110 be 15 c9 3b df 5b 98 bc 80 6e b3 be eb f0 a0 bd
       0.006136625 -0.018598495 -0.35045242 -0.078584515
000120 64 f2 ee bd 30 ab 1b 3e 31 e5 87 bd 60 b1 37 3d
       -0.11667326 0.15202022 -0.06635512 0.044846892
000130 e8 e1 78 bc cd 16 fa 3d f1 09 39 bd eb 3a 25 3e
       -0.015190579 0.1221138 -0.045175496 0.16135757
000140 0b b9 b9 bd 52 ff 8d bb 7d 0e 32 3d 04 35 36 bc
       -0.09068497 -0.004333415 0.04347085 -0.011121038
000150 a8 d1 1e be c2 e5 26 3c 78 7d bd 3d e1 3b bc 3d
       -0.15509665 0.0101866145 0.09252447 0.091911085
000160 ef 82 18 3d fa c8 00 bd cc b5 e8 bd d9 36 13 3d
       0.037234243 -0.031441666 -0.113628 0.03594098
000170 45 af 29 3e 87 d5 09 3e 8b 33 32 bc 7d f4 63 3d
       0.16570766 0.1346036 -0.010876547 0.055653084
000180 66 52 79 38 66 8e d8 bd 09 fb f7 3d 49 79 92 3b
       5.9442966e-05 -0.10574035 0.12108428 0.0044700247
000190 dd 9a 99 3d fe b3 8d 3d ef 18 f2 bd 33 8c 3e 3e
       0.07500241 0.069190964 -0.11821162 0.1860817
0001a0 49 2d ba bc 0d a3 d1 3c 8b fc 52 3e 0d 12 06 be
       -0.022726672 0.025590444 0.2060415 -0.13092823
0001b0 00 d0 8a bd da a2 85 bc 0b 96 fa 3d d1 4d a3 bd
       -0.06777954 -0.016313005 0.1223565 -0.07973827
0001c0 2c 91 3b bd 81 34 27 be 09 66 07 3d 35 c4 eb bd
       -0.045792744 -0.16328622 0.033056293 -0.11512033
0001d0 f2 ea 33 3e 0e ce 86 3d 6a 4c 28 bd e1 f5 57 be
       0.17570093 0.065822706 -0.0410885 -0.21089889
0001e0 a3 6a 70 bd b8 67 81 3d e8 6a 89 3c 68 5c 3b bd
       -0.058695447 0.06318611 0.01677461 -0.045742422
0001f0 9e 9a 2a bd 72 71 9f 3d b2 11 d2 bd 32 27 2d 3b
       -0.04165136 0.0778531 -0.10257281 0.0026421067
000200 47 12 ee bd 33 81 b9 3d 1a 0a 44 be 10 ee c9 3c
       -0.1162458 0.09057846 -0.19144478 0.02464965
000210 f9 4c ee 3d 9b d1 ed 3c 22 9b ae 3d 6d 4f a1 3a
       0.11635775 0.029030612 0.08525683 0.0012306996
000220 40 17 41 3c 03 b1 b8 3d 06 0d a4 bd ad 0e e2 3c
       0.011785328 0.09018137 -0.080102965 0.027594889
000230 7a 0f 25 3c cb 90 5f bb 38 96 76 3e 4d a4 56 be
       0.010074491 -0.0034113403 0.24080741 -0.20961113
000240 65 e7 12 bc d4 ea ac bc 88 72 56 3d fd f3 e5 3d
       -0.008966302 -0.021108069 0.05235532 0.11228178
000250 ce 2a 0f 3c e3 de e8 bd 43 a9 28 3e 5e 4d d8 bc
       0.008738233 -0.11370637 0.16470818 -0.026404079
000260 bd fc 12 bd 77 27 cf 3c 0a 65 5c bd 29 c8 c2 3d
       -0.03588556 0.025287373 -0.053807296 0.09510834
000270 e0 e4 9f bd e3 a3 c0 3d 9d 8d 43 bd d6 8d aa 3d
       -0.07807326 0.09406259 -0.047742475 0.08327834
000280 eb c7 87 bd 00 0c a6 3d 2f 26 40 3e e7 a8 30 3d
       -0.06629928 0.081077576 0.18764566 0.043129828
000290 fb 6a 4d bd ea 7d 3b be b1 2a 60 3d 73 5a 8a bd
       -0.050150853 -0.18309751 0.054728214 -0.06755533
0002a0 25 ed be bc 50 bf 24 bc 50 d8 47 39 10 c4 17 be
       -0.023306439 -0.010055378 0.00019058702 -0.14820886
0002b0 c3 99 9d bd 8d de 07 3e 12 2f 28 3e 82 a6 02 3d
       -0.07695343 0.1326849 0.16424206 0.031897075
0002c0 6b 32 bb 3b 60 6d 9f bd f6 45 d6 3c f5 b1 fd bb
       0.0057127974 -0.077845335 0.026156407 -0.0077421614
0002d0 99 5c 2f 3d 7d 3f cf 3d 3c 70 84 bc 5c b0 e6 3c
       0.042812917 0.10119531 -0.016166799 0.028160267
0002e0 7f 2a 6e bd 89 a0 89 bd a1 df 26 bd c0 f4 54 3e
       -0.058145996 -0.06720073 -0.040740613 0.2079649
0002f0 14 5c 06 3e f5 f2 fc bd 08 e2 d7 3d aa 32 8a 3b
       0.13121063 -0.12351028 0.10541159 0.0042174654
000300 3d 47 33 3e d9 fe 2f 3e cf a0 38 be 02 4f c5 b9
       0.17507644 0.1718706 -0.18030094 -0.00037633633
000310 c5 81 a6 3d 66 ad 3a bd af 75 12 3d c1 d4 52 3e
       0.0813022 -0.045575522 0.035756763 0.20588972
000320 6c a6 ad 3b 35 f2 03 be 49 3b ec 3d 41 f4 a7 bc
       0.00529938 -0.12885363 0.11534745 -0.020502212
000330 ae 2d a3 3d d5 4d c5 3d b3 3a 32 3b af 4b 8f 3d
       0.07967697 0.09633986 0.0027195632 0.069968574
000340 83 99 12 3e 43 c3 f8 3d e1 12 c2 3d 3a bb e5 3d
       0.14316373 0.12146618 0.09476257 0.11217351
000350 f6 bb 76 bd 05 07 1d 3e 81 05 e0 bb b7 f1 e6 bd
       -0.060237847 0.15334709 -0.0068365936 -0.11276572
000360 5f 94 53 bd c8 60 2d 3d d4 2f 23 3d 0c b3 d4 3c
       -0.05165517 0.042328626 0.039840534 0.025964282
000370 4a 7b eb 3d e8 10 6f 3d bc 89 8e 3d 2c 19 5b 3e
       0.11498125 0.058365732 0.069598645 0.21396321
000380 0c 61 be bd 97 95 91 be 7d 94 0a be b1 f3 b8 bd
       -0.09295854 -0.2843444 -0.13533206 -0.090308554
000390 9a a0 e0 3d e9 0e bb bc 13 85 2c 3d 3c d4 aa bd
       0.10968132 -0.022834258 0.042119097 -0.08341262
0003a0 18 4d 7a 3c f7 e9 18 3d c9 c3 4e 3e fb eb 17 be
       0.01527717 0.0373325 0.20191874 -0.14836113
0003b0 e9 83 0c 3e ed 9d d4 bd 60 1f 84 3d 38 40 7a bd
       0.13722195 -0.103816845 0.06451297 -0.0610964
0003c0 8d fb b2 3d 00 a3 86 bc 66 99 a1 3d cb 05 27 3d
       0.08739386 -0.016435146 0.078905866 0.04077701
0003d0 ae 32 b4 bd 58 4b 0d 3e 74 17 f3 3d 3a 28 9f bd
       -0.08798729 0.13798273 0.11869708 -0.077713445
0003e0 77 0b cc 3b a9 a1 76 3b 2b ef df 3c 8b 53 a5 bd
       0.0062269527 0.0037632978 0.027335724 -0.08072575
0003f0 01 ef 09 3e 41 52 dc bc 75 3e 97 bd f7 d0 ff 3c
       0.13470079 -0.02689469 -0.073849596 0.031227572

network_body._body_endoder.seq_layers.2.bias f4 [128]
000000 e7 ce 65 3e 25 9f 2e be 61 b2 36 be 9e 2c 89 3e
       0.22442208 -0.17052896 -0.17841484 0.26791853
000010 e1 b7 1d be 32 0f b9 bc 7a 75 70 3e d9 95 26 be
       -0.15402175 -0.022590254 0.23482314 -0.162681
000020 bf 49 19 be 4d dc 91 3e 89 30 f0 3c 99 da 3c be
       -0.14969538 0.2848839 0.029320018 -0.18442763
000030 fd c8 a3 3e 69 c9 ee bd 9e dd 34 be 2e 01 7d 3e
       0.3198928 -0.1165951 -0.17662665 0.24707481
000040 e9 59 f4 bd 03 a9 1d be 41 b4 96 3e b8 ee 45 be
       -0.119312115 -0.15396504 0.29434398 -0.19329345
000050 5f bc 2c be 33 fe 30 be 7b 08 11 3d e4 15 c2 bd
       -0.16868733 -0.1728447 0.03540848 -0.094768316
000060 c9 37 1b be 31 72 10 be 4b 9b 04 be 42 07 2c be
       -0.15157999 -0.1410606 -0.12949865 -0.16799644
000070 d0 e0 3e 3e fb 4c 25 be 39 e8 27 3e 78 49 27 be
       0.18640447 -0.16142647 0.1639718 -0.1633662
000080 ef 63 38 be 98 a0 02 be db 08 42 be 4d 15 92 3e
       -0.18006872 -0.12756574 -0.1894869 0.28531876
000090 46 0d c9 3d f3 e3 1c be 28 5d f1 bd 17 57 33 be
       0.09816985 -0.1532133 -0.11785346 -0.17513691
0000a0 51 fd c9 bd f0 27 5e 3e 5e 09 81 3e 51 c9 36 be
       -0.098627694 0.21694922 0.2520246 -0.17850234
0000b0 8a b1 39 bd 30 e5 34 be a5 2e 8b 3e 2e b8 a1 3e
       -0.04533533 -0.17665553 0.27184024 0.3158583
0000c0 8e 1b 21 be f6 c1 09 be c7 b1 b0 3e 85 c1 11 be
       -0.15733168 -0.13452896 0.34510633 -0.14233978
0000d0 18 b7 48 3e 0d 4b a5 3e 56 4d 89 3e a1 d1 22 be
       0.19601095 0.32283822 0.26816815 -0.1590028
0000e0 85 a7 04 be fc ea 9a 3e 28 2c 0e be 26 ce 8f bb
       -0.12954529 0.30257404 -0.13884032 -0.0043885885
0000f0 10 7b 89 3e 39 19 3a be 37 86 fc bd 30 4e c0 bd
       0.26851702 -0.18173684 -0.12330287 -0.09389913
000100 aa 0a 25 be c5 33 16 be 40 55 63 be 00 3b 75 3e
       -0.1611735 -0.14668186 -0.22200489 0.23948288
000110 3a 44 10 3e 43 e6 09 be b5 e7 b9 bd 2e 32 ab bb
       0.14088526 -0.13466744 -0.09077398 -0.0052244877
000120 9a 67 33 3e bc 8e e3 bd 47 6b 88 3e 15 1e 18 be
       0.1751999 -0.11111209 0.26644346 -0.14855225
000130 b1 86 65 3e 0e 5b c3 3d 23 52 1f be 39 41 29 be
       0.22414662 0.09538852 -0.15558676 -0.16528787
000140 df 93 31 3e 9f cf 7a 3e 45 b1 23 be 2f 73 35 be
       0.17341565 0.24493264 -0.15985592 -0.1771972
000150 8a a1 9b 3d 6d d8 8f 3d 07 34 45 be ac 56 7b 3d
       0.075991705 0.07023702 -0.19258128 0.061361954
000160 69 7f 40 be 64 5c 1d be 2d 6b 65 3d 8c 23 da 3d
       -0.18798603 -0.15367275 0.056010414 0.10651311
000170 93 c5 1e be 4b 37 bc 3d cd d0 55 3e d6 c4 07 3e
       -0.15505056 0.09190234 0.20880432 0.1325868
000180 7e 01 4e 3e 2b 1a 00 be 2c 7b 11 be 82 8f 62 be
       0.20117757 -0.12509982 -0.14207143 -0.22125056
000190 f8 4d 33 be 5b c9 e5 bd f1 c2 9e 3e e7 12 89 3e
       -0.17510211 -0.11220046 0.31008103 0.26772234
0001a0 86 13 20 be 67 45 2d be 5a 1b 0c be 2c f1 16 be
       -0.15632448 -0.16921006 -0.13682309 -0.14740437
0001b0 03 db aa bd cc ae 22 be 4c e8 25 be e2 b9 02 be
       -0.083425544 -0.15886992 -0.16201895 -0.12766221
0001c0 e3 05 28 be 5e 4e 23 be d1 a6 7a bd dc 56 67 bd
       -0.16408496 -0.15947863 -0.061194245 -0.05647932
0001d0 db 4b 5c 3e 6b 4c 15 be fd ec 05 be fb a8 30 be
       0.21513312 -0.14579932 -0.13078685 -0.17251961
0001e0 a7 65 8f 3e 59 11 20 be b1 9e 46 be 36 97 4a bd
       0.28007242 -0.15631618 -0.19396473 -0.049460612
0001f0 b2 4b 2d be ae 87 7b 3d 62 f3 00 be 95 af 32 be
       -0.16923407 0.06140869 -0.12592843 -0.17449792

action_model._discrete_distribution.branches.0.weight f4 [2, 128]
000000 e9 2a 81 bd 2d dd 70 3c 27 11 5e 3d ac d4 29 be
       -0.063070126 0.01470117 0.054215576 -0.16585034
000010 5b b7 f4 3d 4a 51 62 bd e0 7c f1 bd 7e d6 c1 3c
       0.11949035 -0.055253305 -0.11791396 0.023661848
000020 d2 9a 03 3d fe 83 1c be 2b d7 17 bc e1 48 14 3d
       0.03213007 -0.15284726 -0.009267609 0.036202315
000030 ea c5 2e be 94 66 93 3c 45 19 ce 3c b8 d1 3e be
       -0.17067686 0.017993249 0.025158534 -0.18634689
000040 4f 8a bf 3c 49 3c 84 3c 18 92 9e bd b9 45 10 3e
       0.02338138 0.016142027 -0.07742709 0.14089097
000050 de 11 90 3c 96 aa 09 3e 40 eb 0d bd fc 58 36 bd
       0.017586645 0.1344398 -0.03464818 -0.044518456
000060 b1 21 9b 3d df 09 56 3d 86 fd 64 3d a3 bb fc bb
       0.075747855 0.052255508 0.05590584 -0.0077127977
000070 cf 81 0a be 93 cf 2c 3d 6a aa e3 bd d8 6b 13 3c
       -0.1352608 0.042190146 -0.11116488 0.00899788
000080 2c de d9 3c 29 87 32 3d e2 4d 45 bd 4d 25 20 be
       0.026595198 0.04358593 -0.048169978 -0.15639229
000090 d3 3e 0a be 0b f8 c2 b8 86 aa 4e bd 0d 65 55 3d
       -0.13500528 -9.2968425e-05 -0.050455593 0.052098323
0000a0 07 5c 03 3d 09 9b a3 bb f0 ae 07 be d7 ca 4b 3c
       0.032070186 -0.004992847 -0.13250327 0.0124384975
0000b0 b6 e7 40 bd e9 cf 06 3d b5 0a 1b be 8a 06 0a be
       -0.047095977 0.032913122 -0.15140803 -0.13479057
0000c0 0d f0 06 3d 5a e4 ba 3b d2 4f a7 bd 72 ef a6 3c
       0.032943774 0.005703491 -0.081695214 0.020377848
0000d0 46 c0 9d bd 94 98 13 bc b7 a4 9b 3c df 84 fa 3c
       -0.07702689 -0.009008545 0.01899944 0.030580936
0000e0 79 af 16 3e 34 d3 02 be 35 d3 eb 3b 1c d3 48 bd
       0.14715375 -0.1277588 0.0071968087 -0.049029455
0000f0 a6 bd e0 bd d6 7d 15 3d 8c e8 8d bd 83 74 77 3b
       -0.109736726 0.03649696 -0.069291204 0.0037758655
000100 4b 81 4f 3c c2 4c fb 3c 7a b0 16 3e 2a 2d 00 bd
       0.012665103 0.03067625 0.14715758 -0.03129307
000110 9f a9 cd bd 73 f8 04 3d 33 96 dc bc c2 8a 93 3c
       -0.10042118 0.032463502 -0.02692709 0.0180105
000120 aa c6 a4 bd fb 56 15 3e 9c b5 4f bd 80 e5 3f 3c
       -0.08045705 0.14583962 -0.050710306 0.011712432
000130 4d 5a 10 bd 60 77 d9 bd f1 0b 1e 3d b4 c3 86 3c
       -0.035242368 -0.10618472 0.038585607 0.01645074
000140 2f c4 dd bc 20 0a 00 3d d1 8d ab bc a7 27 c5 3c
       -0.027071087 0.031259656 -0.020941647 0.02406676
000150 c9 df d8 bd c3 67 8d bd 8a cf 0a 3d b0 fc f6 bc
       -0.10589559 -0.069045566 0.03388933 -0.030149788
000160 84 58 bd 3d e8 0e 8c 3b 3b a0 21 bd f7 f5 91 bd
       0.09245399 0.004274238 -0.03945945 -0.07126992
000170 b9 9c da b9 f2 76 2a bd f2 95 69 bd 6a fe d4 bd
       -0.00041696968 -0.04161734 -0.057027765 -0.10400088
000180 88 2b d8 bd d8 75 91 3c 3e 1d dc bb b2 65 e8 3c
       -0.10555178 0.017756388 -0.006717353 0.028368805
000190 34 22 4d bd 02 bb f5 bb 7e a7 37 bd 4b a7 07 be
       -0.050081447 -0.0074990997 -0.044837467 -0.13247411
0001a0 76 f6 19 3d 72 11 7c 3d 07 38 8d 3d 4b 77 21 3d
       0.03758856 0.061540075 0.06895452 0.039420407
0001b0 5c ec 77 3c 80 91 c1 3c b2 f0 8a 3c 1f 93 2b 3d
       0.015132036 0.02362895 0.016960476 0.041888352
0001c0 2e a0 0d bc a6 d3 61 3d ce 99 62 bd 3a cf 8c 3c
       -0.008644147 0.055133484 -0.05532246 0.017188657
0001d0 ce e6 02 be 38 44 9c 3c 2c 68 06 3d 2f 0c b3 bc
       -0.12783358 0.019075498 0.03281419 -0.021856396
0001e0 61 bd 2f be 3a da 2e 3d 9a 98 2e bd 93 02 22 bd
       -0.17162086 0.042688586 -0.042626 -0.039553236
0001f0 2d d1 cc 3b 70 a8 48 3c b4 81 0d 3d 6f 14 e0 3c
       0.0062505216 0.01224719 0.034547523 0.027353493
000200 51 52 2a 3d 3a 6e ca 3b a4 1a 05 bd 48 bf 28 3e
       0.04158241 0.006177691 -0.03249611 0.16479218
000210 6d d9 cd bd b1 8e 5e 3d 64 08 f0 3d b8 83 57 bc
       -0.10051236 0.0543353 0.117203504 -0.013153963
000220 be 4e f2 bc a2 f8 2a 3e cc b3 5d 3c e7 88 1e bd
       -0.029578563 0.16696408 0.013531636 -0.03870478
000230 a3 92 34 3e b9 52 8d bc 9a 7f 6f bd e6 86 30 3e
       0.17634062 -0.01725136 -0.0584713 0.1723896
000240 98 0f b7 bc 76 97 8d bc 70 9c a8 3d 91 86 11 be
       -0.022346303 -0.017284136 0.08232963 -0.1421149
000250 5f cb a8 bc 92 f1 13 be 21 a1 31 3d f9 ce 61 3d
       -0.020604787 -0.1444762 0.043366555 0.055129025
000260 69 cc ac bd ca 77 3c bd e2 72 a0 bd fd d2 b6 3c
       -0.08437426 -0.046012677 -0.07834412 0.022317404
000270 2a 1e 00 3e 0a cc e9 bc a0 45 fc 3d 27 96 54 3c
       0.12511507 -0.028539676 0.123179674 0.012975252
000280 9c b3 38 bd a4 87 31 bc 00 de a7 3c fd 18 13 3e
       -0.045093164 -0.010835562 0.0204916 0.14365001
000290 83 e6 13 3e 43 7f a0 ba 7e 0d 80 3d 76 3d 20 bd
       0.14443402 -0.0012244958 0.062525734 -0.039121114
0002a0 92 62 2c bd 9d 85 de ba 8e ab fa 3d 69 2e 51 bc
       -0.04208619 -0.0016977076 0.12239753 -0.012767413
0002b0 d0 b9 55 3d e3 73 1a bd bf 0d 0f 3e 72 5a 01 3e
       0.052179158 -0.037708174 0.13970087 0.12632158
0002c0 1e 99 0c bd c3 10 6c bc 74 41 96 3d 13 11 90 bc
       -0.03432571 -0.014408293 0.07336703 -0.017586267
0002d0 14 3a b5 3d 0e db f7 bb b1 7d 84 bb 3a b3 13 bd
       0.08848968 -0.007563955 -0.004043304 -0.036059596
0002e0 05 c4 27 be 9a a6 11 3e 64 11 05 bc cd 31 4b 3d
       -0.1638337 0.1422371 -0.008121822 0.04960804
0002f0 a1 86 0c 3e bd 9b 17 bd d1 6c 12 3d 12 0d 19 bc
       0.13723232 -0.037013758 0.035748307 -0.009341495
000300 5b 19 1e bd 6d ad 65 bc b0 41 fb bd f8 b4 09 3d
       -0.0385984 -0.014018399 -0.12268388 0.03361985
000310 8d 87 ba 3d 8b 55 8d bc e1 1d 01 3d 3f 7f 24 bd
       0.091078855 -0.017252704 0.031522635 -0.040160414
000320 2a cf c2 3d 22 40 20 be dd 88 29 3d a3 5a 95 bc
       0.0951217 -0.15649465 0.04139029 -0.018231696
000330 05 ee 15 3d f2 9f ba 3d a1 87 2e bc f8 53 07 bd
       0.036603946 0.091125384 -0.010652454 -0.033039063
000340 1a ad ce 3c f8 00 7e bc 86 f0 38 bc 04 10 90 bc
       0.025229026 -0.015503161 -0.011287814 -0.017585762
000350 cb 38 cd 3d fd a2 1c 3d 31 34 92 bc 04 6d cd 3c
       0.10020598 0.038241375 -0.017847152 0.025076397
000360 b4 eb a8 bd 55 f9 c0 bc 77 cf 23 3d 62 c8 84 3d
       -0.08248082 -0.02355639 0.039992776 0.064835325
000370 2b 87 fa bb 30 5c 28 3d 64 ea 5b 3d 9e f9 c5 3d
       -0.007645508 0.04110354 0.05369033 0.09666751
000380 7d f9 ab 3d 14 90 90 bc 1b 0d 79 bc 95 75 99 bb
       0.083971955 -0.017646827 -0.0152008785 -0.0046832063
000390 a3 a5 28 3d be f1 fa ba 6e ce 4e 3d 8f 07 1d 3e
       0.04117359 -0.0019145531 0.050489835 0.15334915
0003a0 e7 a0 3c bd 59 82 8a bd a8 a0 8c bd 0f c6 6c bd
       -0.046051886 -0.06763143 -0.0686658 -0.05780607
0003b0 9c ba 72 bc e9 e8 f2 bc a1 df 42 bc d7 83 28 bd
       -0.014814999 -0.029652076 -0.011894138 -0.041141357
0003c0 06 aa 83 3c da 0d 3b bd e7 4e 5d 3d 89 69 49 bd
       0.016072284 -0.045667507 0.054030325 -0.04917291
0003d0 1f 8c 0b 3e d1 92 33 bb 45 18 f2 bc 2f a2 30 3c
       0.1362767 -0.0027400742 -0.029552588 0.010780855
0003e0 2e 1e 23 3e 3c 06 5f bd cc 89 d5 3c 31 5d 2b 3d
       0.15929481 -0.054449305 0.026066683 0.04183692
0003f0 33 75 96 bb 8f 82 09 bd 25 4a f4 bc 5d de 11 bd
       -0.004591608 -0.033571776 -0.029820511 -0.035612453

action_model._discrete_distribution.branches.0.bias f4 [2]
000000 17 9f d0 bd 1d 9f d0 3d
       -0.10186594 0.101865984

action_model._discrete_distribution.branches.1.weight f4 [3, 128]
000000 fd c8 69 bd fd cc 71 bc 7d 93 c7 ba 4b 77 3b bd
       -0.057076443 -0.014758346 -0.001522645 -0.045768064
000010 23 2c 19 3d 18 1e 0e 3e d2 c7 53 bd e5 e2 c0 bc
       0.037395608 0.13878667 -0.051704235 -0.023545692
000020 3b 3e bd 3b a7 a9 4f bd 63 f1 91 bd a9 e6 7d 3d
       0.0057752407 -0.050698902 -0.07126119 0.061987553
000030 73 4c 91 bd 4f 67 fb bc 74 7e f7 3a d6 97 23 bd
       -0.0709466 -0.03068891 0.001888229 -0.039939724
000040 7c e8 89 bd e5 05 04 3b 10 0e 78 bd ad 3b b8 3d
       -0.06733796 0.0020145115 -0.060560286 0.08995757
000050 74 18 83 3b 99 99 d1 3d 69 cc 91 3c fd 49 15 3d
       0.004000718 0.102343746 0.017797666 0.036447514
000060 37 db 17 bd 56 ef 55 bd 8a e6 2d 3d 09 76 1d 3d
       -0.037074294 -0.0522302 0.042456187 0.038442645
000070 bd 6f 28 bd e9 64 b3 bc b1 5f 96 bc 5b d5 30 3b
       -0.041122187 -0.021898704 -0.018356176 0.0026982639
000080 3e 57 b3 bc 44 25 17 bc 77 3b 9b 3d 86 21 4e bd
       -0.021892186 -0.009225193 0.075797014 -0.05032494
000090 eb 49 39 3e 3a f2 46 bc ed db 23 3e f9 46 76 3d
       0.18094604 -0.012142712 0.16001864 0.06012628
0000a0 02 05 81 bc c0 4e 91 bc 5e 57 43 bd cb 24 00 3d
       -0.015749458 -0.017737746 -0.04769074 0.03128509
0000b0 a0 ac 45 bc 99 79 f7 3a ed 65 1e bd 84 c3 85 bd
       -0.012065083 0.0018880843 -0.038671423 -0.06531432
0000c0 54 7f 65 bb e9 c6 46 bd 87 9d ab bd d6 19 51 bb
       -0.003501852 -0.04852954 -0.08379655 -0.0031906269
0000d0 18 a5 2a bc 61 78 41 bd 2c 42 0a bd be 58 e9 bb
       -0.010415338 -0.047233943 -0.033754513 -0.0071211746
0000e0 11 cc d1 3d 57 af 5b bd f7 f1 74 bc f1 0f 22 3e
       0.10244001 -0.053634014 -0.014950267 0.15826394
0000f0 18 2c 65 bd 2e 73 35 3d eb 02 1a 3e 3c 41 1c bc
       -0.055950254 0.044299297 0.15040176 -0.009537037
000100 da 84 03 bd f4 b5 04 bd e0 02 a8 3d 97 a7 3b bd
       -0.03210912 -0.032400087 0.08203673 -0.045814123
000110 bc 62 ed 3b 8d 21 2d bd 39 02 a6 3d 3e 2b 0f 3d
       0.007244436 -0.042268325 0.08105893 0.03495335
000120 e4 40 14 bd 02 44 c8 3d df c2 4c bd 32 f0 1e bd
       -0.036194697 0.097785965 -0.04999053 -0.038803287
000130 de b5 7a 3d d8 0a 27 bd ff 2c 11 bd 20 5f b2 bc
       0.0612086 -0.040781826 -0.035443302 -0.021773875
000140 96 df ab bc a6 94 4a bd 76 9c 16 3d ce 1e 3f bc
       -0.020980638 -0.04945817 0.036770307 -0.011665059
000150 95 c1 41 3e 2c bd a6 3d 89 c1 d7 3c bc 7c 7e bd
       0.18921502 0.081415504 0.026337402 -0.062130675
000160 64 89 72 3d 6f af eb bc ae 04 27 3e 8e af fa 3d
       0.059213057 -0.028770177 0.16310379 0.12240516
000170 27 1a 1c bd d1 5e 93 3d 41 c3 2e bd b3 f8 0b bd
       -0.03811088 0.07195819 -0.042666677 -0.034172725
000180 8c 79 2c bd b2 5d 5f bc fe a1 77 3d a7 fd cd 3c
       -0.042108104 -0.013633179 0.060457222 0.025145365
000190 05 23 22 3e 63 ae b2 ba 3e d6 72 bd 14 8b 54 bd
       0.15833671 -0.0013632294 -0.05928635 -0.051890448
0001a0 ff 9b 29 bd 8a 88 c2 3c 56 64 4d 3d 71 36 60 bd
       -0.041408535 0.023746748 0.050144516 -0.05473942
0001b0 fd 8f 92 bd aa ee 14 3c 35 0e 39 bb da 4f 63 bd
       -0.0715637 0.009090105 -0.0028237228 -0.055496074
0001c0 18 67 9e 3d d8 b0 9b 3d 86 3b 2f 3e 26 db 6e 3d
       0.07734507 0.0760209 0.1711255 0.058314465
0001d0 5b d8 48 bd 12 6f 2d bd cc 84 19 bd 69 91 79 3c
       -0.049034458 -0.042342253 -0.03748016 0.015232422
0001e0 cc 62 9b bd 67 b1 bf bc cd 92 17 3e 9f 37 22 3e
       -0.075872034 -0.023400022 0.14802094 0.1584153
0001f0 89 26 9f 3c f8 ac 37 bd ef b9 1b bd b3 e5 4d 3d
       0.019427555 -0.04484269 -0.038019117 0.050267886
000200 17 2f 9e bc 80 25 b0 3d cb ac b6 3d f9 24 ee bc
       -0.019309564 0.086009026 0.089196764 -0.029070364
000210 4a 5a a7 3d aa e3 d0 bd 85 ea 15 bd a8 9a b7 3d
       0.08171518 -0.101996735 -0.03660061 0.08965045
000220 2a d3 19 3d 01 ab 95 bd 1f 39 1c 3d 77 f7 97 3d
       0.037554897 -0.07308007 0.038140412 0.07420247
000230 b7 ad 4e bd 70 00 ca 3d 9c 22 b7 3d 7a 2c 0b bd
       -0.050458636 0.09863365 0.08942148 -0.033977963
000240 36 9b f8 3d 2c 1c b9 3d c7 ec 0d bd 1f 6e 84 3e
       0.12138979 0.090385765 -0.034649637 0.25865266
000250 2b f7 96 3d f2 5f 7c 3e 35 21 0e bc 9d 50 2f 3d
       0.07371362 0.24645975 -0.008674909 0.04280149
000260 59 36 1a 3e e8 06 06 3e 9a 68 ad 3d a0 76 1c 3d
       0.15059794 0.13088572 0.08467217 0.038199067
000270 1b 52 dd bb 34 33 dd 3d 1d 34 4c bc f6 c0 58 3d
       -0.0067541725 0.10800782 -0.012463597 0.052918397
000280 25 65 af 3d b5 3b 86 3d 82 6a 01 bb 81 62 42 bd
       0.08564214 0.06554357 -0.0019747321 -0.047457222
000290 a4 48 21 be 80 9e 9d 3d fc 9d b1 bc 56 87 b5 3d
       -0.15750366 0.07696247 -0.021681778 0.08863704
0002a0 c7 28 4f 3d 22 31 9d bd c9 54 0e bc 50 a8 15 3d
       0.050575998 -0.07675387 -0.008687207 0.03653747
0002b0 80 53 04 3d c3 bc 6c 3d d3 ba 6b bd 58 c6 4c bd
       0.032306194 0.057797205 -0.057551216 -0.049993843
0002c0 5f 60 96 3d 42 a9 c6 3d 4e 4e bb bd 83 9f 02 3d
       0.073426 0.09700252 -0.09145795 0.031890403
0002d0 5b ed 19 bd fc d6 c0 bd cd 9b b6 bd ff 60 d3 3d
       -0.037579875 -0.09416005 -0.089164354 0.10321235
0002e0 86 a8 63 3e b0 fb e2 bc 4d 3e a7 3d 36 71 11 be
       0.22232255 -0.027707905 0.0816618 -0.14203343
0002f0 5d 6a 1f bd 1e 25 b4 3d 62 b8 a1 bd f7 64 c0 3d
       -0.038919795 0.08796142 -0.07896496 0.093942575
000300 7b 55 a3 3d 86 8f f7 3d fa ce 85 3e fe 5e 66 bd
       0.079752885 0.12087922 0.26134473 -0.056242935
000310 eb 08 e4 bc 3f 4e ad 3d d8 75 24 bd db 64 32 3d
       -0.027836284 0.0846219 -0.040151447 0.043553215
000320 6a 1d 8f bc e4 77 5c 3e 20 44 10 bd 7f 39 be 3d
       -0.01747008 0.2153011 -0.03522122 0.0928831
000330 90 dd 02 be eb a0 ae 3b 78 9a b3 3d 71 a2 9e 3d
       -0.12779832 0.0053292415 0.08769697 0.07745827
000340 ba 04 63 bd 42 5a b3 bd 1c 3e fd 3c 78 a8 87 3d
       -0.05542443 -0.0875745 0.030913405 0.0662393
000350 64 83 20 be 02 a1 80 bd 2a 88 c8 3d e6 68 c8 3c
       -0.15675122 -0.0628071 0.09791596 0.024464082
000360 d2 f3 bb 3d ce 69 ab 3d e3 c9 11 be 99 5f 1c be
       0.091773644 0.0836979 -0.1423717 -0.15270843
000370 47 de ad 3d 00 66 8e bd 8f 6e d3 bc 31 33 a1 bc
       0.08489662 -0.06953049 -0.025809554 -0.01967773
000380 53 c0 48 bd 5b 5b 5b 3d 15 e8 f6 3d da 24 5e 3d
       -0.04901154 0.05355392 0.12055985 0.054234363
000390 04 69 83 bd 08 a8 e2 3d 00 61 f7 bd 58 a8 39 bd
       -0.064165145 0.11067206 -0.12079048 -0.04532656
0003a0 1f b9 09 3e 83 18 e4 3d a0 22 c6 3d 0d ca d4 3d
       0.13449524 0.11137488 0.09674573 0.10390101
0003b0 eb 6a ed 3d fc 99 b1 3d da de 8c 3d 59 8a e0 3d
       0.115926586 0.08671948 0.06878443 0.10963888
0003c0 1c 18 22 3c 2a 48 fa 3d bb 4b d1 bd a3 6d a4 3c
       0.009893443 0.122207955 -0.102195226 0.02007181
0003d0 8e 55 15 3a a6 26 95 3d 55 cb dd 3d 17 a5 a8 3d
       0.00056966476 0.07282762 0.10829798 0.082346134
0003e0 2b df 4f bd b6 6b d3 3d fd 78 f1 bb 98 33 dc bd
       -0.05074994 0.103232786 -0.0073691593 -0.10752028
0003f0 5c 3f 9e 3d ed b9 54 ba 7d 43 d7 3d c3 63 11 3e
       0.077269286 -0.00081148633 0.10510919 0.14198212

action_model._discrete_distribution.branches.1.bias f4 [3]
000000 1a be c2 bd bf 06 08 be e1 44 6b 3e
       -0.09508915 -0.13283823 0.22975494

exp_avg f4 [128, 5]
000000 56 15 b1 39 97 d0 75 39 49 e5 a1 b7 c4 cc ee 38
       0.00033775967 0.00023442727 -1.9299465e-05 0.00011386865
000010 bf fc 2f 38 88 4e 95 38 ee bf 06 3a 34 e0 10 38
       4.195864e-05 7.119501e-05 0.0005140294 3.454108e-05
000020 84 cf c2 39 f7 1a 0f 39 cc ff 64 39 84 30 ab b8
       0.00037157175 0.00013647588 0.00021839066 -8.162952e-05
000030 a4 14 f3 b7 8c b7 77 38 38 3f 86 37 98 7e 32 38
       -2.8977469e-05 5.906033e-05 1.6003483e-05 4.2556407e-05
000040 67 7e 25 39 e4 37 af 37 53 c2 3b 37 91 5b 91 36
       0.00015782715 2.0887652e-05 1.1191313e-05 4.3319965e-06
000050 00 b2 d5 39 c2 d6 7f 38 1a 56 99 b8 3c d7 5d 38
       0.00040759146 6.0996746e-05 -7.311646e-05 5.289096e-05
000060 33 a2 17 37 f8 9f 92 b7 1d e5 99 39 0b fd 6d 38
       9.038066e-06 -1.7479048e-05 0.00029353137 5.6740868e-05
000070 20 98 a9 38 f4 ab fc 37 20 5f 76 39 b0 fb c1 37
       8.0868835e-05 3.0120813e-05 0.00023495825 2.3124594e-05
000080 0b a2 a8 b8 c2 dd 5c b8 c3 44 cc b7 20 e0 05 b7
       -8.041047e-05 -5.2658615e-05 -2.4350715e-05 -7.979601e-06
000090 fe 02 7e 39 00 b9 14 33 70 b8 3f b8 e9 5c 84 b7
       0.00024224442 3.4627192e-08 -4.570972e-05 -1.577889e-05
0000a0 5e a2 37 ba a2 68 89 b9 c7 e1 e7 39 ae 18 c6 37
       -0.00070050906 -0.00026208634 0.0004422797 2.3614932e-05
0000b0 1a e8 03 37 8a 8e 95 39 b8 5d 15 b9 9c 41 41 b9
       7.862249e-06 0.00028525695 -0.0001424466 -0.00018430356
0000c0 60 be 20 38 9f 4f 18 37 bc b6 4f 39 5a 34 23 39
       3.8324273e-05 9.078444e-06 0.00019809132 0.00015564394
0000d0 ab 08 fe 36 ec 40 8a 39 46 53 ce 38 55 a9 24 36
       7.570799e-06 0.00026369782 9.838356e-05 2.4536469e-06
0000e0 e9 f0 07 b9 a2 51 a2 b9 30 81 00 b9 f6 04 44 b8
       -0.0001296435 -0.0003095987 -0.00012255157 -4.673466e-05
0000f0 94 f5 4a 37 6e ac f3 b8 7f cc 74 b9 be 54 d1 b8
       1.2097316e-05 -0.000116192605 -0.00023345834 -9.981681e-05
000100 e4 23 1c b8 34 d1 db 39 82 01 47 39 4c b8 64 b8
       -3.7226724e-05 0.00041926804 0.0001897868 -5.4531076e-05
000110 4e 37 0e 39 86 2b 4c 38 b8 6b f0 38 df 2c 9b 39
       0.00013562778 4.8677924e-05 0.00011464156 0.00029597335
000120 21 2a 80 36 d2 84 24 39 a5 73 7e 38 14 d6 45 b8
       3.8196017e-06 0.00015689738 6.066602e-05 -4.7167836e-05
000130 60 b1 3e b9 d2 2d 59 b9 50 f1 08 b9 f6 f7 48 b8
       -0.0001818589 -0.00020711802 -0.00013059867 -4.7914647e-05
000140 c2 09 87 39 0e bd 6e b7 81 4e c2 b8 47 1f 8b b8
       0.00025756477 -1.4229923e-05 -9.265263e-05 -6.633862e-05
000150 b3 8f f0 b7 bf ff 96 39 41 a1 3b 39 f8 07 4b b6
       -2.8677145e-05 0.00028800775 0.00017893781 -3.0253996e-06
000160 a8 29 80 38 3c 64 c1 37 74 a1 20 3a 69 f0 11 3a
       6.111275e-05 2.3054068e-05 0.0006127574 0.0005567135
000170 29 49 8f 38 7a 95 f9 39 5d 35 39 39 03 e3 70 39
       6.8323985e-05 0.0004760435 0.00017662854 0.00022972752
000180 93 e7 8a b8 41 e6 3e b9 2c ce da 37 7e 74 dc 36
       -6.623487e-05 -0.00018205588 2.6083631e-05 6.5700724e-06
000190 b9 ff 24 3a 45 c4 1c 39 0d 73 d0 b8 7f 8e b9 39
       0.0006294209 0.00014950435 -9.939643e-05 0.00035392118
0001a0 cc 53 04 39 30 f4 fc b9 9e 11 94 b9 d3 2a 8f b8
       0.00012619718 -0.0004824712 -0.00028241886 -6.826748e-05
0001b0 b6 11 04 ba 5a 80 3e b9 6a bb 86 b9 42 8d 51 39
       -0.00050380395 -0.00018167627 -0.00025698106 0.00019984416
0001c0 04 8b d3 b8 b4 01 98 b9 47 27 da b8 e4 6b 4b 3a
       -0.00010087158 -0.00028992968 -0.00010402366 0.00077599124
0001d0 4b 38 48 39 64 4d 6f b8 e0 9b 8b 39 e4 fa ba 38
       0.00019094457 -5.7054116e-05 0.00026628282 8.915903e-05
0001e0 d3 ea 24 39 8d 30 71 39 cc ef a5 34 fa 88 16 39
       0.00015727738 0.00023001638 3.090812e-07 0.00014356142
0001f0 62 f1 65 38 dd aa 44 39 57 b1 80 39 4c 77 63 38
       5.482266e-05 0.00018755668 0.0002454619 5.423212e-05
000200 6c 33 76 38 4b d7 b2 37 b3 4c 83 39 ed 8f 92 39
       5.869886e-05 2.1319507e-05 0.00025043412 0.00027954523
000210 b4 85 a3 38 9f 96 5f 39 94 b6 a0 38 ea ff d8 b8
       7.79735e-05 0.00021323048 7.663402e-05 -0.0001034735
000220 84 06 21 3a 9d 26 b0 b8 2c 1e cd 39 9e a2 14 39
       0.00061426335 -8.399526e-05 0.00039123127 0.0001417496
000230 d2 03 71 b8 7b 5f a2 37 e1 67 c0 b7 c7 b9 2e b8
       -5.7462436e-05 1.9356366e-05 -2.2936556e-05 -4.165785e-05
000240 f1 3e 7f b7 84 a0 d1 39 e7 85 0d b9 bd 16 ab b9
       -1.5213839e-05 0.0003998318 -0.0001349669 -0.00032632603
000250 84 bf 08 37 84 e7 ba b5 ce 66 9c ba 8b 30 20 ba
       8.150822e-06 -1.392546e-06 -0.0011932494 -0.0006110749
000260 e6 ea 94 b8 b6 63 91 ba 68 f8 d2 b9 8d c0 11 39
       -7.100943e-05 -0.0011092338 -0.00040239398 0.00013900008
000270 3c 8d 4e 39 31 69 06 b8 31 88 f5 38 70 65 38 38
       0.00019698305 -3.2046057e-05 0.00011707878 4.396349e-05
000280 b2 a6 0c 3a 98 e0 0e 3a 42 c3 44 38 4e a4 e4 39
       0.0005365416 0.0005450337 4.691189e-05 0.00043609965
000290 c7 39 29 39 68 5c 92 38 8c d2 db 39 8c 2c d3 b6
       0.0001613862 6.9790345e-05 0.00041927805 -6.293476e-06
0002a0 77 30 e0 39 eb 6f 23 39 38 ed 35 3a 00 aa 7d 34
       0.00042760718 0.00015586584 0.00069399504 2.3624307e-07
0002b0 78 a8 87 b9 83 dc ae 39 c6 8a f2 38 30 dd f0 38
       -0.00025874726 0.0003335216 0.00011565308 0.00011485291
0002c0 f0 c3 f0 39 e9 fe 66 b7 e9 be 22 39 20 30 75 38
       0.00045922352 -1.3768419e-05 0.00015520644 5.845737e-05
0002d0 58 16 ca 39 92 32 f2 39 1e 97 24 37 7e 60 fa 39
       0.0003854509 0.00046195515 9.8103465e-06 0.00047755608
0002e0 44 57 3c 39 44 9a 10 39 86 74 a6 b9 c6 78 f1 39
       0.00017961586 0.00013790379 -0.00031748804 0.00046057085
0002f0 cb d5 04 38 5c 1d 37 37 fa fc 87 39 ca df 43 b9
       3.1670363e-05 1.0914486e-05 0.0002593769 -0.00018680017
000300 20 3b 99 b9 68 20 0b 36 0e de a8 b6 88 e2 8f b8
       -0.00029226486 2.0731477e-06 -5.0326407e-06 -6.860966e-05
000310 97 6e 13 39 2c 9b 3b b9 72 cc ed b7 e6 45 45 b7
       0.0001406021 -0.00017891516 -2.8347804e-05 -1.17583895e-05
000320 57 11 e5 39 37 5e 9d b8 51 ca 9f b9 f6 6b a5 38
       0.00043691203 -7.503892e-05 -0.0003047758 7.8879224e-05
000330 1a 5c cd 37 05 51 54 ba 75 d7 a2 b9 24 a3 57 b9
       2.4480792e-05 -0.0008099231 -0.00031059576 -0.00020564772
000340 07 c8 53 ba 03 77 9a b9 6e 9f a0 b9 ae 71 18 39
       -0.00080788176 -0.0002946184 -0.00030636362 0.00014538199
000350 2e c2 0f b9 c0 01 c6 b7 24 f7 12 b7 98 92 41 38
       -0.0001370988 -2.3604254e-05 -8.75982e-06 4.6151312e-05
000360 56 89 a4 39 8a 00 81 b8 97 ef c8 38 80 43 30 38
       0.0003138284 -6.1513e-05 9.58137e-05 4.2024534e-05
000370 33 5e 07 39 67 a5 d1 37 85 98 15 38 4a fc cc 38
       0.00012909695 2.4991763e-05 3.5666413e-05 9.7744705e-05
000380 28 5c 12 38 04 26 4b b9 f4 b3 9e 39 66 61 a0 b8
       3.489494e-05 -0.0001937375 0.00030270184 -7.6475364e-05
000390 03 97 dc 38 97 e4 24 38 bf ac f5 37 b1 1a cb 38
       0.000105185456 3.9313538e-05 2.9286717e-05 9.684766e-05
0003a0 78 cd d6 38 8c bf 93 b6 97 5f c4 b5 b2 70 2e 39
       0.00010242587 -4.4032404e-06 -1.4630958e-06 0.00016635915
0003b0 ab 59 1a 39 c6 29 79 37 f9 4f 5a 39 80 f4 9d 38
       0.00014719988 1.4851283e-05 0.00020819892 7.531885e-05
0003c0 c4 85 28 38 15 36 93 39 aa 6a c5 b7 56 4c 27 39
       4.01789e-05 0.0002807832 -2.35339e-05 0.00015954798
0003d0 24 0f 7a 38 da 64 41 ba 0a 3c ca b9 98 54 22 37
       5.9618746e-05 -0.0007377394 -0.00038573175 9.6756485e-06
0003e0 6f 03 27 ba 68 a0 7c b9 2c dc f6 38 eb 08 9d b8
       -0.0006371056 -0.00024092349 0.00011771204 -7.4880045e-05
0003f0 aa 69 b4 38 50 c6 6b 37 4e 5e c6 36 c1 e6 6d b8
       8.60275e-05 1.4053265e-05 5.9118383e-06 -5.672011e-05
