results/ppo/FTG _ten_00/FTG _ten_00-4999980.pt (torch, 441207 bytes, 40 tensors)

discrete_act_size_vector f4 [1, 2]
000000 00 00 00 40 00 00 40 40
       2.0 3.0

network_body._body_endoder.seq_layers.0.weight f4 [128, 5]
000000 da 0f 46 3d 89 9c f6 3e d3 60 f4 be a4 08 75 bf
       0.04835496 0.48166302 -0.4773012 -0.9571631
000010 a2 4d c2 bd 09 0d 8f be 77 2c f6 3e 57 42 9a 3e
       -0.094874635 -0.27939633 0.480808 0.30128738
000020 27 22 7b be d1 56 c6 bd e1 51 8f 3c 0c 1b 28 be
       -0.24524747 -0.09684528 0.017495098 -0.16416568
000030 ab dc bb bc fe 4b 9b 3c f2 f8 32 3f 99 1d dc 3e
       -0.022932371 0.018957134 0.6991111 0.4299133
000040 54 ae 14 3f 28 24 1b 3d 3a 4b 0e be 84 90 18 3e
       0.58078504 0.03787628 -0.13895884 0.14898878
000050 cf b3 55 be f1 5d 96 be 71 b3 5c be 25 83 4b 3f
       -0.20869373 -0.29368547 -0.21552826 0.79496986
000060 47 a1 38 3f 91 86 58 3e 8b a4 cd be 27 5e 2e be
       0.7212109 0.21145083 -0.401646 -0.17028104
000070 68 e2 53 bb 04 be 37 3f ab fe ea 3e 80 77 12 bf
       -0.0032330994 0.71774316 0.4589742 -0.5721359
000080 bf 63 fa be ae 6b 73 be a5 43 d3 be c4 e5 3d bf
       -0.48904225 -0.23771545 -0.41262546 -0.7417872
000090 2b 72 49 3e 0e d4 6e 3e 9e f7 2e be a1 a8 a2 3d
       0.19672458 0.2332308 -0.17086646 0.0794232
0000a0 e9 10 f9 3e 5e 62 d9 3d 67 8c 24 3e 3d b7 f9 3e
       0.48645714 0.10614465 0.16069184 0.48772612
0000b0 5e 66 6b be 4b 81 86 be 18 c5 cd 3e 07 42 18 be
       -0.22988269 -0.26270518 0.40189433 -0.14868937
0000c0 ed 7d 71 3f 83 a6 f0 3e bc 74 fb bd a1 41 50 3e
       0.9433277 0.47002038 -0.12278125 0.20337535
0000d0 34 74 f3 bd 6a e5 8a bd 4c ef ca bb 40 52 24 3f
       -0.11887398 -0.067820385 -0.006193077 0.64188004
0000e0 07 a9 5c 3e 27 7d a3 3e d3 3e 34 3d 11 f0 97 3f
       0.21548854 0.3193142 0.044005226 1.1870137
0000f0 a0 d5 82 3f 2b 4d 1b be e1 db 05 bf 38 cb 06 3e
       1.0221443 -0.15166156 -0.52288634 0.1316346
000100 2d fc 80 bf 80 c4 c1 be 73 d6 65 bd c1 bb ac be
       -1.0076958 -0.3784523 -0.056112718 -0.33736995
000110 44 65 b5 be 68 da be be 73 69 50 bd 29 98 ab 3d
       -0.35428822 -0.37276006 -0.050881814 0.083786316
000120 34 e2 8f 3f 43 14 da 3d e7 a3 36 bf b4 3e f3 3e
       1.1240907 0.10648396 -0.71343845 0.47508776
000130 33 b8 2e 3e eb e1 34 bf f3 8e 2e 3f be 99 af be
       0.17062454 -0.70657223 0.68186873 -0.34296983
000140 b6 ed 72 3e 90 be 22 bf 41 6b 87 be bd 2c 0c be
       0.23723492 -0.63572025 -0.26449016 -0.13688941
000150 90 48 91 3e 89 41 aa be dd 35 a3 3e 7f c4 46 be
       0.28375673 -0.33253124 0.31877032 -0.19410895
000160 47 4a 1e 3f 36 d9 b0 be 8c 65 d5 3d b7 af 1e 3f
       0.6183209 -0.3454072 0.10419759 0.6198687
000170 96 e1 e6 3c 41 d3 8b 3e 99 8f 9e be 3e 15 8d be
       0.02818374 0.2730961 -0.3096893 -0.2755527
000180 94 45 da be 7c ca 8c be a1 e2 95 be f1 e2 02 bf
       -0.4263121 -0.27498233 -0.29274467 -0.51127535
000190 f3 9c 34 bd e9 cc 07 be 8b cb 7d 3e e3 db 41 3e
       -0.04409499 -0.13261761 0.24784677 0.18931536
0001a0 c3 75 0e be a7 0d 9f 3e 2a 55 c5 be 1c c0 98 be
       -0.1391211 0.31065103 -0.38541538 -0.29834068
0001b0 13 2f b2 3e 15 f3 36 bd 46 b8 50 bf f8 f9 44 3e
       0.3480154 -0.044665415 -0.8153118 0.1923598
0001c0 61 10 1c bf 76 cf 0d 3e ab 22 a1 3e a8 fe ca 3e
       -0.6096249 0.13848671 0.31471762 0.39647412
0001d0 1a e2 c9 be da bc 2f bc 82 9c fb 3d af 0b 06 3f
       -0.39430314 -0.010726178 0.12285711 0.5236158
0001e0 2e d6 a5 3e 0d a1 b3 be 76 dd 6b bd 97 9e 47 3c
       0.3238997 -0.3508381 -0.05758425 0.012183807
0001f0 83 61 ef 3e cc 26 9f 3e 90 b5 42 3e c8 c9 54 3f
       0.46754083 0.31084287 0.19014573 0.83120394
000200 dc 06 26 bf 21 15 68 3e ee 6b 0a 3d 88 5e be 3e
       -0.64854217 0.2266431 0.033794336 0.37181497
000210 99 a6 3a bd c1 03 8e 3e c3 5b 3d bd 30 c0 c8 be
       -0.045569036 0.2773724 -0.04623009 -0.39209127
000220 19 9f 0b 3e 06 01 1c 3e 40 27 3a be f9 80 5a be
       0.1363491 0.15234765 -0.18179035 -0.21338262
000230 49 68 25 3f ce c2 91 be f4 97 83 bf 02 8c d8 3e
       0.6461225 -0.28468937 -1.0280747 0.42294317
000240 15 c6 ab be 57 af 0c bf f6 9d 84 3d 58 1f 89 be
       -0.33549562 -0.5495505 0.06475441 -0.26781726
000250 13 a5 d5 3e e6 4e 0e bf e9 be 56 3e 67 11 0a 3e
       0.41727504 -0.5558914 0.20971264 0.13483201
000260 02 d9 27 3e 96 ca b8 3e dd 47 9c 3e 67 a5 1f be
       0.16391376 0.3609206 0.30523577 -0.1559044
000270 47 43 1a 3e 4c 70 93 bf 4a 8c b7 3e 1e e4 f2 3b
       0.15064727 -1.1518645 0.3584922 0.0074124476
000280 24 cf 96 be 81 8b 7d bd 42 2a af 3e 84 f2 b4 3e
       -0.2945491 -0.06190062 0.34211928 0.35341275
000290 99 5a 4e 3f e7 f1 98 3e e2 81 4c bd ba b4 c8 be
       0.8060699 0.29872057 -0.049928553 -0.39200383
0002a0 63 2b 87 bd 8b bb b2 be ac 08 de 3e 1b 3c 63 3e
       -0.06600072 -0.3490871 0.4336599 0.22190897
0002b0 c0 15 cf be c2 00 8a be 1c 81 07 be 1f 90 f0 3e
       -0.4044628 -0.26953703 -0.13232845 0.46984956
0002c0 31 da 66 3e b9 12 b4 be 29 5a 04 3f 30 28 1f 3f
       0.22544171 -0.35170534 0.51700073 0.62170696
0002d0 3d f8 0c bc 6b e9 b1 3e 49 40 eb 3e 21 b9 84 3e
       -0.0086041065 0.34748396 0.45947483 0.25922492
0002e0 68 08 9b 3e 39 28 f5 be 60 10 e9 3e 0d 30 80 3f
       0.3027985 -0.4788225 0.45520306 1.0014664
0002f0 fa 1a 29 bf ff e4 11 be f4 a3 b8 bd 78 d8 d0 bd
       -0.6605679 -0.14247511 -0.090156466 -0.10197538
000300 4f 57 31 3e 50 bd ff 3d c7 7b 3d 3f 8f a1 1f bf
       0.17318462 0.1248728 0.74016994 -0.62355894
000310 60 8b 26 3e 44 6f 34 3f dc f2 a4 bd 3d 62 04 3f
       0.16264105 0.7048228 -0.08054134 0.517124
000320 54 7a 29 3e 26 92 bb be fd 7e 11 3f 1c 80 e7 3e
       0.1655057 -0.3663494 0.56834394 0.45214927
000330 e3 bc 0e 3d 10 62 44 3f 8b 4a 40 be 7c ca 53 3e
       0.034848105 0.7671213 -0.18778436 0.2068271
000340 39 68 c6 3e 13 93 be bf 28 54 f7 bc 11 72 3d 3f
       0.3875139 -1.4888633 -0.030191496 0.74002177
000350 57 c1 6d bf 89 ec af bf 1c 99 67 bf a6 31 e6 3d
       -0.9287314 -1.374406 -0.90468 0.112399384
000360 5b 09 4e 3e 43 3d af be 31 c9 02 3f c2 10 0a 3f
       0.20120756 -0.34226426 0.51088244 0.5393182
000370 4c b2 54 be f9 39 a7 3e 55 4b 49 bd d0 36 18 3f
       -0.2077114 0.32661417 -0.049144108 0.5945864
000380 69 5c cc bd ce fc 10 bf b4 10 9a 3e 08 57 8b 3e
       -0.09978563 -0.5663575 0.30090868 0.27214837
000390 4c 1d 39 3f e8 ba cb be ad 47 9f 3e ac 3f 01 bf
       0.7231033 -0.39791036 0.31109372 -0.5048778
0003a0 fe ec ac 3e 4d ba 13 3f a1 1a c5 be ae 50 3d bf
       0.3377456 0.5770615 -0.3849688 -0.7395123
0003b0 9d 7c 03 bf d2 46 2c bf 44 85 90 3e f0 09 eb 3d
       -0.5136202 -0.67295563 0.28226674 0.11476505
0003c0 4a 71 f6 3e 3b b2 f2 3e 15 30 d8 3d 03 14 e8 be
       0.48133308 0.47401604 0.10556046 -0.45327768
0003d0 b9 d7 95 3d 89 59 bb be e0 d4 1d 3f 7e 1d 1b bf
       0.073165365 -0.36591747 0.61652946 -0.60591877
0003e0 c7 d6 c7 3d eb b9 d5 3b 51 29 92 be ff c8 f5 3e
       0.097577624 0.0065224073 -0.28547147 0.4800491
0003f0 a9 f0 0a bf 0b f8 29 3f e0 0b fc 3d fa e6 69 bd
       -0.5427347 0.6639411 0.123069525 -0.057105042

network_body._body_endoder.seq_layers.0.bias f4 [128]
000000 37 5d 3a 3e b0 1a fd 3d 85 30 d4 bd 4d 0a bd bd
       0.18199621 0.12358606 -0.10360817 -0.0923048
000010 72 1f cc bd 50 f0 cc bd ee 17 9f 3d 7b c0 b2 bd
       -0.09966935 -0.100067735 0.07768236 -0.08728119
000020 62 12 a2 bd 69 d2 a2 bd ac 56 3f 3d 69 81 01 be
       -0.079136625 -0.07950289 0.046713516 -0.12647022
000030 a2 a6 b6 bd 29 32 2e 3e e4 fa 84 3e da 6a 63 bd
       -0.089185014 0.17011322 0.25972664 -0.055521823
000040 c7 4a 3b 3d b8 2e 16 bd 41 3f b1 bc 02 ba ae 3d
       0.04572561 -0.03666565 -0.021636607 0.08531572
000050 23 5f 27 3e 44 86 23 be 65 30 5b bc db 8b ff bc
       0.16344886 -0.15969187 -0.013378237 -0.031194618
000060 7b 6f 01 be 8a e2 22 3e 29 e3 fb bc 12 fa d9 3d
       -0.12640183 0.1590673 -0.030747967 0.106434
000070 8b 83 9a bd 28 b3 4c 3d fe 9c 07 be 38 fc 11 3e
       -0.07544621 0.049975544 -0.13243482 0.1425637
000080 24 62 d9 bd 35 49 36 3c 9e 47 27 be 10 6b bd bd
       -0.10614422 0.011125852 -0.16335914 -0.09248936
000090 65 67 4b 3d 37 ac 46 3e 1e 26 23 bd 92 85 e2 bc
       0.04965915 0.19401632 -0.039831273 -0.027651582
0000a0 5d 86 a7 bd 6b 4f d6 3d fb f1 4a 3e 23 38 80 bd
       -0.08179925 0.104643665 0.1981887 -0.06260707
0000b0 33 0e 09 bd a2 35 17 bd 9a 6f 40 ba 76 19 a3 bc
       -0.033460807 -0.036916383 -0.00073408487 -0.019909602
0000c0 61 28 10 be ab 3b 13 3e 92 c4 b6 bc c8 76 84 bd
       -0.14077903 0.1437823 -0.022310529 -0.06467968
0000d0 9d 98 98 3c 66 d9 2c 3d 0f 07 45 3e 8e 27 bd bd
       0.01862746 0.042199515 0.19240974 -0.0923606
0000e0 19 d0 96 3d 79 83 49 3e 35 a7 e6 3d d3 dd 85 bd
       0.0736391 0.19679059 0.11262361 -0.0653645
0000f0 95 81 27 bd 77 b5 b5 bd 4f 32 9d bd 29 39 3b be
       -0.040895063 -0.08872502 -0.07675611 -0.18283524
000100 60 72 fb 3d 3a f3 75 bd 91 58 77 3d 49 c7 0b bd
       0.12277675 -0.060046412 0.060387198 -0.0341256
000110 c2 0b 8b bd 80 86 b2 bd 72 8c 94 bd a8 75 54 3d
       -0.06789352 -0.0871706 -0.0725335 0.05187002
000120 b8 14 98 bd 8f 58 bd 3d be 0c 13 3d 7d 58 2b 3e
       -0.07425827 0.09245407 0.035900824 0.16732974
000130 17 c7 4c bd 8f 86 61 bd 94 14 b5 bd 92 d4 dc 3d
       -0.049994554 -0.055059966 -0.088418156 0.10782732
000140 7e 31 96 3e d8 7b be bc 8f 7c 47 3e c1 24 bd 3d
       0.29334635 -0.023252413 0.19481109 0.09235526
000150 57 d0 d8 bd 32 76 ca 3d a4 d4 ca bd 69 39 92 3e
       -0.10586613 0.09885825 -0.09903839 0.28559425
000160 83 c6 9b bc 81 11 62 bd db 98 87 3e bd 4a 26 bd
       -0.019015556 -0.055192474 0.26483807 -0.04059862
000170 e9 f7 8a 3e c4 0b 92 3e 78 ba ac bd 79 01 1d 3e
       0.27142265 0.285246 -0.084340036 0.15332593
000180 4a 3a 11 3d 0e 7d f0 bc 8e fe 0b bd f7 ba fd 3d
       0.03545598 -0.029356506 -0.03417831 0.12389176
000190 8e 79 06 bd 1c 67 1e 3e c5 5c 40 bd 8e 77 a8 3d
       -0.032830767 0.1546902 -0.046963472 0.08225928
0001a0 6e 6a 08 be 67 fe 0f 3d de f5 1f be 28 27 7d 3e
       -0.1332185 0.035154726 -0.15621135 0.24721968
0001b0 bd 76 27 be d7 6a 88 3c 56 59 f1 bd 65 9f 4b 3e
       -0.16353889 0.016652508 -0.117846176 0.19885023
0001c0 8e a9 4a 3d 54 81 e2 bd 5a 5f 02 be af 84 29 3e
       0.049478106 -0.11059824 -0.12731686 0.16554521
0001d0 17 2f ca bb 72 6a e2 b7 d2 ce 4f bd ff db b6 3d
       -0.0061701643 -2.6990867e-05 -0.05073435 0.0892868
0001e0 30 d4 52 bd 83 af f1 3b 16 30 c6 bd 8e 20 c2 3d
       -0.05147189 0.007375659 -0.096771404 0.094788656
0001f0 17 a5 aa 3c 6d 4e 01 bc ca 5a 09 3e fb 61 36 bc
       0.020830674 -0.007892233 0.1341354 -0.011131759

network_body._body_endoder.seq_layers.2.weight f4 [128, 128]
000000 32 3e 40 3e 60 1e 3a bd a7 8e 4d be f0 bd 2b bc
       0.18773726 -0.045439124 -0.20073949 -0.010482296
000010 23 63 5f 3d b6 fd 29 3e 0a b0 f4 bc ee 6e e7 3d
       0.054537904 0.1660069 -0.029869098 0.11300455
000020 4f 53 40 bc db 9a 88 3d f5 3d 8a 3d ee 7d f1 3c
       -0.011738612 0.06670161 0.067500986 0.029478993
000030 6d 35 89 3d 87 fc 04 bc 93 93 4d bd 41 2e 7c 3d
       0.06699643 -0.008116848 -0.050189566 0.06156755
000040 22 93 fd 3c c5 94 0c bd c5 4f 5e 3d 80 f5 a7 3c
       0.030953947 -0.034321565 0.054275293 0.020502806
000050 ed 7e 62 bd 5d 1e ff 3d f5 56 6d bc c8 b3 aa bd
       -0.055296827 0.12456963 -0.014486064 -0.08335072
000060 1e 78 8c 3c a8 d7 49 3d 92 27 0e bd 7c 50 25 be
       0.01714712 0.04927793 -0.034705706 -0.16143984
000070 59 8e ed ba c4 85 ca bb 41 46 e6 bd 5a a0 94 be
       -0.0018124088 -0.006180497 -0.112438686 -0.2902859
000080 77 28 40 3e 6f 08 fd 3c b7 ee 95 bd cc c2 18 3e
       0.18765436 0.03088781 -0.07320922 0.14918059
000090 73 dd 58 3d e2 0c 25 bd aa 66 23 3e 5e c6 93 3d
       0.052945565 -0.04029549 0.15957132 0.0721557
0000a0 50 6f 81 bd 83 24 3d be 5a 0a 2f be 9f 35 10 3e
       -0.06320059 -0.1847096 -0.17093793 0.14082955
0000b0 60 03 18 be f6 1f d7 3b 28 08 f3 3c 96 f3 d7 bd
       -0.14845037 0.0065650893 0.029666975 -0.10544507
0000c0 1c 09 d7 3d 8b 30 ab 3c de 20 02 bd 7a de e1 3d
       0.10499784 0.02089717 -0.031769626 0.11028762
0000d0 cc 3f 02 3e 47 60 20 bb 73 50 c6 3b 19 83 32 3e
       0.12719649 -0.0024471448 0.0060520708 0.17432822
0000e0 8f b7 71 3d fb 60 26 3d 11 45 20 3e 9f b4 ca bd
       0.059012946 0.04061983 0.15651347 -0.09897732
0000f0 ff 07 2d bc 0b e1 e1 3c f0 31 61 bd 8a 92 29 bc
       -0.010560988 0.02757313 -0.054979265 -0.010349879
000100 fd af a4 3d ab 43 d6 bd 3c 81 88 3c 75 9d 76 bb
       0.080413796 -0.104621254 0.016663186 -0.0037630473
000110 74 eb e6 bc 7c 6a 13 bd bc 0f 4d be 73 70 ea bd
       -0.028188445 -0.035990223 -0.20025533 -0.11447229
000120 3d a9 25 3d 99 48 04 3d 0d bd 01 3e 32 46 61 3d
       0.0404446 0.032295797 0.12669773 0.054998584
000130 cf 80 78 3d bd 91 27 be 23 01 ce bc d1 92 0f 3e
       0.060669716 -0.16364188 -0.025147026 0.1402085
000140 a3 67 7d be aa 2a aa bd 27 72 08 bd b9 64 10 3e
       -0.24746566 -0.08308919 -0.03331199 0.14100923
000150 2f 2e d7 3d 7b b7 70 3e 82 22 84 3e 75 28 d5 bd
       0.10506856 0.23507492 0.25807577 -0.10408107
000160 68 ef 6a bd 78 71 3c 3e d2 d6 c7 bd a9 b3 fe 3b
       -0.05735722 0.1840266 -0.097577706 0.007772882
000170 97 a5 13 3d 60 fc bb 3d 5e 65 3b bd d0 2e 15 bd
       0.03604659 0.09178996 -0.04575097 -0.036421597
000180 33 f9 7b 3d b0 fb 1c bd db ed 92 3d 1e b8 15 be
       0.06151695 -0.038325965 0.071742736 -0.14621016
000190 06 8a c6 3d 48 ab 37 3e 94 6e 0b 3e 49 9a 8a bb
       0.09694295 0.17936432 0.13616401 -0.004229818
0001a0 e6 bc 83 bc 21 cf 3e bb 7b de 05 bc 05 52 2b be
       -0.016081285 -0.0029115158 -0.008170719 -0.16730507
0001b0 a9 58 09 bd 0c 5c 36 3d 81 99 09 3d e8 62 02 be
       -0.03353182 0.044521376 0.03359366 -0.12733042
0001c0 2e 76 09 be 30 b3 aa 3d e3 13 55 bd 0a 57 3f 3c
       -0.13423988 0.083349586 -0.05202092 0.011678467
0001d0 10 41 86 bd da 78 2d be 39 d3 61 3e 58 70 9f 3e
       -0.065553784 -0.16940632 0.22053231 0.311404
0001e0 b6 a3 06 3e e3 01 28 3e 5e fd 90 3d 3f 34 79 3c
       0.13148388 0.1640697 0.07079576 0.01521021
0001f0 66 03 48 3c 64 30 58 3d 4b 16 e0 bc e5 12 52 bd
       0.0122078415 0.052780524 -0.02735438 -0.05128755
000200 02 71 19 3d f6 fd 1c 3e b2 bc 6f be a0 03 8b 3d
       0.03746129 0.15331253 -0.23411825 0.06787801
000210 da 77 fc bd 46 a5 c3 3d c8 2a 43 3e bf aa 16 be
       -0.12327547 0.09553008 0.19059289 -0.14713572
000220 10 83 37 3c cc e5 93 be cb 59 24 bd 5d f7 ad bd
       0.011200681 -0.2888626 -0.040124696 -0.084944464
000230 d3 6c 57 bc d5 b9 c7 3d 2c 4d 9c 3e f0 f2 98 3d
       -0.013148504 0.097522415 0.30527627 0.07468212
000240 b1 b9 da 3d 79 42 d1 3b 87 6c 84 bd 35 ab f2 3b
       0.10679949 0.006386098 -0.064660124 0.0074056634
000250 d7 1e 06 3e 8f 89 c3 bd 00 2a 5f bc 66 84 07 be
       0.13097702 -0.095477216 -0.013620853 -0.132341
000260 62 f7 54 3d e8 8b 43 3e 34 a5 2e 3e 01 4a 47 3d
       0.051993735 0.19096339 0.17055207 0.04865456
000270 2d 1e 07 be a4 39 f1 3d e8 f0 f3 bd e0 3f be 3d
       -0.13195105 0.11778572 -0.119111836 0.09289527
000280 67 e3 28 be ea f2 9e 3d 25 a9 2c bd 6d b5 96 be
       -0.16492997 0.07761176 -0.042153496 -0.29435292
000290 83 69 2b 3d b7 8b 4d 3d 77 e8 e8 bb 29 24 91 bd
       0.04184867 0.05018207 -0.00710779 -0.07086975
0002a0 95 d1 61 bd e9 66 f3 3c 26 b3 90 3e a0 ad 72 be
       -0.055131514 0.029712157 0.2826168 -0.23699045
0002b0 24 b9 d0 3d 60 5d 7b 3d b5 58 8b 3d 4d f6 84 bc
       0.10191563 0.061368346 0.06804029 -0.016230727
0002c0 10 a9 c7 bd 02 f9 14 bd 41 1d 6e bd 6c 10 b4 bd
       -0.09749043 -0.036370285 -0.058133367 -0.08792195
0002d0 68 4c 80 3d 14 fa 68 3e e3 a3 56 3e c6 fb 49 be
       0.06264573 0.22751647 0.20960955 -0.1972495
0002e0 97 09 9b bd 80 74 48 3e bc 50 33 3e d6 a0 80 3d
       -0.075701885 0.19575691 0.17511266 0.06280677
0002f0 cc 01 dc bd f4 d4 28 be 8d f5 ca bd f9 43 5c bd
       -0.1074253 -0.16487485 -0.09910116 -0.05377576
000300 73 42 cb 3d 03 f8 87 3d 79 32 15 3e de a0 a6 3d
       0.099247836 0.06639101 0.14570035 0.08136152
000310 c3 49 ec bd 2d c0 81 3d c2 2c 39 bd b8 2f 3f bb
       -0.115375064 0.06335483 -0.0452087 -0.002917273
000320 ac 1c 65 3d 08 ff 09 bc 96 85 b0 bd 20 e3 d9 3d
       0.055935547 -0.008422621 -0.086192295 0.10639024
000330 32 52 0c be 0e d2 49 bc ab ec a0 3d ce 2e cf 3d
       -0.1370323 -0.012318147 0.07857641 0.10116349
000340 6b 5c 97 3e 88 fb 26 3b fc ec 3c 3e 56 c2 20 bd
       0.29562697 0.0025479514 0.18449777 -0.039247833
000350 20 d7 c6 bd 73 56 35 3e 80 21 19 be 9c fa 1c 3e
       -0.097090006 0.17708759 -0.14954185 0.15329975
000360 9e e6 ef 3d 5a 13 31 be 82 13 0a 3e e3 7a d1 bc
       0.117139086 -0.17292538 0.13484004 -0.025571292
000370 9e e2 87 3e 2d 19 ed 3d 15 16 0f 3e e6 17 07 3e
       0.26540083 0.115770675 0.13973267 0.1319271
000380 47 b6 a1 3d f9 88 7a 3c 11 0f de 3b ca c3 ea 3d
       0.07896095 0.015291446 0.0067766984 0.11463125
000390 b6 df 28 bc bb 5b 46 3d 08 30 8d be d8 59 c5 3d
       -0.010307243 0.048427325 -0.27575707 0.09636277
0003a0 57 de 11 be 0c 76 29 3d b5 93 90 3d 51 d1 b3 3c
       -0.14244972 0.041372344 0.07059423 0.021950396
0003b0 e7 30 c1 bd 5b cf 4e 3e f3 ff 66 bd dd 2e f9 3c
       -0.094331555 0.20196287 -0.056396436 0.030417854
0003c0 ce d2 1e 3e 38 05 d1 be 6a e6 b4 3d d0 11 6e 3e
       0.15510103 -0.40824294 0.088330105 0.23248982
0003d0 f1 58 63 be 9b 64 18 bd 85 40 07 3e c4 90 a5 3d
       -0.22201897 -0.03720532 0.13208206 0.080842525
0003e0 fa 65 fb 3c e0 0d 4d bc 0a ac 76 bd 87 b1 4c be
       0.030688275 -0.012515515 -0.060222663 -0.19989596
0003f0 58 b0 ec 3d 0e b7 d0 3d fe da ad 3d e4 26 d5 3c
       0.115570724 0.10191165 0.08489035 0.026019521

network_body._body_endoder.seq_layers.2.bias f4 [128]
000000 2e a5 0b be 03 72 89 3e 02 40 4b 3c c2 01 e6 bd
       -0.1363723 0.26844797 0.012405397 -0.11230804
000010 69 24 09 be 54 c9 fc bd 8c c6 4e 3e 34 51 b7 3d
       -0.13392796 -0.12343088 0.20192927 0.08951035
000020 2c 95 12 be 24 e4 e7 bd 57 5e e9 3d ce 35 36 bd
       -0.14314717 -0.11322811 0.11394947 -0.044484906
000030 5d 33 53 bd 95 1e 9b 3d 77 59 39 3e e2 9d 40 3e
       -0.051562656 0.075741924 0.18100534 0.18810228
000040 e7 50 28 3e 80 18 43 bd 26 7c 64 3e c2 1a bf bd
       0.16437112 -0.047630787 0.22312984 -0.093312755
000050 9b 0b b1 3d 45 8d f3 bc 64 d5 44 bd 1d c1 ea bd
       0.08644792 -0.029730448 -0.048055068 -0.11462615
000060 bf de c6 3d bf e6 8b bb 3a 3b 2e 3c 57 d5 e2 bd
       0.09710454 -0.0042694504 0.010634238 -0.110758476
000070 bb 1e d1 bb 69 f5 1e bd 6a 27 bb bd d0 42 df 3c
       -0.006381837 -0.03880826 -0.09138377 0.027253538
000080 2f 34 a2 bd df 73 58 3e e8 4a 02 bd bb b6 25 3e
       -0.079201095 0.21137951 -0.031809717 0.16182987
000090 1f 07 ac bd 3e 62 8d bd c7 b2 04 be f8 38 ca 3d
       -0.08399796 -0.06903504 -0.12958823 0.09874147
0000a0 5f cb 60 3e 9c dd e6 bd 30 25 3d 3e 2e ef b4 bd
       0.2195258 -0.112727374 0.18471217 -0.088346824
0000b0 72 4e 7d 3c 3a bf 60 3d 03 28 a0 bd 5d 33 7c bc
       0.015460597 0.054869868 -0.07820132 -0.015393105
0000c0 ee 57 57 bd b1 95 de bd af b9 fc bd b9 86 b8 bd
       -0.05257409 -0.10868395 -0.12340104 -0.09010071
0000d0 71 cd d0 bd be 34 b1 bd e4 98 ae bc 86 cf 56 3e
       -0.10195435 -0.08652638 -0.021313138 0.20977601
0000e0 7b ad 00 3d f5 30 59 3e ec cf 4e 3e d2 7e 3c 3e
       0.031415444 0.21210082 0.20196503 0.18407753
0000f0 71 3f ee bd f7 ca d9 bd 6f d1 de bd a8 a4 79 bc
       -0.11633194 -0.106344156 -0.1087979 -0.015237011
000100 e3 d5 0f bc 48 13 dc bd 0d e8 99 3d 58 27 59 3e
       -0.008779022 -0.10745865 0.07514963 0.21206415
000110 2d 98 dd bd 07 2a f6 bd 1f 29 3a 3e 19 fb a6 bd
       -0.10820041 -0.12019735 0.18179749 -0.08153362
000120 db 01 f8 bc 2b d7 8a bd 1e 73 ac bd 81 46 c2 bd
       -0.030274322 -0.06779321 -0.08420394 -0.09486104
000130 fa a3 f6 bd 00 52 b1 bd c2 7f bc bd 6e 0e 06 3e
       -0.12042995 -0.086582184 -0.09204055 0.13091442
000140 4e fa ae bd 17 a4 8d bd d0 d2 dc bd f8 13 46 3e
       -0.085438356 -0.06916063 -0.10782397 0.19343555
000150 5d d3 ea bd 03 8f 0a be 3b 8b f2 bd d8 68 6f 3e
       -0.114660956 -0.13531117 -0.11842962 0.23379838
000160 db 29 85 bd 71 76 1d 3c f7 c6 f1 3d 7c 92 f3 3d
       -0.06502124 0.009610758 0.11805528 0.11893174
000170 75 a8 d3 bd 3c 4d 64 3e 5a c3 80 bd e5 5b 9d 3c
       -0.10334865 0.22295088 -0.0628726 0.019208858
000180 cc f2 c3 bd 0d f2 3b bd ac 60 c6 bd 41 3c 8d bd
       -0.09567794 -0.045885134 -0.096864074 -0.06896258
000190 ab c9 c6 bd 2e d7 06 3d d0 4f c4 bd c4 cd 6e bd
       -0.09706434 0.032920055 -0.095855355 -0.058301702
0001a0 e9 e0 d0 bd 5f 71 6e 3d 7b db 8c 3d 4e 8a 6c 3e
       -0.10199148 0.058213588 0.068778 0.23099634
0001b0 64 34 0b be 90 ed 77 3c a3 fe fd bd e9 9e cf bd
       -0.13594204 0.015132323 -0.12402084 -0.101377316
0001c0 f6 44 4b bd 25 83 24 bd e1 fe ee bc 39 b4 72 bc
       -0.049626313 -0.04016413 -0.02917427 -0.014813476
0001d0 31 4a 01 be 6f 58 f3 bd cf d5 ba bd 09 4b 10 3e
       -0.12625958 -0.11882102 -0.09122812 0.14091124
0001e0 57 b8 af 3d 38 25 23 3e ca b4 5e 3e 13 48 32 3e
       0.08580082 0.15932167 0.21748653 0.17410307
0001f0 e9 e1 93 bd c3 8c b8 bd 9a f6 44 3e d6 83 21 bc
       -0.07220823 -0.09011223 0.19234696 -0.009858092

action_model._discrete_distribution.branches.0.weight f4 [2, 128]
000000 1e b1 07 3c 95 e5 43 be 65 18 a4 bd 08 34 8a 3d
       0.008281974 -0.19130547 -0.080124654 0.067482054
000010 6a 07 4e 3a 34 ec 46 bb 14 be 5c bd 4e 58 f7 bc
       0.0007859381 -0.003035319 -0.05389221 -0.030193474
000020 02 eb 4b 3d 89 0c ce 3d 8f 13 9c bc f4 e2 2e 3d
       0.049784668 0.10060985 -0.019052295 0.042696908
000030 23 77 65 3c 7d f0 a9 bc f3 b2 c8 bd a6 0e a6 bd
       0.014005455 -0.020744557 -0.09799757 -0.08108263
000040 02 01 db bd 1c 6d 90 bc 00 76 2d be f5 ad 0d 3d
       -0.106935516 -0.017630152 -0.16939545 0.034589726
000050 12 b7 a2 bc 9c 52 0c bc 1b 2b 0d 3e b7 e3 04 3d
       -0.019862685 -0.0085646175 0.13785975 0.03244373
000060 ba b4 98 b9 38 00 3a 3d 6b dc 20 3c e4 b7 de bc
       -0.0002912635 0.045410365 0.009818177 -0.027187295
000070 09 7c 84 3d da fd 7c 3c d9 a3 02 3d e7 27 3c bc
       0.0646897 0.015441382 0.03189454 -0.011484123
000080 4e 40 85 3d ea 94 28 be cc d7 de 3c b9 87 33 bd
       0.06506406 -0.16463056 0.02720251 -0.043830607
000090 11 ee 88 3b a3 cd 5c bd 88 44 fe 3c e4 b1 0c bd
       0.0041787704 -0.053907048 0.031038538 -0.034349337
0000a0 c9 d5 2d be 39 5e 25 3e 70 26 0e be ae 97 26 3d
       -0.16976084 0.16149224 -0.1388185 0.040671997
0000b0 e5 ad 8d bd cd 3e d1 bd 18 50 f2 bc ab 02 99 3b
       -0.069179334 -0.102170564 -0.029579207 0.0046695075
0000c0 95 ea e6 ba e6 46 a5 bb 9f a0 e3 3b 93 ac 14 3d
       -0.0017617518 -0.005043852 0.0069466378 0.036297392
0000d0 34 f4 fd 3c d9 71 fe 3c dd 44 39 3c 00 7d 04 be
       0.031000234 0.031060146 0.011307922 -0.12938309
0000e0 5a 59 36 3d b3 ba fe bd 44 db dc bd dc 7f 1b be
       0.044518806 -0.12437954 -0.10784009 -0.15185493
0000f0 ab b4 42 3e 62 4d 33 3d 19 35 dd 3d 36 60 f5 bc
       0.19014232 0.04377497 0.10801143 -0.029953104
000100 d9 a3 51 3c c4 aa 84 3d 17 08 f4 3b ff e6 09 be
       0.012795412 0.064778835 0.0074472534 -0.13467024
000110 f8 75 44 3c 18 87 5d 3d ce 16 45 bd d4 ea d6 3d
       0.011991017 0.054083914 -0.04811745 0.10494009
000120 f5 5c ac ba db 0d 8d 3d 97 e9 4c 3d 08 13 6e 3d
       -0.0013150262 0.06887408 0.050027456 0.05812362
000130 1d a9 a1 3b e4 16 1f 3d 53 f4 31 3c 3f f3 cc bd
       0.00493349 0.03884019 0.010861474 -0.10007333
000140 82 6f ed 3c f1 a7 ea 3c 82 ea f7 3c 3a 08 b8 bd
       0.028983835 0.028644534 0.03026319 -0.08985944
000150 91 f8 04 3c d2 b0 88 3d f1 46 7d 3d 93 a8 1c be
       0.0081159035 0.06674351 0.061835233 -0.15298681
000160 26 28 ed 3d 9b 7d 47 3d ac 70 8e bd 3d f5 dc bc
       0.11579923 0.04870377 -0.06955084 -0.026972407
000170 01 6c a2 3c 71 fb 11 be 5f ce ef 3b 8d 61 c0 bd
       0.01982689 -0.14256074 0.0073183025 -0.09393606
000180 c1 49 8f bb 89 9c 80 3b 2a 18 41 3d 07 4b 44 3d
       -0.004372806 0.0039249104 0.047142185 0.047923114
000190 32 ed 85 3d ae 83 4c 3d ad 36 69 3d 43 18 7e 3d
       0.06539382 0.049930267 0.05693691 0.062034857
0001a0 5b e1 c9 3c 4e 91 1a 3c e0 b7 01 bd 73 f8 05 be
       0.02464359 0.009434057 -0.031669497 -0.13083057
0001b0 18 13 ab 3d b1 bc 40 3b 30 b1 c4 3d 10 e5 d1 3d
       0.08353251 0.0029409344 0.09604108 0.10248768
0001c0 8b b8 df 3c a2 69 ee 3c 88 e7 1b 3d 78 a3 c7 bd
       0.027309677 0.029103104 0.038062602 -0.09747976
0001d0 b5 08 07 bd 26 7f a0 3c 05 0b 8f 3d d8 be b0 bd
       -0.032967288 0.01959188 0.06984524 -0.086301506
0001e0 aa 44 44 bc 90 86 c3 bd 80 eb 28 be a0 bb 2b be
       -0.011979261 -0.0954715 -0.16496086 -0.16770792
0001f0 4f d8 ec 3b 8a c8 38 3d 0c 8c 1a be 0f 1e dc bd
       0.0072279344 0.045113124 -0.15092486 -0.10747921
000200 a4 a5 41 3c 04 2d 5e 3e 81 9d b0 3d 70 25 63 bd
       0.011819277 0.2169686 0.086237915 -0.055455625
000210 08 4e 8c bc 83 43 41 bb a8 7b 90 3d 82 57 88 bb
       -0.017127052 -0.0029489703 0.070548356 -0.0041608224
000220 0d 56 51 bd ee 86 d7 bd 88 de e5 3c 93 ef 94 bd
       -0.051107455 -0.10523783 0.028060213 -0.07272258
000230 88 fe 49 bc f3 5b 9b 3c b4 e4 df 3d 79 a1 95 3d
       -0.012328751 0.018964743 0.109322935 0.07306189
000240 48 4a ce 3d 62 63 a4 3c 7d 13 1d 3e 23 1e 4e bc
       0.10072762 0.02006692 0.15339465 -0.012580427
000250 62 a1 a4 3c 33 b1 84 3c 8c 45 0f be e9 ec 8d bc
       0.020096485 0.016197776 -0.13991374 -0.017324882
000260 4a 8a 0e bc 49 4a 23 bd 6f 7c 96 bb f3 b5 d9 3c
       -0.008699963 -0.039865766 -0.0045924704 0.026576018
000270 cd 91 86 bd 91 af f2 bc 4e 60 58 bc ca e7 08 3d
       -0.06570778 -0.029624732 -0.013206555 0.033424176
000280 c9 6e 44 bd fb ba 1f 3e 59 60 e4 bc c8 52 da 3c
       -0.047957215 0.15598671 -0.027877973 0.026650801
000290 00 88 41 bc ba fe 3d 3d 25 55 3d bd 3c fd 94 3c
       -0.01181221 0.046385504 -0.04622378 0.018187158
0002a0 97 72 1a 3e 57 f4 1e be 85 c7 0d 3e 1a 1d 1b bd
       0.15082775 -0.15522896 0.13845642 -0.03786955
0002b0 ef 0c a2 3d 72 c9 be 3d b6 aa 01 3d 5e a8 e4 3b
       0.07912623 0.093157664 0.031656943 0.0069780787
0002c0 08 9d 99 3b bc 14 c6 3b 85 45 b2 39 ce fe 3c bd
       0.004687909 0.006044952 0.00034002602 -0.04614144
0002d0 be 81 19 bd a4 3c 3f bd 69 29 b8 bc 57 4e 05 3e
       -0.037477247 -0.04668869 -0.022480683 0.13018166
0002e0 43 44 4e bd e9 b2 08 3e 38 0d c9 3d b1 f9 0d 3e
       -0.05035807 0.13349499 0.098169744 0.13864781
0002f0 c3 22 4c be a2 32 4a bd 9e ad e4 bd c0 0b 01 3d
       -0.19935136 -0.049364693 -0.11165927 0.031505346
000300 7d 89 a9 bc 8d 0f 4b bd 9d 8e 34 3c 03 5a 11 3e
       -0.020695442 -0.049575377 0.01102033 0.14194493
000310 97 ea e4 bc 73 95 cf bc 9e 79 0b 3d 6d 5a cd bd
       -0.027943892 -0.025339818 0.03405153 -0.10027013
000320 83 05 de 3b b5 db 90 bd 09 b1 66 bd 89 22 6c bd
       0.0067755594 -0.07073156 -0.056321178 -0.057650123
000330 bd cc dd bc fb ad 8d bd 7b a9 9d bc 2f aa c9 3d
       -0.027075166 -0.0691795 -0.019245854 0.09846913
000340 73 1f 33 bd 69 89 f6 bc 3e 77 a0 3a 3a 5a 8c 3d
       -0.043731164 -0.03009482 0.0012242568 0.06853147
000350 3c 96 04 3a e2 ce 89 bd 6f 7d 2a bd aa 0f 23 3e
       0.0005057787 -0.06728913 -0.04162353 0.15923944
000360 ba a0 e6 bd 7a 0d 6b bd 3c 14 60 3d dc 06 f8 3c
       -0.11261125 -0.0573859 0.054706797 0.030276708
000370 9e ea 8d bc 64 4c 21 3e aa ae 83 ba 42 ab a3 3d
       -0.017323788 0.15751797 -0.0010046561 0.07991649
000380 17 87 7b 3b 69 59 4a 3b 08 1e 0c bd 35 02 70 bd
       0.003838008 0.0030876047 -0.034208328 -0.058595855
000390 ed 3b 77 bd 33 43 f3 bc 81 02 71 bd 6b 44 84 bd
       -0.060359884 -0.029695129 -0.05884028 -0.06458362
0003a0 49 d8 e5 bc 97 48 0c bc ad 69 e4 3c fa fc fd 3d
       -0.028057234 -0.008562229 0.027882421 0.12401767
0003b0 89 f2 95 bd 13 b6 ae bb 84 24 d2 bd fd 0d b8 bd
       -0.073216505 -0.0053317635 -0.10260871 -0.08987043
0003c0 07 a1 a0 3a 0f 79 48 bd 70 88 18 bd 0d 69 a7 3d
       0.0012255021 -0.048943575 -0.037239492 0.08174334
0003d0 64 ec a1 3b c1 37 52 bd 74 04 9b bd ac f0 95 3d
       0.00494151 -0.051322702 -0.07569209 0.07321295
0003e0 52 cd 52 3c d9 b7 e4 3d 54 19 25 3e fa d1 31 3e
       0.012866335 0.11167879 0.16122943 0.17365256
0003f0 f8 59 72 bb b5 1a fa bc 24 21 0a 3e aa 9d bb 3d
       -0.0036979895 -0.030530313 0.13489205 0.091609314

action_model._discrete_distribution.branches.0.bias f4 [2]
000000 d0 bc 1d be d4 bc 1d 3e
       -0.15404058 0.15404063

action_model._discrete_distribution.branches.1.weight f4 [3, 128]
000000 64 d8 54 bd a1 0d bc 3c bd 4f f8 3c ab 49 82 bd
       -0.05196418 0.022955718 0.03031146 -0.06361707
000010 3f 09 57 bd 36 b9 c8 bc dd 29 c0 bc 4f c8 23 3c
       -0.052499052 -0.024502378 -0.023457462 0.009996488
000020 7b 00 8b bc b5 4f 45 3c ab 43 8b 3c 77 a9 39 bd
       -0.016968003 0.012042929 0.01700004 -0.04532763
000030 ed 88 54 bd 56 3e 3d 3b 7a 2b 03 3c dc c1 4c 3c
       -0.051888395 0.0028876266 0.008005971 0.012497392
000040 bd 7d 24 3d f9 e1 ee bc 2b bf 26 3c 71 48 84 bd
       0.040158976 -0.029160487 0.010177414 -0.064591296
000050 3b dc 85 bc ec 56 47 bc 71 e7 5b bc 3f 0b fa bc
       -0.016340366 -0.01216672 -0.013421879 -0.03052294
000060 62 b4 83 bc f8 b5 8a bc a9 de 08 bd c0 1c c9 3b
       -0.016077224 -0.016932473 -0.03341547 0.0061374605
000070 7a 0d b7 bc e4 34 0e bd 11 de 7a bc 95 27 e4 bc
       -0.022345293 -0.03471841 -0.015311734 -0.027850905
000080 93 36 42 bd e2 8f b4 3c 73 27 b7 bc cb 74 6c 3c
       -0.047415327 0.022041265 -0.022357678 0.0144321425
000090 15 77 c8 bc d1 0b 41 ba 88 ea 56 bd ba 89 f6 3c
       -0.024470845 -0.00073641265 -0.05246976 0.03009497
0000a0 1c e0 97 3b 12 1a 31 bd 94 4f 88 3c 26 2b 5e bc
       0.00463487 -0.043237753 0.016639508 -0.013560092
0000b0 bb 12 35 3d 27 2e b8 3c 96 2b 5d bc ad 9a f4 3c
       0.044207316 0.022482945 -0.013499161 0.029858911
0000c0 2e 74 bc bc 3a 18 3e bd c5 0c 31 bd e1 a8 d2 bc
       -0.023004618 -0.046409823 -0.04322507 -0.025715293
0000d0 eb 2b cb 3b e8 80 a9 bc dd af 82 bd 01 21 02 3d
       0.006200304 -0.02069135 -0.063811995 0.031769756
0000e0 ac 82 b6 bc c4 19 dd 3b 8e b9 38 3d f4 fd ae bc
       -0.022279106 0.0067474563 0.045098834 -0.021361329
0000f0 08 c0 26 bc 37 d6 68 bd bd e5 97 bc b0 2d 83 bd
       -0.01017762 -0.056844916 -0.018542165 -0.064051986
000100 62 0f d2 bb fa 11 0b bd 44 cc 8d 3b 00 b0 54 bc
       -0.006410525 -0.03395269 0.004327329 -0.012981415
000110 78 b5 4d bd de cb 46 bd aa bc 13 3d 90 4e b0 3c
       -0.05022189 -0.048534267 0.036068596 0.021521837
000120 c5 57 69 bc 7b ef bd bd 44 53 69 bd eb f8 ab bd
       -0.014242117 -0.09274193 -0.056964174 -0.08397087
000130 5b f8 29 bd c7 fb 77 b9 bb ef 08 bd f9 30 e9 3c
       -0.041496616 -0.0002364955 -0.03343175 0.028465735
000140 80 90 3a bd eb 3e 11 bd 23 b4 45 bd 33 a1 a3 3c
       -0.045547962 -0.035460394 -0.048267495 0.019974327
000150 fc 7a 33 bd a2 07 d0 bc 17 56 6f bd 41 b0 d4 b8
       -0.04381846 -0.025394265 -0.05843171 -0.000101417776
000160 43 e0 1b bd 24 10 56 bc 57 97 d8 3a 78 df e1 3b
       -0.03805567 -0.013065372 0.0016524595 0.0068930946
000170 e8 86 1d bd 64 79 4b 3b 65 a7 11 bd c7 f6 d5 bc
       -0.038458735 0.0031047696 -0.03556003 -0.02611865
000180 e8 91 16 bd a1 05 70 bd bf 28 5b bd cf ff 23 bd
       -0.03676024 -0.05859912 -0.053505655 -0.04003888
000190 13 62 a6 bd 1a 21 17 bd 80 eb 85 bc 1e 91 33 bd
       -0.08124175 -0.036896802 -0.016347647 -0.043839566
0001a0 2d 79 3d bd d8 a3 98 bc 23 88 7a bb 05 20 e1 3c
       -0.04625814 -0.018632814 -0.0038228116 0.027481088
0001b0 19 84 90 3b bb f7 e7 bc 77 4c 9c 3c e8 71 45 bc
       0.0044102785 -0.02831637 0.01907943 -0.012051083
0001c0 db 8c c9 bd 50 af 0d 3d 72 04 1d bd a8 07 08 bc
       -0.09841319 0.03459102 -0.038334318 -0.008302607
0001d0 c5 cc 14 bc b0 64 6a bd e6 4d 6a bd c6 56 14 bc
       -0.009082024 -0.05722493 -0.057203196 -0.0090538915
0001e0 f8 86 41 3c 34 1e 4d 3b ce 12 44 3d 26 78 a5 3c
       0.011811964 0.003129852 0.047869496 0.020198893
0001f0 50 78 93 bd 0e 37 46 bd 8f bd d2 bc 54 1d 34 3d
       -0.07200682 -0.048392348 -0.025725154 0.043973282
000200 be 5d 43 3d b1 54 85 bd 07 5b 97 3d 7c 9f 76 3c
       0.04769682 -0.06510294 0.07390409 0.0150526725
000210 fb 12 86 3d fb 5b 6f 3d 1c 03 32 bc 08 cc b7 bd
       0.06546589 0.05843733 -0.010864999 -0.08974463
000220 6d 12 5b 3c dd 93 7b 3d 8f f2 20 be 9e 46 90 bd
       0.013371092 0.06142031 -0.15717529 -0.07044719
000230 27 25 11 bb 48 ad 56 bd 29 e7 6e bc 97 79 11 bd
       -0.0022147389 -0.052411348 -0.01458148 -0.035516348
000240 92 33 aa bc 4b e5 e7 3c 1a 95 0b bd 10 d7 08 3d
       -0.020776544 0.028307578 -0.03407774 0.033408225
000250 db c1 e6 bd 73 88 3d 3d 58 52 89 bd 5a 54 ed 3c
       -0.11267444 0.046272706 -0.06705159 0.028970886
000260 ad 3d 7e bd d2 62 c3 bd cb 85 5c bd ec df 84 3d
       -0.062070537 -0.09540333 -0.053838532 0.06488022
000270 b6 2b d5 bd a5 82 27 bd 92 25 c7 bb 59 cd 21 3d
       -0.10408728 -0.040896077 -0.006077477 0.039502475
000280 38 c4 a3 bd 93 fc e4 3b 26 eb 5f bd 82 41 17 be
       -0.0799641 0.006988117 -0.054667614 -0.14771083
000290 b1 ff ce bc f6 e9 b4 3d cb 39 83 3d 63 39 eb bd
       -0.025268408 0.08833687 0.064075075 -0.11485555
0002a0 d5 1a 0a bc be 8c bc 39 fc a4 26 bd e4 72 bf 3d
       -0.008429249 0.00035963015 -0.040684685 0.093480855
0002b0 d8 c8 9c 3d 3c 95 e4 3d ef 7b 9a 3d ea 9d a1 ba
       0.076554954 0.11161277 0.0754317 -0.0012330387
0002c0 c2 f4 c9 3a 27 5c 9b 3d 2c 88 8c 3d 2f 52 95 bb
       0.0015408027 0.07585936 0.0686191 -0.004556916
0002d0 ae d4 95 3d ec 65 8b bb f1 05 12 bd e6 f0 6b bd
       0.07315956 -0.0042540934 -0.035650197 -0.057602786
0002e0 a9 0f 09 be 69 75 ae bd 03 68 c2 bd 78 90 96 3c
       -0.1338488 -0.08518488 -0.09492495 0.018379435
0002f0 ac 6e 05 3e cc 2c b6 bc 03 eb c5 bc 9e 49 01 3d
       0.13030499 -0.022238158 -0.024159914 0.031564347
000300 bd f2 b5 bd 16 ce 3e 3b e2 c7 3e be ba fd a3 bd
       -0.08884189 0.0029114536 -0.18630937 -0.08007379
000310 68 ef a8 3d 41 b6 f7 3c e5 34 b4 bd 3e 0e df 3d
       0.08248788 0.030238273 -0.08799151 0.10891388
000320 fd 5c ac 3d 59 51 59 3c ae 93 4e bc 77 5e 60 3d
       0.084161736 0.013264024 -0.012608452 0.05477759
000330 78 c6 74 3d 1e e1 0f bd 58 5f 4a 3d 2d 07 87 bc
       0.059759587 -0.035126798 0.049407333 -0.016482914
000340 80 60 04 bb 6d 9b 01 bd 41 44 df 3d 7e df 03 be
       -0.002019912 -0.031642366 0.1090169 -0.12878224
000350 ef a3 01 3e 03 c5 11 3d 6d 0d a4 3c e3 4f ba bb
       0.12660192 0.035588276 0.020025933 -0.005685793
000360 bf 85 bb bd 41 ba 92 bd 18 6e 9f bc 45 45 0e be
       -0.091563694 -0.07164431 -0.019461676 -0.13893612
000370 32 5a 88 3d cb d2 b7 bc 32 94 7e 3d e8 e9 bc 3d
       0.066578284 -0.022439381 0.06215305 0.092243016
000380 35 d7 b1 3c 9b fd 32 bb f2 a9 d2 3c 4a 2e 5f bd
       0.021709064 -0.0027311805 0.025715802 -0.054487504
000390 71 e0 ce 3d 65 a9 e8 bd d6 e8 83 bd 18 e3 b6 bd
       0.101014026 -0.113604344 -0.06440894 -0.089300334
0003a0 6f 37 ab bc 44 fe bd bd a0 50 f6 bd 30 d7 14 bd
       -0.020900456 -0.09277013 -0.12027097 -0.03633803
0003b0 bb fc 31 3d f6 f0 6c bd 9f 93 7e 3c 62 2f 97 3d
       0.043453913 -0.057846986 0.015538125 0.073820844
0003c0 65 0d b3 3d 1e d4 5f 3d 20 2f 10 bd 15 71 a3 3d
       0.08742789 0.05464565 -0.035201192 0.07980553
0003d0 16 85 a6 3d e9 4e 25 3d 8a 25 8c 3c 88 8d 22 bd
       0.08130853 0.040358458 0.017107744 -0.039685756
0003e0 c2 9f 06 be 5e 1d 2b bd f8 ed 33 bd a0 45 e0 3d
       -0.1314688 -0.041776054 -0.043928117 0.1095078
0003f0 d3 de ca 3d 9d b3 c9 3d f7 2b 00 bd fe 4d 02 3e
       0.099057816 0.09848712 -0.03129193 0.12725064

action_model._discrete_distribution.branches.1.bias f4 [3]
000000 93 99 ee 3b 2c 90 88 bd c2 32 56 3d
       0.007281491 -0.066681236 0.0522945

exp_avg f4 [128, 5]
000000 53 b2 b2 39 5e 87 05 39 78 0c 11 b8 5f 76 ba 38
       0.00034083668 0.00012734297 -3.4582306e-05 8.8912195e-05
000010 d4 46 14 38 a3 e0 1b ba f8 7f 25 39 a6 bb 53 38
       3.5351914e-05 -0.0005946254 0.00015783298 5.048108e-05
000020 cf 63 2c 3a dc 65 8e 39 ce 93 3d 3b ef c3 8b b9
       0.0006576152 0.00027160242 0.002892721 -0.00026658128
000030 82 74 e7 b9 ec 9d 00 bb e7 60 6e ba 12 bc 91 39
       -0.00044146559 -0.0019625379 -0.0009093419 0.00027796678
000040 ce 94 e0 b8 3c 19 ce b7 ea d0 86 39 6c 21 86 38
       -0.000107088694 -2.4568864e-05 0.00025714125 6.395843e-05
000050 1b 6e d5 39 61 58 97 b9 42 b7 f7 b8 0e 92 6e ba
       0.0004070856 -0.00028866812 -0.00011812012 -0.00091007433
000060 4d eb bf b9 e5 df 3b 3a 60 53 03 b8 65 3e 0e b9
       -0.00036605672 0.0007166847 -3.1310483e-05 -0.00013565419
000070 41 4f 2d b8 53 3b c2 b7 c6 02 c3 39 80 c1 4f b9
       -4.1320225e-05 -2.3154227e-05 0.00037195365 -0.00019813143
000080 c6 d9 70 b8 48 e7 43 39 17 24 a8 38 a8 a8 ae ba
       -5.7423276e-05 0.00018682808 8.0175865e-05 -0.001332541
000090 53 27 3c b8 f3 23 bb 38 3b 14 8c 3a 18 0f f6 39
       -4.4859316e-05 8.923551e-05 0.0010687181 0.00046932022
0000a0 6c f8 0d ba 2f 18 64 39 03 73 42 39 c2 76 1c 3a
       -0.0005415741 0.00021752784 0.00018544127 0.0005968624
0000b0 99 59 6a 39 9b c8 c0 b9 92 e0 56 39 08 61 4a 37
       0.00022349357 -0.00036770556 0.0002049229 1.206273e-05
0000c0 4a 06 f2 b9 a8 58 0e b9 0b 26 2e 38 68 92 86 b7
       -0.00046162523 -0.00013575202 4.1520263e-05 -1.604222e-05
0000d0 e8 77 6a 37 7c 39 e9 37 09 59 16 37 3a 1b 88 3a
       1.3975405e-05 2.7802533e-05 8.961427e-06 0.0010384091
0000e0 7d 59 45 ba 39 a3 6f b9 d0 ee 18 ba 8a 85 a7 b9
       -0.00075282884 -0.00022853621 -0.00058339257 -0.00031952217
0000f0 d4 3e 69 b8 20 a0 62 b8 b4 a2 e7 38 36 1a a5 37
       -5.5610042e-05 -5.4031727e-05 0.00011045244 1.9681738e-05
000100 43 f9 47 37 b8 c2 a5 b8 58 1f 41 b9 9c 4c 69 38
       1.191936e-05 -7.904082e-05 -0.00018417591 5.5622877e-05
000110 38 37 48 38 1f d3 3b 38 a5 21 98 b9 08 c6 d6 b9
       4.7735142e-05 4.4780896e-05 -0.00029016766 -0.00040964806
000120 46 37 5b 38 66 df d2 b9 ee cc a3 b8 b0 8a 99 ba
       5.2265146e-05 -0.00040220766 -7.810617e-05 -0.0011714306
000130 d6 06 48 3a ce d9 86 39 e9 e3 51 3a de 88 99 39
       0.0007630413 0.0002572075 0.00080066785 0.00029284408
000140 d6 20 bc b9 e3 aa 95 b8 bb 20 96 38 21 be 99 38
       -0.0003588262 -7.136704e-05 7.158654e-05 7.331023e-05
000150 ba c6 34 37 76 10 0a bb 79 58 23 b8 74 cb 81 39
       1.0775106e-05 -0.002106694 -3.8944625e-05 0.00024756382
000160 76 96 c0 3a 21 1a 38 3a cc ec 2e ba ee d2 67 39
       0.0014693278 0.00070229365 -0.0006672859 0.00022108454
000170 e4 8b da 38 ce 38 2a 3a 13 5c 93 39 37 54 b1 b8
       0.00010421107 0.000649345 0.00028106626 -8.455704e-05
000180 00 c0 19 37 98 75 ed 37 9a a2 49 b8 c3 4f c9 b7
       9.164214e-06 2.830736e-05 -4.807357e-05 -2.399821e-05
000190 d4 bc e4 b9 3c 87 c3 b8 7b 19 1b 38 a0 46 a6 38
       -0.00043628237 -9.323514e-05 3.697861e-05 7.928652e-05
0001a0 86 b6 94 38 4c a7 12 ba e0 49 37 b7 a1 e0 41 39
       7.0911876e-05 -0.0005594387 -1.092485e-05 0.00018489595
0001b0 9b 1b 1f 3a 44 6c 6b 39 42 d5 9e ba 91 ee f8 b8
       0.0006069482 0.00022451679 -0.0012117999 -0.00011869998
0001c0 52 62 f0 38 c0 2a 49 3a 9e 0a ba 39 14 3d aa 39
       0.000114624054 0.0007673912 0.00035484595 0.00032470434
0001d0 88 6a 8b b7 31 6f a1 b8 6c 2d 20 38 35 d2 c9 37
       -1.6619699e-05 -7.697789e-05 3.8189275e-05 2.4058952e-05
0001e0 12 1c 47 39 56 ab ec b8 e3 1f 83 b6 c7 42 ad 39
       0.00018988576 -0.00011285271 -3.9078163e-06 0.00033046884
0001f0 99 97 0d 39 52 56 98 b7 44 42 f0 38 de 07 9e b7
       0.00013503282 -1.8160008e-05 0.00011456435 -1.8838731e-05
000200 f0 6a 1a b9 25 14 70 b8 3b ed 24 ba a4 f4 70 39
       -0.00014726422 -5.723922e-05 -0.00062914536 0.0002297932
000210 74 b6 bb 38 a6 50 1c 3a 96 17 8f 39 ed 79 96 ba
       8.9508394e-05 0.0005962945 0.00027292658 -0.0011480429
000220 d5 ef 5f b8 d4 67 d7 38 69 7c 72 3a 79 7f df 39
       -5.3390704e-05 0.000102713384 0.0009250106 0.0004262885
000230 06 bb 25 b9 f0 66 e6 39 af fa 48 39 a1 4e c0 37
       -0.00015805298 0.00043945713 0.00019166873 2.2924798e-05
000240 8e c0 f6 b7 69 3a eb ba a3 1f 26 b9 ca 4f 09 39
       -2.941515e-05 -0.0017946485 -0.00015842779 0.00013095062
000250 8b ae 9a 3a 4a 8e 19 3a 06 3e 33 3a a9 6d 0e b9
       0.0011801285 0.00058576895 0.00068375503 -0.00013583027
000260 e4 e7 24 b8 96 43 1f ba a1 a3 94 b9 36 85 13 bb
       -3.9316612e-05 -0.000607544 -0.00028350673 -0.002250982
000270 4d 8b 83 3a 5d 20 1d 3a 02 0b b2 39 0c 37 7d 39
       0.0010036022 0.0005993897 0.00033959007 0.00024148467
000280 41 eb ef 3a 37 f9 f1 b9 d7 6d 84 b9 15 63 c0 ba
       0.0018304364 -0.00046152782 -0.0002525884 -0.0014677966
000290 fd 7a 2d ba 92 c8 31 38 46 26 00 b8 b8 bc 51 36
       -0.0006617753 4.2386884e-05 -3.0553223e-05 3.1253276e-06
0002a0 28 cd 87 38 ae 81 e9 37 31 44 ab b8 e2 9b 58 b8
       6.475515e-05 2.7836151e-05 -8.166617e-05 -5.164359e-05
0002b0 0d 83 9f 37 c3 c7 47 38 22 aa 9b 37 1a 1f 2d 3a
       1.9015302e-05 4.763134e-05 1.8556664e-05 0.0006604061
0002c0 8c c2 36 b9 c0 c7 fe b4 17 92 33 ba f9 8f a4 b9
       -0.00017429347 -4.7456524e-07 -0.0006850077 -0.00031387786
0002d0 c1 bc d7 39 4e 3a 00 39 f2 c6 a3 b8 f6 ce 0b ba
       0.00041148628 0.00012228751 -7.809502e-05 -0.0005333269
0002e0 14 64 7f b9 0b 6b 47 ba 3a 2c b0 b7 0c a2 98 38
       -0.00024355977 -0.0007607198 -2.100143e-05 7.2781084e-05
0002f0 33 89 37 3a 66 80 ce 39 b6 4f 46 3b aa df c8 b9
       0.000700134 0.00039387046 0.0030259914 -0.00038313615
000300 8e 33 e5 b9 dd 5b 20 bb fd 34 91 ba 58 3b 7d b9
       -0.00043716695 -0.0024468817 -0.0011078414 -0.00024150067
000310 7b 6d b4 38 56 2b 88 36 b7 fd 46 39 8c 05 58 38
       8.603461e-05 4.058161e-06 0.00018977268 5.150358e-05
000320 df ca 98 39 94 b3 01 b9 7a 98 5d b9 74 46 d7 38
       0.0002914285 -0.00012369297 -0.00021133004 0.00010265122
000330 26 0e 7f 38 69 3d 07 39 2b cc 53 b9 5e ed 75 b8
       6.0809914e-05 0.0001289748 -0.00020198587 -5.8633617e-05
000340 25 9f 82 b8 5e 4d a1 b7 8e b9 0e 3a 15 6d 86 39
       -6.228526e-05 -1.9228723e-05 0.000544452 0.00025639744
000350 ab a1 92 b8 3f 59 16 39 10 c1 88 38 bc c7 75 3a
       -6.9919355e-05 0.00014338362 6.520946e-05 0.0009375771
000360 d0 a3 25 37 80 41 5c b6 a8 f7 e9 ba 03 ff 3a ba
       9.872907e-06 -3.282068e-06 -0.0017850297 -0.00071333366
000370 fb 1f 8c ba ef d2 8b 38 81 8e 26 39 71 e7 06 3a
       -0.0010690683 6.667326e-05 0.0001588408 0.0005146182
000380 4c c7 97 39 01 d4 b8 ba 24 14 42 38 b8 ef ac 38
       0.00028949452 -0.0014101268 4.627196e-05 8.24625e-05
000390 15 04 9d 3a de 2c 10 3a b4 4d 09 ba 42 0d 28 b9
       0.0011979366 0.000549985 -0.0005237714 -0.00016026667
0003a0 10 11 e9 38 55 2e 30 3a 3b c9 88 39 ac 85 e2 ba
       0.00011113484 0.0006720771 0.0002608987 -0.0017282269
0003b0 3d 95 9a 38 15 c4 20 39 b7 b1 89 3a 9c f5 fd 39
       7.37109e-05 0.00015331835 0.0010505234 0.00048438914
0003c0 90 a3 b2 38 bc df 0d b9 82 85 9f 38 4a 4b b1 38
       8.518167e-05 -0.00013530155 7.6065786e-05 8.4540414e-05
0003d0 a0 8e 13 38 de cc 04 b9 11 a6 e2 38 38 2b d5 36
       3.518036e-05 -0.0001266482 0.00010807452 6.352926e-06
0003e0 15 47 9f 38 35 f0 c7 38 a7 28 0a ba 2a 36 42 39
       7.594951e-05 9.5338015e-05 -0.000527034 0.0001852146
0003f0 c0 1f 9b 38 20 57 9e 39 92 96 00 39 21 8a 09 3b
       7.39689e-05 0.00030201022 0.00012263123 0.0020986872
